model.npz (npz, 557226 bytes, 13 tensors)

Conv6.kern f4 [1, 1, 128, 100]
-0.04651535 -0.094001986 -0.0070155878 -0.061995618 0.0030342187 0.12112583 0.0973852 0.04155151
0.15402009 0.14348917 -0.064388566 -0.04538281 0.11899021 0.13520843 0.13760403 -0.084596336
0.16552736 -0.078964606 0.083267875 -0.074654154 0.07557872 0.07548515 -0.0024867633 0.026936779
0.015783055 -0.09099973 0.04248084 -0.1278696 0.044753447 0.04935432 -0.124394216 -0.11630878
-0.15289026 0.033132277 -0.09082399 -0.06703258 -0.0021876385 0.048611086 -0.046024077 0.07781141
-0.0870319 -0.13192886 -0.08993698 -0.018987954 -0.06322572 -0.114042215 -0.041508373 0.042986963
-0.0070171063 -0.19228593 0.029604148 -0.050902646 -0.058079585 -0.0360151 -0.01607097 -0.009091759
-0.039414115 0.2029265 -0.058118496 0.010131364 0.1283448 -0.040939167 -0.02816357 0.018749755
0.17170762 -0.004606045 -0.023976676 0.027359826 -0.1614055 -0.14909229 -0.03993283 -0.0428086
0.055961486 0.07880217 0.1168248 -0.09830736 0.13029997 0.0466675 0.046349928 -0.009593379
-0.008010181 -0.03242273 -0.0068977545 0.032955874 0.1853577 0.07122543 -0.026561618 -0.020701036
0.035077434 0.011624001 0.039309103 -0.07142376 0.03516372 0.172192 -0.026807984 -0.009497975
-0.002404435 -0.025789822 0.07701571 0.024870262 0.058012985 -0.16359612 0.08062519 -0.19808638
-0.22074631 0.101993784 -0.040732022 0.03127487 -0.0037120334 0.09745704 0.1192733 0.07300207
0.031593595 0.06512438 0.05311666 0.21211065 -0.09964247 -0.17969482 0.15872145 -0.042795036
0.016007503 0.09452943 -0.0059659327 0.2560565 0.073950715 -0.04130314 -0.09914264 -0.11549612
0.0882954 0.080801606 0.13787845 -0.0847162 -0.004617028 -0.028107714 -0.16401374 0.014163755
-0.14173551 0.057139523 -0.0026606675 -0.047380712 0.11141959 0.1428127 -0.23017144 -0.00026701068
-0.0622247 0.05878228 -0.1068302 0.16058742 -0.019399082 -0.18304017 0.07092196 0.053868327
0.021831678 0.036548167 0.08550449 -0.025945475 -0.06544718 -0.024512285 -0.2346368 -0.23224021
0.11182519 0.08559678 0.08350486 0.15600386 0.018317943 0.269798 -0.03696644 -0.077919334
0.12042442 -0.05460171 -0.05374108 -0.09968132 0.12264643 0.27785918 0.026246894 0.007632457
0.115573764 0.15203117 -0.03756414 0.1212207 0.08552371 0.11758309 0.08733647 -0.14487052
-0.080518335 0.051956464 0.04136428 0.04363171 -0.06842145 -0.04639822 0.07017506 0.003051177
0.03933639 0.01413767 -0.1790511 -0.09773983 0.104830705 -0.04295002 -0.13043664 -0.063917324
-0.075346544 0.09668401 -0.15419519 -0.04678908 -0.089152284 -0.13423768 -0.024101853 0.049573816
0.17305934 -0.17215048 -0.08742045 -0.20264529 0.15698664 -0.063642524 -0.08458388 -0.16421372
0.0033015462 0.1477665 -0.13941284 0.11458877 0.027400553 -0.12883604 -0.015234694 0.089607924
0.15845565 -0.027567456 -0.0320164 0.0630891 0.087898195 -0.09470464 -0.123053044 -0.011498709
0.05175689 -0.08134772 -0.026698364 -0.21002817 -0.10793736 -0.066574454 0.13890284 0.08139589
-0.11439947 0.020760478 0.1557887 -0.019020945 0.06764661 -0.06354611 0.04905279 -0.1545359
0.1261685 0.18186468 -0.24151948 -0.06919957 -0.066277735 0.0026998038 -0.09129745 0.08686188
00000000: e186 3ebd 1d84 c0bd 04e3 e5bb 1eef 7dbd
00000010: bed9 463b d210 f83d e471 c73d eb31 2a3d
00000020: 71b7 1d3e d3ee 123e 27de 83bd 53e3 39bd
00000030: 24b1 f33d 1474 0a3e 12e8 0c3e d840 adbd
00000040: 0180 293e 32b8 a1bd 5988 aa3d 47e4 98bd
00000050: 04c9 9a3d f597 9a3d f7f8 22bb 85aa dc3c
00000060: 774b 813c 115e babd 6400 2e3d 40f0 02be
00000070: 644f 373d c127 4a3d 65c2 febd 4c33 eebd
00000080: 448f 1cbe b6b5 073d ee01 babd 6148 89bd
00000090: 7c5e 0fbb 6b1c 473d be83 3cbd 975b 9f3d
000000a0: c83d b2bd 5c18 07be e130 b8bd a08c 9bbc
000000b0: 7c7c 81bd f78e e9bd af04 2abd 1913 303d
000000c0: c1ef e5bb 9ae6 44be 6684 f23c 4b7f 50bd
000000d0: dce4 6dbd 9284 13bd 44a7 83bc 9af5 14bc
000000e0: b270 21bd f7cb 4f3e a90d 6ebd 05fe 253c
000000f0: d26c 033e d4af 27bd 4ab7 e6bc 1699 993c
00000100: 1fd4 2f3e 4eee 96bb bc6a c4bc b721 e03c
00000110: 7c47 25be a6ab 18be 9b90 23bd 1258 2fbd
00000120: df37 653d 0863 a13d d741 ef3d 5f55 c9bd
00000130: 5b6d 053e 6c26 3f3d 6cd9 3d3d 8c2d 1dbc
00000140: 223d 03bc b2cd 04bd 8f06 e2bb bdfc 063d
00000150: 69ce 3d3e a3de 913d c097 d9bc 3895 a9bc
00000160: 5bad 0f3d 9872 3e3c 9502 213d 9f46 92bd
00000170: d507 103d 1a53 303e 6b9c dbbc 659d 1bbc
00000180: ba93 1dbb 2d45 d3bc 6aba 9d3d b8bc cb3c
00000190: 069f 6d3d be85 27be d21e a53d 28d7 4abe
000001a0: 520b 62be 1ee2 d03d 9fd6 26bd 141a 003d
000001b0: 9645 73bb 8e97 c73d 8f45 f43d 1c82 953d
000001c0: 4968 013d ee5f 853d db90 593d 8933 593e
000001d0: 5a11 ccbd eb01 38be e087 223e d949 2fbd
000001e0: 2b22 833c a598 c13d df7d c3bb d619 833e
000001f0: 7973 973d 7b2d 29bd 4c0b cbbd 3b89 ecbd
00000200: 38d4 b43d 507b a53d 0230 0d3e b07f adbd
00000210: 704a 97bb 2642 e6bc 38f3 27be 180f 683c
00000220: 1d23 11be 220b 6a3d 985e 2ebb 4712 42bd
00000230: f42f e43d 7e3d 123e 10b2 6bbe 91fd 8bb9
00000240: 54df 7ebd b0c5 703d cbc9 dabd 0771 243e
00000250: d3ea 9ebc e26e 3bbe 883f 913d 09a5 5c3d
00000260: 59d8 b23c 88b3 153d fa1c af3d 9b8b d4bc
00000270: 2c09 86bd fdcd c8bc a144 70be 61d0 6dbe
00000280: 9b04 e53d 5d4d af3d 9904 ab3d 7abf 1f3e
00000290: 830f 963c f722 8a3e 1f6a 17bd 2c94 9fbd
000002a0: 14a1 f63d 0ba6 5fbd 9b1f 5cbd b825 ccbd
000002b0: 0d2e fb3d 8f43 8e3e ba03 d73c b119 fa3b
000002c0: f0b1 ec3d 0fae 1b3e dbdc 19bd 8f42 f83d
000002d0: 0e27 af3d 67cf f03d 77dd b23d f058 14be
000002e0: cce6 a4bd 4dd0 543d 976d 293d 2ab7 323d
000002f0: 8c20 8cbd 0f0c 3ebd f1b7 8f3d 41f6 473b
00000300: 321f 213d b0a1 673c 2c59 37be d22b c8bd
00000310: 7bb1 d63d 5cec 2fbd 2f91 05be 16e7 82bd
00000320: 4a4f 9abd 4402 c63d 58e5 1dbe e8a5 3fbd
00000330: 7995 b6bd 9a75 09be 4071 c5bc ea0d 4b3d
00000340: 7836 313e 3748 30be 7e09 b3bd 3f82 4fbe
00000350: 1bc1 203e 0357 82bd 503a adbd a427 28be
00000360: c15e 583b 1a50 173e 3dc2 0ebe 84ad ea3d
00000370: 2077 e03c 98ed 03be f09a 79bc 5c84 b73d
00000380: 3342 223e 25d5 e1bc a123 03bd dc34 813d
00000390: f803 b43d 82f4 c1bd 3c03 fcbd 1565 3cbc
000003a0: 08ff 533d a299 a6bd 87b6 dabc a011 57be
000003b0: 430e ddbd 3058 88bd 8c3c 0e3e e3b2 a63d
000003c0: 454a eabd e111 aa3c 1387 1f3e d0d1 9bbc
000003d0: 4e8a 8a3d 7724 82bd 94eb 483d a93e 1ebe
000003e0: 5132 013e bc3a 3a3e e250 77be 81b8 8dbd
000003f0: 9fbc 87bd 31ef 303b 28fa babd a4e4 b13d

Conv4.kern f4 [3, 3, 48, 64]
0.06941017 -0.07310939 -0.043646462 -0.102285475 0.03343717 0.033830095 -0.171819 -0.15192465
-0.0021997967 -0.24473539 0.030686708 -0.11021766 -0.11110193 0.016692242 -0.012305573 0.1594155
0.101285644 0.0027524182 -0.037786923 0.10933833 0.13253033 -0.05591053 -0.29905143 0.037804294
0.16860506 -0.008491439 0.052084498 -0.069971405 0.07304096 0.050478425 -0.00706392 -0.15021475
0.11683161 -0.021810893 0.025106683 0.14403969 -0.049853727 -0.06529652 -0.03232332 0.11387525
0.019245159 0.015901042 0.1057934 -0.030686757 0.14883888 0.019584136 0.088047475 -0.055410843
-0.0070022373 -0.13413817 0.016423667 0.11976314 -0.12172566 -0.08244115 0.019361392 0.06520133
0.1286108 0.042925626 -0.06450453 0.042634815 -0.04192554 0.0979272 -0.10167199 -0.10202013
-0.025736487 -0.0890066 0.004897166 0.15023589 -0.13087384 -0.031971928 0.04649591 -0.04799
0.006687719 -0.011313074 -0.0077091353 0.00086612324 0.1025173 -0.048913825 -0.021377994 -0.017907005
-0.06696657 0.096372396 -0.1977839 -0.13533987 -0.03323651 0.089290254 0.0014023965 -0.17729749
-0.023948617 -0.03887022 -0.026031584 -0.0065655587 -0.084761344 -0.0007153353 -0.011919025 -0.025781613
0.0119157145 -0.13333121 -0.021554327 -0.14341374 -0.08275011 0.015195614 -0.116007805 -0.027234992
0.12073842 -0.08968991 -0.033714503 0.033299726 0.19196525 0.17721514 -0.0567235 0.042914737
0.011095065 0.07820668 0.095190465 -0.14066853 0.103293255 -0.12433678 0.02560349 -0.029661154
0.060010538 0.07860442 0.15754476 -0.17332521 -0.10513748 0.24359982 -0.06271296 -0.062266327
-0.11814472 0.029036865 0.16339898 -0.18712264 0.030675296 -0.23891537 -0.030855106 -0.024435522
0.10079392 -0.0668541 0.08558863 -0.086306706 0.16899525 0.004426705 0.1736742 0.0004250015
-0.15325806 -0.10378863 -0.13036056 -0.03007827 -0.063310795 -0.0010931853 0.15634553 0.034917466
0.16456877 0.07352658 0.024301926 0.079026 0.059547395 0.12735291 -0.0870271 0.08274591
0.13268566 0.012480035 0.03643162 -0.044365127 -0.09524068 0.101284586 0.088257395 0.17595574
0.083243586 -0.07717373 -0.018485883 0.044751942 -0.059223954 -0.13351516 -0.034060903 0.03233029
0.0713763 0.03323703 0.15538754 -0.07629739 0.0472415 0.11277281 -0.15398607 0.07730503
0.1086237 -0.17339888 -0.09838406 -0.07795694 0.045669284 -0.03513405 0.027077002 -0.0024855644
-0.14428478 -0.12993237 -0.1080727 -0.011546521 0.15496102 0.0009766385 -0.005175621 0.108921126
-0.05246883 0.1889313 -0.033470336 0.04984044 -0.1622838 -0.04963004 -0.104334995 -0.059071466
-0.047450278 -0.047616176 0.09714147 0.14987233 -0.07736524 0.09799747 -0.07183347 -0.055520076
-0.060854148 -0.039473936 0.12903363 0.18564366 -0.087700166 0.035552565 0.022491554 0.114621975
-0.08739612 0.008496379 -0.10113676 0.14889166 0.12107638 -0.018425686 0.0361558 -0.09107468
0.03731195 -0.015826179 0.11961922 -0.11837849 0.20947245 0.011268893 0.027405774 0.09417207
0.10432526 -0.0075810403 -0.07449583 -0.08249734 0.040337913 -0.08728541 -0.022776302 0.07818033
-0.048746157 -0.101107664 -0.118334405 0.004486542 -0.066556916 0.1514671 -0.21391453 -0.06814213
00000000: eb26 8e3d 60ba 95bd a2c6 32bd 0c7b d1bd
00000010: 6af5 083d 6d91 0a3d 52f1 2fbe 2392 1bbe
00000020: 772a 10bb ea9b 7abe b162 fb3c ccb9 e1bd
00000030: 6989 e3bd 2bbe 883c 509d 49bc d13d 233e
00000040: d96e cf3d ea61 343b 76c6 1abd c6ec df3d
00000050: 08b6 073e 7102 65bd 451d 99be add8 1a3d
00000060: cea6 2c3e ad1f 0bbc 8e56 553d 2b4d 8fbd
00000070: 8096 953d 77c2 4e3d 7578 e7bb e5d1 19be
00000080: 6945 ef3d c2ac b2bc 88ac cd3c 247f 133e
00000090: 6c33 4cbd 2fba 85bd 7565 04bd 6d37 e93d
000000a0: 06a8 9d3c e742 823c 36aa d83d cb62 fbbc
000000b0: 3869 183e e96e a03c 3c52 b43d 7bf6 62bd
000000c0: 0673 e5bb 845b 09be ed8a 863c 6146 f53d
000000d0: 4e4b f9bd e8d6 a8bd c89b 9e3c 4688 853d
000000e0: 8db2 033e c8d2 2f3d f31a 84bd d8a1 2e3d
000000f0: 1dba 2bbd 0e8e c83d 6739 d0bd eeef d0bd
00000100: 53d5 d2bc 1849 b6bd 6878 a03b 70d7 193e
00000110: cb03 06be fff4 02bd 7f72 3e3d 2a91 44bd
00000120: a724 db3b 795a 39bc ea9c fcbb 8c0c 633a
00000130: 97f4 d13d dd59 48bd e720 afbc b6b1 92bc
00000140: c525 89bd e45e c53d dd87 4abe 8996 0abe
00000150: 0223 08bd cfdd b63d 9ed0 b73a 798d 35be
00000160: e42f c4bc 6136 1fbd 3040 d5bc e623 d7bb
00000170: 5b97 adbd 5785 3bba 0448 43bc f633 d3bc
00000180: 213a 433c fa87 08be b392 b0bc 0ddb 12be
00000190: e478 a9bd 06f7 783c 8095 edbd eb1b dfbc
000001a0: b445 f73d 58af b7bd 3818 0abd 4b65 083d
000001b0: 8a92 443e e377 353e e756 68bd 5dc7 2f3d
000001c0: 13c8 353c d32a a03d 38f3 c23d 690b 10be
000001d0: 6a8b d33d 48a4 febd 69be d13c f3fb f2bc
000001e0: 9ccd 753d 5bfb a03d 6a53 213e 2a7c 31be
000001f0: 5252 d7bd 3b72 793e a76f 80bd fa0a 7fbd
00000200: dcf5 f1bd b8de ed3c 1052 273e 149d 3fbe
00000210: c24a fb3c 3ba6 74be d9c3 fcbc 012d c8bc
00000220: 0b6d ce3d cdea 88bd 1749 af3d 92c1 b0bd
00000230: 170d 2d3e e50d 913b a6d7 313e bcd2 de39
00000240: aeef 1cbe 228f d4bd 3d7d 05be b466 f6bc
00000250: 17a9 81bd 3649 8fba 0b19 203e 9e05 0f3d
00000260: b784 283e 1b95 963d d514 c73c 62d8 a13d
00000270: f8e7 733d cd68 023e 443b b2bd b076 a93d
00000280: c0de 073e 1079 4c3c 5339 153d 35b8 35bd
00000290: 8c0d c3bd 4b6e cf3d 4bc0 b43d be2d 343e
000002a0: 9d7b aa3d 430d 9ebd b56f 97bc d04d 373d
000002b0: d194 72bd 33b8 08be 7283 0bbd c46c 043d
000002c0: bd2d 923d 8d23 083d e91d 1f3e ce41 9cbd
000002d0: 4e80 413d 6ef5 e63d 86ae 1dbe 1952 9e3d
000002e0: 1a76 de3d 7a8f 31be 957d c9bd e3a7 9fbd
000002f0: b70f 3b3d b9e8 0fbd 97d0 dd3c dae4 22bb
00000300: 64bf 13be fe0c 05be 3855 ddbd 9f2d 3dbc
00000310: 1aae 1e3e 8d02 803a 4198 a9bb 0a12 df3d
00000320: 8ee9 56bd 3577 413e 3118 09bd 7d25 4c3d
00000330: b92d 26be de48 4bbd 96ad d5bd ecf4 71bd
00000340: 395b 42bd 2e09 43bd 1bf2 c63d 2278 193e
00000350: ab71 9ebd e6b2 c83d 6d1d 93bd 0569 63bd
00000360: 3342 79bd 6caf 21bd 6421 043e 5f19 3e3e
00000370: 259c b3bd 919f 113d 3540 b83c edbe ea3d
00000380: bdfc b2bd 6534 0b3c ca20 cfbd 0e77 183e
00000390: e5f6 f73d 77f1 96bc 1b18 143d 5d85 babd
000003a0: 6ad4 183d e7a5 81bc ecfa f43d 6c70 f2bd
000003b0: f27f 563e 2aa1 383c 1382 e03c 49dd c03d
000003c0: 7ba8 d53d 606a f8bb 4591 98bd 5ef4 a8bd
000003d0: 5e39 253d b1c2 b2bd 5e95 babc 021d a03d
000003e0: 0daa 47bd 8911 cfbd 4f59 f2bd d803 933b
000003f0: fe4e 88bd 311a 1b3e 690c 5bbe 1a8e 8bbd

Conv5.kern f4 [3, 3, 64, 128]
-0.06977776 -0.028502347 0.007408329 -0.010298999 0.14838703 0.025911447 0.10051263 0.03969856
0.06085214 0.16036323 -0.043929838 0.11345934 -0.11020684 0.09810729 -0.045138925 -0.019196395
0.021632291 0.016469019 -0.12836833 -0.106068164 0.06953076 0.08362835 0.074897766 0.01194175
-0.14238982 0.06890459 -0.23167984 -0.07276067 0.076117456 0.051838737 -0.18538879 -0.18300754
-0.13263766 -0.064904265 -0.06259417 0.12277847 -0.20465252 0.028993472 0.0018283995 -0.15872726
-0.009568005 0.054460417 0.04720271 -0.022213027 0.026943235 -0.07170247 -0.084695846 0.01403836
0.010563462 0.06858657 -0.038497962 0.07571824 0.041933175 -0.05244492 0.08907052 0.1962827
-0.040124618 -0.08400484 0.026455108 0.035113126 -0.049382452 0.018671805 0.046623815 0.08333126
0.20418097 0.080978535 0.050863337 -0.0057055457 -0.05499282 0.05203066 0.02951926 0.06598486
0.0041098827 0.007194133 -0.13826783 0.0030812756 -0.0010986604 -0.09418228 -0.072819434 0.00626677
0.16367137 0.029453665 -0.10722297 0.14185956 0.10961919 -0.22290067 0.048279405 0.029624669
-0.11161334 -0.048230585 -0.11371727 0.11699701 0.08043824 -0.11316509 -0.013592936 -0.14850633
0.002988422 0.004305046 0.04405736 0.08504894 -0.00012920203 -0.15840703 -0.0868689 0.15694124
0.11493684 0.07946666 0.16984843 0.018839957 0.01375971 0.13939871 -0.1531445 0.028273102
0.15431961 -0.077671744 -0.21381873 0.089097284 -0.04069207 0.062225234 0.065946326 0.11320928
0.020977924 -0.04771264 -0.20584732 -0.18432567 -0.09440586 0.121014275 -0.023878977 0.032118186
-0.16178356 0.010775357 -0.023289409 0.03541813 -0.1191612 0.042147215 0.012446608 -0.098112166
-0.04936622 0.14156161 -0.122446686 -0.049277484 0.014789765 0.096555285 -0.07342303 -0.10921887
0.0019735256 -0.09520324 -0.10980724 0.048299067 0.034869634 -0.08429334 0.10771068 0.0012720773
-0.055061717 0.09063759 0.11484959 -0.072194055 0.034775093 0.07290075 -0.07820986 -0.061636038
0.16969112 -0.090018645 0.02045902 0.0873703 -0.026608879 -0.08119053 -0.13101357 0.056096494
-0.030405814 0.117910974 0.004587408 0.08727325 -0.0040626195 0.051657606 0.017285775 -0.09664848
-0.18552567 0.025382623 0.034780744 -0.008252878 0.16061293 -0.03437854 -0.14992292 0.12664884
-0.03366373 0.008035526 -0.09561072 0.135323 0.004168003 -0.053648856 -0.15951474 0.060098574
0.085538864 -0.00937322 0.005233013 -0.0007900398 0.16732912 -0.16207565 -0.04195469 -0.10950049
-0.038963504 -0.004030477 0.08270422 -0.11359805 0.12010678 0.019277977 0.030492993 0.057133127
0.016564867 0.07743089 0.11927394 -0.06462401 -0.09146367 0.13578725 -0.020430757 0.016915616
-0.07258073 0.06107067 0.17129953 -0.13371855 0.061381686 0.0412264 -0.11783005 -0.08460559
-0.138436 0.005878745 -0.019018948 0.025480077 -0.07157614 0.18079624 -0.048929386 0.1316935
-0.011861266 0.030730467 -0.13671769 -0.021146864 0.08508454 -0.043637574 -0.05313557 -0.11385253
0.003886587 0.06775571 -0.07245201 0.04951682 -0.16680354 0.17003423 0.029437184 0.07221055
0.08621478 -0.10898142 -0.17848629 -0.06028256 -0.051460974 -0.09764173 0.06415533 0.05993897
00000000: a4e7 8ebd c17d e9bc 91c1 f23b 22bd 28bc
00000010: c5f2 173e 3e44 d43c 91d9 cd3d f59a 223d
00000020: 1840 793d 4236 243e c6ef 33bd 5f5d e83d
00000030: 20b4 e1bd 7aec c83d 98e3 38bd c241 9dbc
00000040: 3436 b13c 09ea 863c fd72 03be 443a d9bd
00000050: 2566 8e3d 5745 ab3d 0064 993d 54a7 433c
00000060: a3ce 11be da1d 8d3d 7b3d 6dbe 8c03 95bd
00000070: 78e3 9b3d db54 543d 8fd6 3dbe 5466 3bbe
00000080: 2bd2 07be 87ec 84bd 5f31 80bd 4773 fb3d
00000090: 6e90 51be b883 ed3c e8a6 ef3a 6689 22be
000000a0: 1fc3 1cbc e311 5f3d a157 413d 18f8 b5bc
000000b0: 0fb8 dc3c bfd8 92bd 0475 adbd 2601 663c
000000c0: 5f12 2d3c 1e77 8c3d 0ab0 1dbd 2a12 9b3d
000000d0: 1fc2 2b3d 7cd0 56bd 9b6a b63d 55fe 483e
000000e0: b659 24bd bb0a acbd 62b8 d83c c8d2 0f3d
000000f0: 4145 4abd 9df5 983c 9df8 3e3d 94a9 aa3d
00000100: d114 513e 13d8 a53d 1356 503d 96f5 babb
00000110: 2740 61bd 1a1e 553d 60d2 f13c 1223 873d
00000120: 32ac 863b c3bc eb3b 1596 0dbe 3aef 493b
00000130: ed00 90ba a4e2 c0bd 5b22 95bd 7a59 cd3b
00000140: 7899 273e d048 f13c b797 dbbd a243 113e
00000150: 0780 e03d 1340 64be a0c0 453d 6faf f23c
00000160: 8995 e4bd 6f8d 45bd 9ae4 e8bd 219c ef3d
00000170: cebc a43d 19c3 e7bd e8b4 5ebc 0b12 18be
00000180: 67d9 433b 5811 8d3b 7e75 343d 232e ae3d
00000190: 687a 07b9 7435 22be 52e8 b1bd 34b5 203e
000001a0: 0264 eb3d 6bbf a23d bfec 2d3e 4156 9a3c
000001b0: 6870 613c 89be 0e3e e9d1 1cbe fe9c e73c
000001c0: f605 1e3e 5d12 9fbd 4cf3 5abe a378 b63d
000001d0: baac 26bd e3df 7e3d de0e 873d 44da e73d
000001e0: e5d9 ab3c 546e 43bd a4c9 52be debf 3cbe
000001f0: dc57 c1bd 55d6 f73d d89d c3bc 5c8e 033d
00000200: 97aa 25be 1f8b 303c 6ec9 bebc 9a12 113d
00000210: ca0a f4bd 8fa2 2c3d dcec 4b3c 08ef c8bd
00000220: 3c34 4abd 87f5 103e 54c5 fabd 30d7 49bd
00000230: c550 723c c7be c53d d05e 96bd 25ae dfbd
00000240: 4456 013b ebf9 c2bd 9ee2 e0bd 3ed5 453d
00000250: 76d3 0e3d fda1 acbd 6b97 dc3d d5bb a63a
00000260: 6588 61bd 33a0 b93d 4336 eb3d 7ada 93bd
00000270: 5470 0e3d fd4c 953d 7e2c a0bd 1276 7cbd
00000280: 82c3 2d3e b25b b8bd ad99 a73c 33ef b23d
00000290: ddfa d9bc 3847 a6bd 6c28 06be 70c5 653d
000002a0: 9d15 f9bc 4f7b f13d f851 963b 51bc b23d
000002b0: b91f 85bb ed96 533d e69a 8d3c a3ef c5bd
000002c0: 71fa 3dbe 38ef cf3c 4176 0e3d 1437 07bc
000002d0: b777 243e 83d0 0cbd 6585 19be 3cb0 013e
000002e0: fbe2 09bd 70a7 033c 8ecf c3bd 1d92 0a3e
000002f0: be93 883b e7be 5bbd d557 23be ec29 763d
00000300: 002f af3d 2292 19bc b279 ab3b ac1a 4fba
00000310: 5358 2b3e 29f7 25be aed8 2bbd cb41 e0bd
00000320: 3298 1fbd 1712 84bb d560 a93d 18a6 e8bd
00000330: 8bfa f53d d9ec 9d3c 71cc f93c 6d04 6a3d
00000340: 0bb3 873c 1694 9e3d e545 f43d 9859 84bd
00000350: 4e51 bbbd d00b 0b3e 675e a7bc 9e92 8a3c
00000360: 35a5 94bd 3d25 7a3d 2569 2f3e 84ed 08be
00000370: 5d6b 7b3d 03dd 283d e250 f1bd b245 adbd
00000380: 2bc2 0dbe 7da2 c03b a0cd 9bbc 98bb d03c
00000390: 8396 92bd a622 393e 2e6a 48bd a9da 063e
000003a0: c155 42bc 76be fb3c b9ff 0bbe 303c adbc
000003b0: ce40 ae3d 50bd 32bd afa4 59bd 842b e9bd
000003c0: 1cb6 7e3b 81c3 8a3d b861 94bd 26d2 4a3d
000003d0: 8cce 2abe 741d 2e3e 4026 f13c 20e3 933d
000003e0: 6091 b03d a731 dfbd 1cc5 36be d8ea 76bd
000003f0: bec8 52bd 63f8 c7bd df63 833d 9182 753d

Conv2.kern f4 [3, 3, 24, 36]
0.10296916 -0.015756894 0.18485346 0.023297608 0.1978977 -0.038011882 0.15066974 -0.008142446
-0.0851669 0.008264281 0.07592002 0.033469 -0.0073955674 -0.08038996 0.17853673 -0.08860472
-0.100412734 -0.109868504 -0.057482745 -0.028296998 -0.01279361 -0.010380908 -0.0066925324 0.057265162
0.1278235 -0.102032304 -0.07805054 0.14697836 0.0068495204 0.010861137 0.14190236 0.030660776
0.10666279 0.12536046 -0.07577127 0.092255585 0.121567644 -0.18634632 0.050508827 0.074316286
-0.039874572 -0.042896513 -0.14630891 -0.09456241 0.0642665 -0.020724814 0.098136514 0.007893603
0.0090927305 -0.1598664 -0.007046042 0.06007439 0.0020835823 -0.12973413 -0.06706039 0.14241211
-0.10814997 0.06583379 -0.016249223 0.07710312 0.14321981 0.09885293 0.07063788 0.09896168
-0.04270811 -0.09597673 0.06765098 -0.15502574 0.025860546 -0.016692126 0.125732 0.089801274
0.0668428 0.07877853 0.03581936 0.08729979 0.01514742 0.0099964775 -0.056616742 0.00435808
0.3855107 0.08929304 0.020504652 0.20178962 -0.047355134 0.010643723 0.10144353 0.22860935
-0.024782877 -0.03542429 -0.12757728 0.03467975 -0.008279457 -0.09189124 -0.123643555 -0.10392387
-0.08648764 -0.06079712 -0.0990072 -0.05881621 0.09860256 0.19490455 -0.1900193 0.11219997
0.120701864 -0.07300315 -0.043791376 0.051648937 0.020626407 -0.20813434 -0.12407443 0.18044324
0.008440805 -0.06866066 -0.03596058 -0.10000285 0.0077941664 -0.19466865 0.13490172 -0.12775299
-0.09952047 -0.030754684 -0.11904744 -0.14183432 -0.0602794 0.15761389 0.013305266 0.16432646
-0.025251487 0.05113213 -0.07124718 0.009775288 -0.062798575 -0.10109413 0.03850961 0.05345252
-0.0035163045 0.09098371 0.12380375 0.091697864 -0.095284626 -0.022973506 -0.008669399 -0.06263469
-0.024059042 -0.028196407 0.014978619 -0.07365778 -0.08952855 0.04673697 -0.12608087 -0.024146672
-0.10478562 -0.067742944 0.05168597 -0.14635813 -0.1005535 -0.15067787 0.025329636 -0.07363496
0.06566318 -0.033105522 -0.025603918 -0.11995031 0.15234807 0.13730015 0.018404378 -0.18890345
-0.026516508 0.077947445 -0.055241518 -0.034172397 0.1249634 -0.079502575 0.14527094 0.18599288
0.13429396 -0.062182106 -0.03247414 0.110668145 -0.11830598 0.008430668 0.06324466 -0.09811961
0.0078250365 0.110687174 -0.15447119 0.073465526 0.008346721 -0.15818632 -0.11285156 -0.044262882
0.15526567 -0.12811175 0.06670799 -0.20851544 0.039422657 0.016768035 -0.028999316 0.045472693
-0.019963738 -0.076987445 -0.05177762 0.017029615 0.098432995 -0.08942281 0.15586941 0.060672354
0.060308494 -0.04550805 -0.04935982 -0.045590915 0.10010305 0.0461665 -0.00976469 -0.040690586
-0.09637946 -0.015412166 0.0019482085 0.071335465 -0.05076851 -0.15641582 0.008179047 -0.014335786
-0.14795491 -0.13652334 -0.09635078 0.05253822 -0.064716816 -0.14385295 0.042660993 -0.10682864
-0.062580794 -0.042158157 0.1355739 -0.09140399 0.031499125 0.03681847 -0.14348407 0.10030077
-0.18176132 0.03234747 -0.06247501 -0.018309059 -0.09031964 -0.02985257 0.036840443 -0.060443178
-0.07103668 0.057678506 0.06260831 0.041048266 3.3966542e-05 -0.08034955 -0.057177443 0.058984723
00000000: 7fe1 d23d 9a14 81bc 3a4a 3d3e a0da be3c
00000010: b2a5 4a3e 59b2 1bbd 2b49 1a3e e567 05bc
00000020: fc6b aebd e866 073c f57b 9b3d ca16 093d
00000030: 8456 f2bb 7ea3 a4bd 55d2 363e 6476 b5bd
00000040: 31a5 cdbd bd02 e1bd 0773 6bbd 1bcf e7bc
00000050: 4a9c 51bc af14 2abc 084d dbbb e08e 6a3d
00000060: 2ae4 023e 50f6 d0bd f6d8 9fbd 7f81 163e
00000070: f171 e03b e9f2 313c da4e 113e 4f2c fb3c
00000080: 0572 da3d 7e5e 003e f82d 9bbd 7ff0 bc3d
00000090: 75f8 f83d 92d1 3ebe 58e2 4e3d 2333 983d
000000a0: 8553 23bd 41b4 2fbd 01d2 15be f0a9 c1bd
000000b0: 289e 833d 16c7 a9bc ccfb c83d 2c54 013c
000000c0: adf9 143c 04b4 23be 7ce2 e6bb 9010 763d
000000d0: b68c 083b 06d9 04be f556 89bd 7bd4 113e
000000e0: bb7d ddbd ded3 863d 171d 85bc 3ee8 9d3d
000000f0: 37a8 123e 6873 ca3d 98aa 903d 6cac ca3d
00000100: b3ee 2ebd 738f c4bd 998c 8a3d 11bf 1ebe
00000110: 7fd9 d33c edbd 88bc e4bf 003e bbe9 b73d
00000120: e1e4 883d a356 a13d 52b7 123d 3bca b23d
00000130: e22c 783c 44c8 233c f5e6 67bd 3ace 8e3b
00000140: a961 c53e 45df b63d 5ff9 a73c f0a1 4e3e
00000150: 75f7 41bd 0363 2e3c a0c1 cf3d 9218 6a3e
00000160: 7605 cbbc 0f19 11bd 9ea3 02be 5b0c 0e3d
00000170: 8fa6 07bc 7931 bcbd d538 fdbd 0ad6 d4bd
00000180: 6f20 b1bd 6706 79bd 49c4 cabd 44e9 70bd
00000190: 24f0 c93d 0f95 473e 6b94 42be 19c9 e53d
000001a0: 8a32 f73d ad82 95bd 965e 33bd d68d 533d
000001b0: b6f8 a83c 2b21 55be bc1a febd 1dc6 383e
000001c0: 4d4b 0a3c f69d 8cbd 674b 13bd 4bce ccbd
000001d0: 3566 ff3b 3857 47be ad23 0a3e aed1 02be
000001e0: 63d1 cbbd 3ff1 fbbc 25cf f3bd 043d 11be
000001f0: 88e7 76bd 8965 213e 55fe 593c 3245 283e
00000200: 35dc cebc ed6f 513d 0bea 91bd 8828 203c
00000210: 8a9c 80bd 700a cfbd 41bc 1d3d 08f1 5a3d
00000220: cd71 66bb ab55 ba3d d28c fd3d 17cc bb3d
00000230: 9624 c3bd ef32 bcbc 180a 0ebc 9e46 80bd
00000240: 7817 c5bc 27fc e6bc e268 753c e4d9 96bd
00000250: bf5a b7bd 446f 3f3d 581b 01be 3ecf c5bc
00000260: d899 d6bd d0bc 8abd abb4 533d e8de 15be
00000270: feee cdbd 4d4b 1abe 1980 cf3c edcd 96bd
00000280: 6b7a 863d a899 07bd 4fbf d1bc 82a8 f5bd
00000290: 2201 1c3e 6998 0c3e c7c4 963c e86f 41be
000002a0: 2639 d9bc e9a2 9f3d ee44 62bd 5bf8 0bbd
000002b0: d0ec ff3d 3fd2 a2bd e8c1 143e eb74 3e3e
000002c0: 5b84 093e aab2 7ebd 9b03 05bd fba5 e23d
000002d0: 684a f2bd c920 0a3c 6b86 813d eff2 c8bd
000002e0: 9534 003c f5af e23d b22d 1ebe 1875 963d
000002f0: afc0 083c 98fb 21be b81e e7bd ff4c 35bd
00000300: f7fd 1e3e ba2f 03be 339e 883d 1285 55be
00000310: a779 213d 1e5d 893c f98f edbc 9341 3a3d
00000320: fe8a a3bc 98ab 9dbd c514 54bd b181 8b3c
00000330: 3d97 c93d 4e23 b7bd 3b9c 1f3e 9383 783d
00000340: 0a06 773d a666 3abd 862d 4abd 8abd 3abd
00000350: d402 cd3d 1519 3d3d 14fc 1fbc 2cab 26bd
00000360: 9862 c5bd 4f83 7cbc 085b ff3a 5418 923d
00000370: a4f2 4fbd 782b 20be 6901 063c a5e0 6abc
00000380: 7e81 17be c6cc 0bbe 8f53 c5bd 5132 573d
00000390: 408a 84bd 304e 13be 4bbd 2e3d f9c8 dabd
000003a0: 5c2a 80bd 08ae 2cbd e2d3 0a3e 0432 bbbd
000003b0: 3a05 013d f7ce 163d 7ded 12be 7d6a cd3d
000003c0: a41f 3abe c87e 043d cce5 7fbd e1fc 95bc
000003d0: 81f9 b8bd 608d f4bc 01e6 163d 4493 77bd
000003e0: ae7b 91bd 4c40 6c3d c938 803d 3a22 283d
000003f0: 4c77 0e38 4e8e a4bd e532 6abd f799 713d

Conv4.bias f4 [64]
0.033162486 -0.042614054 0.03348246 -0.0038052308 -0.0074415635 0.02911597 0.028653547 0.026887126
-0.027227217 0.045629777 0.03642699 0.055701144 0.020507574 -0.008472974 -0.012492501 0.035370998
-0.00680872 0.04118833 -0.018446688 0.046613194 0.03131421 0.028342305 -0.0049033733 -0.014822224
-0.01526458 0.035568673 -0.001267728 -0.020468457 0.031908758 -0.00029467733 -0.008578679 0.0038666597
-0.030968444 -0.010867975 -0.047865547 0.014379103 -0.019927347 -0.046556424 -0.007837435 0.050342277
0.03516608 0.00032590862 0.022907685 -0.008446503 0.009597205 0.079391606 -0.022040458 -0.027861351
-0.025393434 -0.0051969034 -0.04243826 -0.0027938895 0.024619604 0.01611958 -0.02842808 -0.0070695723
0.036519904 -0.01976304 0.037803166 -0.02522484 -0.03757131 -0.02410104 0.07413586 0.028225124
00000000: 63d5 073d 138c 2ebd e724 093d 2e61 79bb
00000010: 5cd8 f3bb 9d84 ee3c d8ba ea3c 6442 dc3c
00000020: 9d0b dfbc 4ae6 3a3d 7834 153d e226 643d
00000030: 80ff a73c 3bd2 0abc 59ad 4cbc 2ee1 103d
00000040: af1b dfbb 18b5 283d 821d 97bc 7aed 3e3d
00000050: 5443 003d 1f2e e83c 7aac a0bb ead8 72bc
00000060: 4a18 7abc 75b0 113d e529 a6ba 77ad a7bc
00000070: c2b2 023d ec7e 9ab9 968d 0cbc c967 7d3b
00000080: 89b1 fdbc 970f 32bc aa0e 44bd 5496 6b3c
00000090: ad3e a3bc f3b1 3ebd 9668 00bc b433 4e3d
000000a0: 4f0a 103d b7de aa39 e6a8 bb3c 3463 0abc
000000b0: 983d 1d3c 1198 a23d 318e b4bc 7d3d e4bc
000000c0: e405 d0bc c94a aabb bed3 2dbd b019 37bb
000000d0: 0daf c93c 360d 843c 01e2 e8bc dfa7 e7bb
000000e0: e595 153d 19e6 a1bc 7ed7 1a3d 53a4 cebc
000000f0: 60e4 19bd 8b6f c5bc 8bd4 973d 6038 e73c

Conv1.kern f4 [3, 3, 3, 24]
-0.027684223 -0.07725344 -0.092028685 0.123421505 0.029754661 -0.028474431 -0.11987868 -0.058026496
0.016364511 -0.17035104 0.104895204 -0.1327029 -0.099750735 -0.034522984 -0.03857226 -0.081902735
-0.18435174 0.20727152 -0.009415342 -0.08601846 -0.11632943 -0.09409366 -0.013613037 -0.035995297
0.022000208 -0.115152486 0.14124787 0.1888297 -0.089128666 -0.033387184 0.05259045 0.01126588
-0.14789143 0.116377175 -0.12948123 -0.007043632 0.13511705 0.011827865 0.22133332 0.047358032
-0.10528676 -0.0004503431 0.037205953 0.19424923 0.031030746 0.053059816 0.034886345 -0.008654098
0.10972804 0.13134201 0.103843115 0.043428265 -0.04661912 0.1810824 0.11720612 -0.009078334
-0.012282738 0.194429 -0.013828419 -0.122285634 0.11016085 0.08747418 -0.06899581 -0.1012642
-0.005336303 0.047319006 -0.16098782 -0.16695675 -0.057459738 0.1874223 0.01914568 0.074949294
-0.15731426 0.03693599 -0.19934052 -0.052127067 -0.03164742 -0.1488 0.070683464 -0.12837791
0.14312567 -0.06783487 0.036398888 -0.09769901 -0.18579084 0.053091362 -0.045227535 0.18734041
0.051664516 0.062224146 0.059053686 -0.029303418 0.0042340285 0.0017264603 0.0407259 -0.25858927
0.21789356 -0.060515184 0.058139667 -0.13646506 -0.07272661 0.0589662 0.008690529 -0.030188067
-0.089548804 -0.20028235 0.023822494 0.01015747 0.061062817 0.09625286 0.05889345 0.043476894
0.14126703 0.028927704 0.042115405 -0.04969485 -0.052514452 -0.06652037 -0.027826265 0.14525834
0.1446191 -0.021855667 0.081461 0.1221442 -0.030023579 -0.11259738 -0.04683847 -0.004452546
-0.030735219 0.070912026 0.056018047 -0.05574781 0.055546742 0.21237631 -0.10434611 -0.13122894
0.10547795 -0.086245745 0.037178237 0.08349382 -0.090360396 0.0074041774 0.119121484 0.07504873
0.1392955 0.04433354 -0.010837916 -0.013785833 0.18989906 0.013036456 -0.16471237 -0.008862149
0.10366334 0.11745435 0.06529384 -0.049156506 -0.07055657 -0.027266992 -0.08920305 0.068216585
-0.002677202 -0.16786535 0.116550416 -0.05171843 -0.19722204 -0.12082563 0.024399249 -0.073182024
0.063118055 -0.08567879 0.043794286 -0.077427976 0.07096866 -0.16766772 -0.034924936 -0.04777326
-0.10547063 -0.15876755 0.07558282 -0.060398757 0.07523432 -0.01020959 0.12966543 -0.01690915
-0.10664736 0.04649219 -0.060929276 0.07520557 0.048225027 0.11288324 -0.1530297 0.020034727
0.11419091 0.08817821 -0.08088593 -0.015012794 0.079760805 0.14174882 -0.012991709 0.13128985
0.048083927 0.1268137 -0.11417079 0.0396839 -0.02444565 0.088782735 -0.09651539 -0.017600803
0.013176251 -0.0824062 -0.1627376 0.049689326 0.06034523 -0.16478221 -0.109385505 0.09811302
0.08502402 -0.0027437161 -0.023854712 -0.017535705 -0.123411834 0.016214065 -0.04405507 0.11179902
0.20151623 0.09251666 0.06715997 -0.089514524 -0.08030763 0.09663944 0.012439145 0.034527928
-0.12315654 0.09768194 -0.11583687 -0.12177707 -0.049671266 -0.15553524 -0.038502015 -0.06696189
0.052994367 -0.073929794 0.14255263 0.117126726 0.08877272 0.050812293 -0.07351161 -0.124540634
-0.039571974 0.022309735 -0.06306038 -0.07392522 0.06589135 -0.043521017 -0.10980626 -0.08388208
00000000: 06ca e2bc 0d37 9ebd 8979 bcbd 6ac4 fc3d
00000010: 0cc0 f33c 3643 e9bc f482 f5bd 31ad 6dbd
00000020: de0e 863c 8170 2ebe 4cd3 d63d 45e3 07be
00000030: 1d4a ccbd f967 0dbd f2fd 1dbd 9fbc a7bd
00000040: b4c6 3cbe fc3e 543e ce42 1abc 722a b0bd
00000050: 203e eebd 2db4 c0bd 3709 5fbc ce6f 13bd
00000060: c839 b43c 11d5 ebbd 48a3 103e 935c 413e
00000070: 1789 b6bd 00c1 08bd 1569 573d 8794 383c
00000080: da70 17be 2857 ee3d ba96 04be 45ce e6bb
00000090: 205c 0a3e a9c9 413c 34a5 623e 7ffa 413d
000000a0: 96a0 d7bd 071c ecb9 4565 183d 45e9 463e
000000b0: 3134 fe3c 4055 593d fce4 0e3d ebc9 0dbc
000000c0: 18b9 e03d 857e 063e b3ab d43d d6e1 313d
000000d0: b1f3 3ebd aa6d 393e c309 f03d 4bbd 14bc
000000e0: 8a3d 49bc 6518 473e 9890 62bc e470 fabd
000000f0: 039c e13d aa25 b33d ad4d 8dbd 9b63 cfbd
00000100: 27dc aebb 93d1 413d fed9 24be b6f6 2abe
00000110: e75a 6bbd a2eb 3f3e 67d7 9c3c 047f 993d
00000120: fd16 21be 314a 173d ec1f 4cbe 3183 55bd
00000130: baa0 01bd 075f 18be 7ec2 903d 8075 03be
00000140: 898f 123e 02ed 8abd 0017 153d 6b16 c8bd
00000150: f43f 3ebe 5476 593d 8240 39bd 2ad6 3f3e
00000160: 2c9e 533d bfde 7e3d 47e2 713d b90d f0bc
00000170: 9bbd 8a3b 654a e23a 34d0 263d d065 84be
00000180: 7d1f 5f3e c5de 77bd dc23 6e3d 7fbd 0bbe
00000190: b0f1 94bd 8b86 713d b862 0e3c f74c f7bc
000001a0: 5d65 b7bd d116 4dbe 6427 c33c 846b 263c
000001b0: 011d 7a3d 3820 c53d 423a 713d d414 323d
000001c0: 4ea8 103e cbf9 ec3c 3481 2c3d d48c 4bbd
000001d0: 6519 57bd d53b 88bd e8f3 e3bc 9abe 143e
000001e0: 0817 143e a80a b3bc 06d5 a63d bd26 fa3d
000001f0: 02f4 f5bc 7599 e6bd b2d9 3fbd aae6 91bb
00000200: 6dc8 fbbc 533a 913d 2e73 653d d157 64bd
00000210: fb84 633d 2d79 593e 6ab3 d5bd e160 06be
00000220: d304 d83d 9ca1 b0bd 3548 183d cffe aa3d
00000230: df0e b9bd be9e f23b f7f5 f33d 26b3 993d
00000240: 7ba3 0e3e 1697 353d 8491 31bc f9dd 61bc
00000250: e674 423e dc96 553c 5caa 28be 8c32 11bc
00000260: 724d d43d e88b f03d c7b8 853d 5558 49bd
00000270: f77f 90bd 075f dfbc 17b0 b6bd 23b5 8b3d
00000280: ff73 2fbb e5e4 2bbe fcb1 ee3d b4d6 53bd
00000290: 93f4 49be 6e73 f7bd efe0 c73c 75e0 95bd
000002a0: 0a44 813d 5d78 afbd a361 333d 8f92 9ebd
000002b0: 0458 913d 16b1 2bbe 730d 0fbd e5ad 43bd
000002c0: fc00 d8bd f693 22be 2acb 9a3d b064 77bd
000002d0: 7314 9a3d 2046 27bc 04c7 043e 0f85 8abc
000002e0: ee69 dabd 986e 3e3d fa90 79bd 6105 9a3d
000002f0: 9b87 453d 542f e73d d1b3 1cbe de1f a43c
00000300: ecdc e93d c796 b43d 86a7 a5bd 39f8 75bc
00000310: a259 a33d 9a26 113e 2ddb 54bc d970 063e
00000320: a7f3 443d 73db 013e 60d2 e9bd 968b 223d
00000330: 3e42 c8bc b9d3 b53d dca9 c5bd 8f2f 90bc
00000340: 34e1 573c 95c4 a8bd afa4 26be 0987 4b3d
00000350: 8f2c 773d abbc 28be 8205 e0bd 7bef c83d
00000360: 1321 ae3d ebcf 33bb f56a c3bc 0aa7 8fbc
00000370: 58bf fcbd 5cd3 843c 1773 34bd e2f6 e43d
00000380: 455a 4e3e 6079 bd3d 2b8b 893d 6453 b7bd
00000390: 5478 a4bd e6ea c53d 8ecd 4b3c 286d 0d3d
000003a0: 7f39 fcbd 780d c83d e23b edbd 4266 f9bd
000003b0: 1974 4bbd a144 1fbe 4ab4 1dbd 5123 89bd
000003c0: 9f10 593d 8168 97bd 51f9 113e 23e0 ef3d
000003d0: 79ce b53d 8d20 503d 418d 96bd 290f ffbd
000003e0: 3916 22bd e8c2 b63c cd25 81bd 1b66 97bd
000003f0: 0bf2 863d 1843 32bd 1be2 e0bd 5eca abbd

Conv6.bias f4 [100]
-0.011893716 0.06403864 -0.035578962 0.04154616 0.054568164 -0.009797814 0.051802296 0.038397145
0.030264646 -0.0021651932 -0.002302534 -0.016662082 0.036342688 -0.02161416 0.026775835 -0.007385282
-0.024688542 0.04032978 0.018223213 0.042083785 0.03574342 0.010559622 0.058363155 0.014320295
0.042264096 -0.020124814 0.006711589 0.016422873 0.06564186 -0.004977612 -0.00067293487 0.040114224
-0.0145501075 -0.027439404 0.06802484 0.006870912 0.020448036 -0.016382653 0.0029778911 0.04299166
-0.011386902 0.015359329 0.041418374 0.021121792 0.05737176 0.06321225 -0.005240556 -0.008966051
0.029198054 0.022317523 0.03397549 -0.0014029633 0.03370713 -0.012947194 -0.0127691245 0.044848226
-0.0089617 -0.027080078 0.044293545 0.040350348 -0.024238119 0.06473464 -0.0060196547 -0.005422365
0.057624333 0.064527266 -0.009274032 0.03790564 -0.010906748 0.039921887 0.060450755 0.052017085
-0.0026923765 -0.0023201245 0.026352968 -0.0032695872 -0.0020106994 -0.014576533 0.04375118 0.025495432
0.016319266 0.042562265 0.022884132 0.060411006 -0.010113702 0.0008868671 0.006488682 0.031174473
0.0008910594 0.03863341 0.014681915 -0.012834102 -0.0022993002 0.048672244 0.034688972 0.0341419
-0.0063617737 -0.011295258 0.0042283717 0.044025645
00000000: dcdd 42bc b126 833d 3fbb 11bd 4e2c 2a3d
00000010: de82 5f3d 0387 20bc a52e 543d 5346 1d3d
00000020: 90ed f73c eae5 0dbb 1ce6 16bb eb7e 88bc
00000030: 12dc 143d 2e10 b1bc ff58 db3c 3c00 f2bb
00000040: a03f cabc d730 253d d948 953c 0c60 2c3d
00000050: b167 123d 4402 2d3c 340e 6f3d ac9f 6a3c
00000060: 1e1d 2d3d cbdc a4bc e4ec db3b 4389 863c
00000070: 3d6f 863d 3c1b a3bb e567 30ba d04e 243d
00000080: 9363 6ebc 9ac8 e0bc 9b50 8b3d 6325 e13b
00000090: a482 a73c ea34 86bc b928 433b 0618 303d
000000a0: 2190 3abc b2a5 7b3c 50a6 293d 9c07 ad3c
000000b0: a7fe 6a3d 6d75 813d f8b8 abbb 58e6 12bc
000000c0: c230 ef3c 3dd3 b63c e229 0b3d a3e3 b7ba
000000d0: 7d10 0a3d 7820 54bc 9735 51bc c6b2 373d
000000e0: 18d4 12bc 0ad7 ddbc 266d 353d 6846 253d
000000f0: 058f c6bc 9893 843d 8640 c5bb 18ae b1bb
00000100: 7e07 6c3d df26 843d 1cf2 17bc f242 1b3d
00000110: 37b2 32bc 2285 233d 369b 773d de0f 553d
00000120: 9572 30bb 3b0d 18bb 2ee2 d73c 9246 56bb
00000130: f0c5 03bb 69d2 6ebc 7034 333d ccdb d03c
00000140: fbaf 853c c555 2e3d 8177 bb3c 8871 773d
00000150: f1b3 25bc a57c 683a 029f d43b 9c61 ff3c
00000160: fc95 693a 113e 1e3d 6a8c 703c 2046 52bc
00000170: dbaf 16bb 8c5c 473d 0616 0e3d 60d8 0b3d
00000180: 6d76 d0bb bf0f 39bc 278e 8a3b 3c54 343d

Conv3.kern f4 [3, 3, 36, 48]
0.18547888 -0.14112681 -0.0049878377 -0.054123808 -0.13884842 -0.0472702 -0.094543144 -0.05727558
0.085688055 -0.09357159 0.037097644 0.023117874 0.07265913 -0.07297673 -0.07227232 -0.011548583
-0.195798 0.034088492 -0.03126469 -0.0025414885 0.02173127 -0.16638713 0.03994419 -0.046902433
-0.19861946 -0.02152938 -0.16275534 0.054163717 -0.12309039 0.026184725 0.07523107 0.064876914
-0.02105252 -0.04420745 -0.072084665 0.0658718 0.0786059 0.006962858 -0.04014342 0.11472727
-0.008801433 -0.041545007 0.06843665 -0.043379888 -0.12100783 -0.23979208 -0.14592285 0.06053624
-0.0502206 -0.01821043 0.008673863 0.15142259 0.04957528 0.10879269 0.05947162 0.091126665
0.17201625 -0.17983358 0.073173806 0.027265884 0.20089078 0.20707898 -0.042594153 -0.14352454
-0.09385034 -0.27438235 0.09027296 -0.048197284 -0.3093372 -0.009281993 -0.04206713 0.0029226537
-0.018455198 0.06723832 0.14244165 0.06682673 0.090248965 -0.14629115 0.0005480126 0.012601476
0.06900255 -0.04953116 0.031020073 0.099213466 0.069987044 -0.18699369 0.034590967 -0.05096248
0.0027046932 -0.08034287 -0.019244261 -0.028359763 -0.07412997 -0.012852293 -0.012709158 -0.010609348
-0.09377343 0.07422707 -0.029759903 0.045787334 -0.08819292 -0.04853861 -0.010956501 0.02569091
0.039003007 -0.0941918 0.017680513 0.18891922 -0.03871334 -0.057140693 -0.19189556 0.04420843
-0.092536084 0.052144464 -0.17950687 0.101331964 0.05584172 0.08026193 -0.08239442 -0.043900892
0.10820054 0.051750094 -0.07321344 0.14879276 -0.021232933 -0.019863784 0.0056566834 -0.01932936
-0.026656637 -0.09395791 0.20987105 0.030079553 -0.15972379 0.1110795 -0.091777004 0.03483792
0.008714816 0.005504703 -0.12667711 0.10367087 -0.06511609 0.0036951113 -0.16549139 0.0162203
0.08634863 0.041155756 0.08650254 0.11648711 0.08405868 0.0323338 0.05505918 -0.085669406
0.1090202 -0.089044206 0.07260108 -0.099845864 -0.28730592 0.031489518 -0.082918316 0.027917087
-0.1797768 0.07804924 0.079594195 -0.030178016 -0.09327112 -0.15476428 -0.06428039 0.13031016
0.12225123 0.039018977 -0.08934254 -0.046872642 -0.10290549 -0.06606511 0.14908151 -0.02922817
-0.14559022 -0.006079513 0.08295537 -0.14637715 -0.07927462 -0.037407424 -0.10842694 -0.13783172
0.122218445 0.044839997 0.13559122 -0.027429765 0.018062502 0.060995948 -0.006790303 0.041397374
-0.09318951 -0.0014231363 0.111765176 0.03353969 -0.029585099 0.0806084 0.033645194 -0.07427989
-0.071548015 0.07961976 0.11132259 -0.11919372 0.025262944 0.064310156 0.31597927 0.07804831
0.009334303 -0.20757484 0.11039809 -0.02157539 -0.14612201 -0.14406165 -0.088601716 -0.075978115
0.06986137 0.06087701 0.14649162 0.17212825 -0.017941775 0.11827923 -0.01641771 -0.1821905
-0.14107433 0.0038120365 0.0019705968 0.057182238 0.012200874 0.24344766 -0.13275717 -0.0698219
0.07951913 0.00022904124 -0.08592586 0.06213722 0.089722306 0.011372349 0.16021149 -0.08894741
0.180571 -0.10137039 0.16411561 0.15397201 0.074872315 -0.00024085982 0.030974472 0.024438027
0.04649386 0.1680195 0.062595874 -0.13970393 0.17969209 0.06525012 -0.06588338 -0.062320855
00000000: 2dee 3d3e 8c83 10be 0471 a3bb edb0 5dbd
00000010: 482e 0ebe 669e 41bd d69f c1bd cc99 6abd
00000020: 387d af3d 76a2 bfbd b3f3 173d b261 bd3c
00000030: 4fce 943d d374 95bd 8303 94bd 4536 3dbc
00000040: 457f 48be 60a0 0b3d 670f 00bd 1a8f 26bb
00000050: c705 b23c 6361 2abe 859c 233d c41c 40bd
00000060: e662 4bbe 625e b0bc 56a9 26be c6da 5d3d
00000070: d016 fcbd 5981 d63c bf12 9a3d 30de 843d
00000080: 5676 acbc df12 35bd 20a1 93bd cbe7 863d
00000090: 21fc a03d b028 e43b 6d6d 24bd 22f6 ea3d
000000a0: e333 10bc 192b 2abd 8428 8c3d 1caf 31bd
000000b0: f4d2 f7bd 0e8c 75be cd6c 15be d9f4 773d
000000c0: 1eb4 4dbd 0a2e 95bc d11c 0e3c 860e 1b3e
000000d0: 730f 4b3d b4ce de3d 8398 733d 9ea0 ba3d
000000e0: 0725 303e 4b26 38be 26dc 953d b45c df3c
000000f0: 50b6 4d3e 830c 543e 3577 2ebd 19f8 12be
00000100: 9b34 c0bd d87b 8cbe 08e1 b83d 846a 45bd
00000110: 7261 9ebe 8013 18bc 954e 2cbd fe89 3f3b
00000120: 5b2f 97bc 3fb4 893d 39dc 113e 74dc 883d
00000130: 73d4 b83d 59cd 15be 81a8 0f3a 6c76 4e3c
00000140: 3551 8d3d 30e1 4abd cf1d fe3c 6e30 cb3d
00000150: 5e55 8f3d 467b 3fbe 42af 0d3d 09be 50bd
00000160: 3941 313b cd8a a4bd 24a6 9dbc bc52 e8bc
00000170: 74d1 97bd 6d92 52bc 123a 50bc d5d2 2dbc
00000180: 490c c0bd 5d04 983d 0acb f3bc 808b 3b3d
00000190: 7d9e b4bd 6cd0 46bd e582 33bc be75 d23c
000001a0: 9ec1 1f3d a1e7 c0bd b9d6 903c 0a74 413e
000001b0: e191 1ebd 5c0c 6abd 4580 44be e613 353d
000001c0: 8f83 bdbd 6f95 553d a6d0 37be 2287 cf3d
000001d0: 4aba 643d 5e60 a43d 68be a8bd 6cd1 33bd
000001e0: 3f98 dd3d e8f7 533d eef0 95bd 215d 183e
000001f0: b0f0 adbc 60b9 a2bc b35b b93b 9b58 9ebc
00000200: 055f dabc 016d c0bd 70e8 563e 6569 f63c
00000210: a28e 23be a67d e33d 95f5 bbbd 35b2 0e3d
00000220: 96c8 0e3c cc60 b43b a5b7 01be 6551 d43d
00000230: 965b 85bd ae29 723b 9376 29be 6fe0 843c
00000240: 8dd7 b03d f092 283d 3e28 b13d cb90 ee3d
00000250: f526 ac3d 7270 043d bc85 613d 7173 afbd
00000260: fc45 df3d cf5c b6bd e0af 943d fd7b ccbd
00000270: c319 93be 27fb 003d 14d1 a9bd 60b2 e43c
00000280: 6917 38be 48d8 9f3d 4802 a33d e337 f7bc
00000290: ee04 bfbd 877a 1ebe 70a5 83bd 0770 053e
000002a0: da5e fa3d 5dd2 1f3d 39f9 b6bd 87fd 3fbd
000002b0: 1dc0 d2bd 254d 87bd d3a8 183e ea6f efbc
000002c0: 9a15 15be a736 c7bb 81e4 a93d e4e3 15be
000002d0: bb5a a2bd 8738 19bd f20e debd c223 0dbe
000002e0: aa4d fa3d 25aa 373d 6dd8 0a3e 63b4 e0bc
000002f0: d0f7 933c e3d6 793d 3181 debb 4b90 293d
00000300: 24da bebd 8888 baba 24e5 e43d ea60 093d
00000310: 735c f2bc 0416 a53d 8bcf 093d 0e20 98bd
00000320: c487 92bd af0f a33d 19fd e33d d61b f4bd
00000330: 3cf4 ce3c 0bb5 833d 09c8 a13e cbd7 9f3d
00000340: e8ee 183c 808e 54be 6518 e23d dfbe b0bc
00000350: 02a1 15be e684 13be d174 b5bd 6a9a 9bbd
00000360: 7a13 8f3d 2c5a 793d e601 163e 6342 303e
00000370: a1fa 92bc 623c f23d 6f7e 86bc 2590 3abe
00000380: ca75 10be 5cd3 793b 2125 013b ec37 6a3d
00000390: 2de6 473c 584a 793e 7ff1 07be c9fe 8ebd
000003a0: edda a23d ca2a 7039 e6f9 afbd 9983 7e3d
000003b0: 54c0 b73d 1753 3a3c 7b0e 243e 0f2a b6bd
000003c0: 9be7 383e 479b cfbd ec0d 283e d7aa 1d3e
000003d0: a856 993d 518f 7cb9 2dbe fd3c 4232 c83c
000003e0: 5970 3e3d 4e0d 2c3e 4432 803d 8c0e 0fbe
000003f0: 3401 383e dba1 853d deed 86bd 2744 7fbd

Conv3.bias f4 [48]
0.004652431 -0.0065292334 -0.015639033 -0.03570025 -0.003363009 -0.043745663 0.008117495 0.038045894
-0.016884666 0.007880148 -0.009846035 0.0016713863 0.0052984664 -0.027839754 -0.02668279 -0.024831641
0.030896865 -0.026327344 0.057189025 -0.022362564 0.018466873 -0.0811682 -0.069210894 -0.020847987
0.011624654 0.012881062 0.026569529 0.004089001 0.028191628 -0.032404505 -0.010654019 0.030331602
-0.058410764 0.031486727 -0.014916765 0.031181557 0.060202464 -0.0053318595 -0.02023774 0.022336284
0.018729907 0.023688978 -0.007385021 0.0018069891 0.022149388 -0.0038944662 0.036151245 -0.00076208165
00000000: 6b73 983b 2ef3 d5bb 6e1d 80bc 6d3a 12bd
00000010: ee65 5cbb a72e 33bd 3eff 043c 03d6 1b3d
00000020: b651 8abc bc1b 013c 4451 21bc 6b12 db3a
00000030: c29e ad3b 3210 e4bc de95 dabc ba6b cbbc
00000040: 6c1b fd3c 71ac d7bc 0a3f 6a3d b231 b7bc
00000050: d747 973c 833b a6bd 71be 8dbd 66c9 aabc
00000060: 5575 3e3c 170b 533c 57a8 d93c 07fd 853b
00000070: 21f2 e63c 96ba 04bd 328e 2ebc fb79 f83c
00000080: 2040 6fbd 3af8 003d 7265 74bc 7770 ff3c
00000090: dc96 763d e1b6 aebb 9ec9 a5bc 95fa b63c
000000a0: 766f 993c 630f c23c 0cfe f1bb 7ed8 ec3a
000000b0: a272 b53c 4d3a 7fbb 5413 143d 6fc6 47ba

Conv5.bias f4 [128]
-0.024648964 0.023062807 -0.011292749 0.03291694 0.02454276 0.03445418 0.029375074 0.030115027
0.024311222 0.037169926 0.040226333 0.043776684 0.016380485 0.035782844 -0.02155209 -0.009508894
0.05096815 -0.01624655 -0.007936199 0.0062522683 0.04912981 -0.0047424026 0.032548763 -0.009108947
-0.007792228 -0.008727308 -0.035987273 -0.01162777 0.059090488 -0.009339274 0.00047035416 -0.008994371
-0.016820204 -0.0073369024 0.03917525 0.07119338 -0.019286036 0.007934047 0.0077852416 -0.007707411
-0.012381946 0.024221243 0.028553627 -0.004363007 0.024471298 -0.009212655 -0.011216306 -0.004046752
0.007911775 -0.016925536 -0.029274287 -0.018282896 0.03157478 0.06910247 0.026787115 0.048077013
-0.0019054199 0.05813842 0.0023738323 0.04292712 -0.020757886 0.032044567 0.044075128 -0.01019875
0.04998276 0.040703468 -0.02678881 -0.036476057 -0.013894489 0.019173907 0.05750868 0.047127463
-0.016755553 0.033911925 -0.010960974 -0.012612813 0.062228534 -0.0099790795 -0.010146851 0.07262591
0.045441363 -0.006230492 0.008407787 0.056152686 0.04140146 -0.04823293 0.026823953 0.041929014
-0.014859764 0.037144877 0.043443877 -0.002977412 0.038724314 0.028058207 0.033062685 0.02790546
-0.00533713 0.022115774 0.011578442 0.023302473 0.007913418 0.03945103 -0.00089567236 0.041912436
0.021303598 -0.012549282 0.06512087 -0.039060183 0.03710192 -0.004951849 -0.017364604 0.05951214
0.029576907 0.029912751 -0.0072255307 0.014406366 0.0184245 0.029060269 -0.01474167 0.00784427
0.025676837 -0.014893508 -0.011664203 -0.06701514 0.0074920743 -0.0068316706 -0.015060867 0.0062869694
00000000: a0ec c9bc 36ee bc3c 3905 39bc ead3 063d
00000010: e60d c93c d41f 0d3d ffa3 f03c cab3 f63c
00000020: 5428 c73c 7e3f 183d 5ec4 243d 2e4f 333d
00000030: 5e30 863c 0891 123d 028e b0bc 31cb 1bbc
00000040: fbc3 503d 7c17 85bc d506 02bc d4df cc3b
00000050: 573c 493d 2866 9bbb da51 053d b13d 15bc
00000060: f255 ffbb fcfc 0ebc 6467 13bd 6782 3ebc
00000070: de08 723d c103 19bc de99 f639 205d 13bc
00000080: 86ca 89bc 666a f0bb 3a76 203d d6cd 913d
00000090: c0fd 9dbc cefd 013c 571b ff3b 738e fcbb
000000a0: a5dd 4abc a16b c63c 4ce9 e93c 8ef7 8ebb
000000b0: 0878 c83c adf0 16bc 99c4 37bc 9e9a 84bb
000000c0: 64a0 013c 6ca7 8abc a1d0 efbc 03c6 95bc
000000d0: 8e54 013d 9985 8d3d a770 db3c 67ec 443d
000000e0: 48bf f9ba 8d22 6e3d 4c92 1b3b 59d4 2f3d
000000f0: 710c aabc 2a41 033d 1f88 343d a818 27bc
00000100: b9ba 4c3d aeb8 263d 3574 dbbc eb67 15bd
00000110: b6a5 63bc 9912 9d3c 398e 6b3d ba08 413d
00000120: f142 89bc 3be7 0a3d a895 33bc f9a5 4ebc
00000130: 59e3 7e3d 4b7f 23bc fa3e 26bc e5bc 943d
00000140: b920 3a3d 2829 ccbb d1c0 093c 5c00 663d
00000150: 9494 293d e58f 45bd e8bd db3c c2bd 2b3d
00000160: 5e76 73bc 3a25 183d 35f2 313d af20 43bb
00000170: 639d 1e3d 53da e53c bd6c 073d fe99 e43c
00000180: 17e3 aebb 242c b53c 81b3 3d3c d4e4 be3c
00000190: 48a7 013c 6797 213d 8ecb 6aba 60ac 2b3d
000001a0: e284 ae3c 819b 4dbc 175e 853d 92fd 1fbd
000001b0: 2ff8 173d 1f43 a2bb 3740 8ebc 00c3 733d
000001c0: 454b f23c 960b f53c 25c4 ecbb ae08 6c3c
000001d0: faee 963c cd0f ee3c 0c87 71bc 4185 003c
000001e0: 3b58 d23c e603 74bc 371b 3fbc 3c3f 89bd
000001f0: 1380 f53b 35dc dfbb dbc1 76bc ec02 ce3b

Conv2.bias f4 [36]
-0.029780509 -0.033970725 -0.0067619025 -0.01337039 -0.05553212 -0.010327628 -0.06193455 -0.03840033
-0.030471826 -0.014583769 -0.0006157147 -0.021833653 0.021054924 -0.0021203544 -0.012020629 -0.031046316
0.04020448 0.062446076 -0.01382183 0.0043263254 -0.02899465 0.0010949714 0.040645037 -0.02084757
0.011282693 0.027292026 -0.07519439 -0.023480432 -0.02622163 -0.018874986 -0.004955873 -0.035621196
-0.009154768 0.017426878 -0.03125366 -0.013456151
00000000: 41f6 f3bc e324 0bbd f392 ddbb 7b0f 5bbc
00000010: a675 63bd 3635 29bc 15af 7dbd aa49 1dbd
00000020: 0da0 f9bc c3f0 6ebc ea67 21ba 7ddc b2bc
00000030: 607b ac3c a5f5 0abb 2cf2 44bc d854 febc
00000040: 74ad 243d 75c7 7f3d f574 62bc d9c3 8d3b
00000050: 3086 edbc 2585 8f3a 697b 263d 86c8 aabc
00000060: 0bdb 383c 8793 df3c 84ff 99bd 095a c0bc
00000070: bece d6bc b79f 9abc e064 a2bb 88e7 11bd
00000080: e1fd 15bc d0c2 8e3c d603 00bd 3077 5cbc

Conv1.bias f4 [24]
-0.04443775 -0.020255102 0.0030093754 -0.031374868 -0.04317609 -0.0059102755 -0.080597356 0.010237852
-0.021712175 -0.012132477 0.0056587732 -0.059862327 0.02617476 -0.05531065 0.03177409 0.014525457
0.014811492 -0.014860061 -0.019105114 -0.020313853 -0.014457728 -0.042760946 -0.027991258 -0.0019713128
00000000: 5c04 36bd 07ee a5bc f138 453b ef82 00bd
00000010: 69d9 30bd fcaa c1bb 3a10 a5bd aabc 273c
00000020: bbdd b1bc 4cc7 46bc 3b6d b93b 3332 75bd
00000030: 736c d63c 6c8d 62bd 8c25 023d 2ffc 6d3c
00000040: e6ab 723c 9d77 73bc 5482 9cbc 3d69 a6bc
00000050: 1be0 6cbc 1a26 2fbd ec4d e5bc 2431 01bb

Conv7.kern f4 [1, 1, 100, 1]
0.06517782 -0.14104101 0.0023968006 -0.17688422 -0.22876076 0.13833512 -0.08030394 -0.23694515
-0.12841311 0.05545188 0.2199045 0.08908607 -0.12031575 0.22545977 0.12414778 0.20462568
0.02848251 -0.07781013 0.17584407 -0.10933113 -0.12740478 0.061938334 -0.14752302 0.089794725
-0.10834825 -0.03317588 -0.046836205 0.2843315 -0.17816125 0.13116641 0.13080177 -0.24629588
0.017073585 0.1650219 -0.11975201 0.08185326 -0.05713691 0.24780928 -0.1281043 -0.10570727
0.060027283 0.21462011 -0.13939546 0.071803324 -0.30534145 -0.1622707 0.14998099 0.23442665
-0.12741747 0.13528149 0.16384424 0.06651179 -0.07974151 -0.14397323 0.018378308 -0.15746048
0.14138652 0.052299887 -0.22730832 -0.22328238 0.04716414 0.2064654 0.20817606 -0.0062416727
-0.16212702 0.18912546 0.006180785 -0.059345916 0.07126018 -0.07608531 -0.0840166 -0.14227295
0.051313404 0.25075558 -0.1361019 -0.027311282 0.113209344 0.20575747 -0.07937602 0.16204521
-0.04876963 -0.07193522 0.18090795 -0.11913048 0.051696945 0.13192885 0.13992932 -0.13222738
0.09160818 -0.092423774 0.120586954 0.18883048 0.18360594 -0.16021204 -0.060876895 -0.19718805
0.05398862 -0.0074246414 -0.07988971 -0.058900487
00000000: f37b 853d 0e6d 10be a413 1d3b 2321 35be
00000010: 4340 6abe b9a7 0d3e 6476 a4bd c0a1 72be
00000020: ba7e 03be 8321 633d a52e 613e c272 b63d
00000030: 1b68 f6bd edde 663e 3141 fe3d 6589 513e
00000040: 2754 e93c eb5a 9fbd 7810 343e 00e9 dfbd
00000050: 6676 02be 0db3 7d3d 4610 17be 4ce6 b73d
00000060: b0e5 ddbd 6ee3 07bd 52d7 3fbd e693 913e
00000070: e76f 36be 7d50 063e e6f0 053e fd34 7cbe
00000080: e7dd 8b3c 80fb 283e 8b40 f5bd afa2 a73d
00000090: 6408 6abd b7c1 7d3e c62d 03be 0e7d d8bd
000000a0: 2bdf 753d 60c5 5b3e afbd 0ebe 9f0d 933d
000000b0: b755 9cbe 4a2a 26be 9e94 193e 8a0d 703e
000000c0: ba79 02be 3b87 0a3e c9c6 273e 5537 883d
000000d0: 844f a3bd b86d 13be 1b8e 963c 523d 21be
000000e0: a1c7 103e 6838 563d 83c3 68be 23a4 64be
000000f0: 2f2f 413d aa6b 533e 1b2c 553e f286 ccbb
00000100: a004 26be 1baa 413e 2f88 ca3b b414 73bd
00000110: dbf0 913d 9dd2 9bbd e510 acbd 00b0 11be
00000120: 012e 523d 0963 803e 4c5e 0bbe e9bb dfbc
00000130: 4dda e73d 16b2 523e e58f a2bd 2eef 253e
00000140: aac2 47bd c652 93bd ef3f 393e aefa f3bd
00000150: 2dc0 533d 5b18 073e a249 0f3e 9d66 07be
00000160: 129d bb3d ad48 bdbd 4bf6 f63d c75c 413e
00000170: 3203 3c3e a00e 24be 0d5a 79bd aaeb 49be
00000180: 2c23 5d3d 684a f3bb 379d a3bd a341 71bd
