model.npz (npz, 557226 bytes, 13 tensors)

Conv5.bias f4 [128]
00000000: e3e2 92bc 7b8e 7ebc 3398 05bc 4b2c 993c
00000010: 3691 183c df84 843c 26db 753c 981c c83c
00000020: 94ec ee3c cde8 aa3c 394a 9a3c 805a efbb
00000030: b0e5 e33d 4bac a33c b346 033c 42be 8b3c
00000040: 3a26 903d 9d19 c73c 505d c9bc c0f5 883c
00000050: 5165 333b e3c5 413c 81ff 1f3d aaf9 95bb
00000060: 3528 1d3d 7019 d13b 9c65 a43b e3ce 96bb
00000070: a8dc 123d d31b 1d3c 40cc 2c3c d955 b93c
00000080: 0d60 a7bc 4ee0 4b3c 3bbb 283d a828 053d
00000090: 973e a4bc 533a 003d 614f a23c 1e87 cd3b
000000a0: a104 22bb ea52 bf3c b507 003b 2266 573c
000000b0: 4c41 473d 6bd6 253d e12f eebc 853a bc3c
000000c0: fd5c 943c a636 843b ffb8 e0bb bad8 b1bc
000000d0: 80cb ea3b c777 1d3d 35f5 7eba 5818 ee3d
000000e0: d8d7 8ebb a221 d03b 75ae df3c 226c 633d
000000f0: 870c 9fbb 61f9 0f3d 54b2 1a3d eeaa abbb
00000100: 43bc e23c 1faa 803d 7908 80bb 8ac3 ed3c
00000110: ebc2 223b 74b4 d3bb 1a75 043d 6ef8 5c3d
00000120: e1f4 8abb ada8 b33c 71d0 b83b eebb 9a3b
00000130: d42e 99bc c610 9ebb 3a8d 6f3c b258 293d
00000140: aa41 8b3c 623b a3bb 2197 cdba 75c2 0c3d
00000150: 6791 e53c 12eb af3b 8bda 923d e912 953c
00000160: 474e 83bb 996b 553b 436a 4b3d 5973 333d
00000170: 8a6b 043d 8d6b 783d db7b c23c 7918 3c3d
00000180: 954f 0a3d 20b3 ac3c ba49 663a 65ee 343d
00000190: 50af 123d 18ac ce3c c18c 8d3c 8db9 40bd
000001a0: 0580 533c 7fa9 0ebc 588b 403d eb2e 36bc
000001b0: c7e9 f23c 1c78 36bc 39f6 3dbb 7002 023d
000001c0: f2c1 9c3c 827f 843c 200a a83c 3896 be3b
000001d0: 347e 6ebd 5681 a83c 9d9e a0bb a784 a63c
000001e0: e85c f03c dcb4 823b 276f dd3a 064d fbbb
000001f0: 48ef ca3c 6616 56bc 635a 353b d161 463c
-0.017930454 -0.0155369 -0.008153963 0.018697878 0.009311965 0.01617664 0.015005862 0.024427697
0.029165544 0.020862961 0.01883422 -0.0073044896 0.11127794 0.019979617 0.0080124615 0.017058495
0.07038541 0.024304206 -0.024580628 0.016718745 0.0027373622 0.011826965 0.039062027 -0.0045768814
0.038368423 0.006381206 0.0050169956 -0.0046022995 0.035854965 0.009589153 0.010546744 0.022623943
-0.020431543 0.012443615 0.041194182 0.032509476 -0.020049376 0.031305622 0.019813241 0.0062722107
-0.0024721997 0.023354966 0.0019535844 0.013146909 0.048646256 0.040487688 -0.029075565 0.022977123
0.018110747 0.004034835 -0.0068579908 -0.021709789 0.0071653724 0.038444307 -0.000972587 0.11625737
-0.0043592267 0.0063516656 0.027304867 0.055523045 -0.0048537883 0.035149936 0.037767723 -0.0052388823
0.02767766 0.06282448 -0.00390726 0.029023904 0.0024835418 -0.0064607207 0.03233824 0.05394786
-0.0042406176 0.021931017 0.0056400825 0.00472211 -0.018699087 -0.004823777 0.014621073 0.041344352
0.016999085 -0.004981444 -0.0015685299 0.034365136 0.028023435 0.0053685987 0.0717059 0.018197494
-0.004007134 0.0032565354 0.049661886 0.043811176 0.03232912 0.060649443 0.0237407 0.045921776
0.0337673 0.021081507 0.000878479 0.044172663 0.035811722 0.025228545 0.01727903 -0.047051955
0.01290894 -0.008707403 0.04700789 -0.011119585 0.02965249 -0.011137035 -0.0028985871 0.031740606
0.01913545 0.016174082 0.02051264 0.0058162473 -0.058225825 0.020569485 -0.0049017207 0.020326925
0.029341176 0.0039888453 0.0016894088 -0.007669094 0.024772301 -0.013066864 0.0027672283 0.012108282

Conv6.bias f4 [100]
00000000: be20 be3b c8ac 193d f2c4 a6bc b328 333d
00000010: ab1c c93c 12dd bd3c 5bd0 293d 0ee4 113d
00000020: d114 873c 0199 9e3c 5ec0 363c da60 86bb
00000030: 6ed1 e23c 441c e1bb 10f6 3a3c d96f 913c
00000040: 3af6 a2bc 2eef 673c 183b fb3c fefe c03c
00000050: 4b89 7f3d 9f52 6e3c 1e74 1f3d d942 613c
00000060: 9205 173d e316 f93c 503d 473d fb69 4a3c
00000070: 1d38 833d 8a20 363d 9561 d73c a1cb ac3c
00000080: 063d 953d 7b2e 163d 840e 373d dccd c73c
00000090: 576e 253d ce49 3fbc 7afa 5abb 6363 103d
000000a0: a858 1e3b a47d 69bb 3e30 113d 1dfc 923c
000000b0: 1740 163d 9900 6c3d c420 773b ba25 713c
000000c0: 8c11 dabb 00f3 363d 8b28 7cbb a53a 3c3c
000000d0: f324 803c 0cbc fd3c 229e aebb 2a65 2c3d
000000e0: 80fc 5c3c 40c3 c5bc dbe9 e63c 351e ce3c
000000f0: df4e a2bc cfb2 963d 2d30 e93a 5553 19bb
00000100: 0d44 933c 9cb8 d13b 2891 1c3d 2345 b83c
00000110: f93a e03b 81b6 c43c 7a2a 413d c94b 1c3d
00000120: 8444 e83b dd14 2c3d 3428 0e3d 8346 44bb
00000130: 668d dc3b 3907 4dbb 74ba 183d c6b8 41bc
00000140: 7071 373d f921 df3c 3298 b63c 89d1 5f3d
00000150: 973f 833d afc1 da3c 285f bfbc f543 853c
00000160: dc83 833c e810 093d b70a c63c 3491 303b
00000170: b6c5 013c 9a15 403d a0c7 a23c b1a9 a73c
00000180: 3992 fb3b 6d55 c0bb 94ee 183d 81ca 073d
0.005802243 0.037518293 -0.020357583 0.043739986 0.024549803 0.023176704 0.04145847 0.03561788
0.016489418 0.019360067 0.011154262 -0.004100901 0.027687754 -0.0068698246 0.011411205 0.017753528
-0.0198928 0.014156146 0.030667827 0.02355909 0.062386792 0.014546066 0.038929097 0.013748848
0.036870547 0.030406421 0.048642457 0.012354369 0.06407187 0.044464625 0.026291648 0.021093192
0.0728703 0.03666542 0.044691578 0.024390154 0.04038843 -0.011675311 -0.0033413456 0.035251033
0.002416173 -0.0035627866 0.035446398 0.017942483 0.036682215 0.057617757 0.0037708739 0.014718467
-0.006654924 0.044665337 -0.0038476314 0.011488591 0.015642619 0.030973457 -0.0053289095 0.042088665
0.013487935 -0.024140954 0.028187683 0.025160888 -0.019813 0.07358324 0.0017790847 -0.0023395617
0.017976785 0.006400181 0.03822437 0.022493904 0.0068429676 0.024012806 0.04715965 0.03815821
0.007088246 0.042012084 0.03470631 -0.0029949255 0.006730723 -0.0031284823 0.03728719 -0.011823839
0.044785917 0.02723788 0.02228937 0.054643188 0.06408613 0.026703684 -0.023360804 0.016267756
0.016054086 0.03346339 0.024175031 0.0026942017 0.007920673 0.0468956 0.01987058 0.020466657
0.007677343 -0.0058695585 0.0373369 0.033152107

Conv1.bias f4 [24]
00000000: 7ede 05bd 3346 ecbc 75ec a0ba 6d80 94bb
00000010: 5b7f 33bd 89c4 ac3c 60e2 6dbd 4122 b23c
00000020: b232 47bc 6eaa b7bc fe56 533d 9b15 00bd
00000030: 3e07 e9bc 2496 453d f9d2 883c 5007 353c
00000040: 470c 5abb 16e3 0837 1798 27bd 47c7 b63c
00000050: 8bf8 423c 9966 9b3c fc38 52bd ed20 4b3d
-0.03268289 -0.028842067 -0.0012277501 -0.004531911 -0.043822628 0.021089809 -0.058077216 0.02174485
-0.012158083 -0.022420134 0.051596634 -0.031270605 -0.028445836 0.04823889 0.016702162 0.011049107
-0.0033271478 8.159104e-06 -0.04091653 0.02231182 0.011900078 0.01896982 -0.051323876 0.049591947

Conv3.bias f4 [48]
00000000: 4c79 13bd d5da a43c 71fe 0a3a 43ab e6ba
00000010: b7ac b23c cb25 78bd fd42 18bc a9c0 0ebc
00000020: def8 41bb a767 33bc dfd6 b3bc 3dee 8c3b
00000030: b786 3c3b 9fa5 98bc 1faf 103c 48f8 01bd
00000040: 18ef 58bc 0c65 d5bb 92f8 e13c ba72 79bc
00000050: 8a77 f93c 900b 1e3c 145f 2dbc 33ae 70bc
00000060: a33b 473c 9351 32bc 9821 633c c52c 0cbd
00000070: 6317 873d 524c 95bc 1e4c 46bc 0f22 8d3c
00000080: cf70 52bc a42e 663d 8ae9 f2bc 5880 463c
00000090: 6508 a23d 4d53 0fbc 8cfe d9bc 1ca2 31bb
000000a0: 48c0 2c3d 46ac 663d 9ad0 debc 25c8 93bc
000000b0: f98b 02bc 8dc0 e2bc f3c9 993c be69 37bc
-0.03600435 0.020123878 0.0005302197 -0.0017598647 0.021810872 -0.060582917 -0.009293315 -0.008712926
-0.00295978 -0.010950006 -0.021953044 0.004300861 0.002876682 -0.018633662 0.008830815 -0.03173092
-0.013240598 -0.00651229 0.027584348 -0.015225107 0.030452508 0.009646311 -0.01058175 -0.01468997
0.012160215 -0.010883707 0.01386299 -0.034222383 0.065962575 -0.018224869 -0.012103109 0.017228154
-0.0128442785 0.056196824 -0.029652376 0.0121155605 0.079117574 -0.008747888 -0.026610635 -0.0027104681
0.04217556 0.056316637 -0.027199078 -0.018039772 -0.007967942 -0.027679706 0.018773055 -0.0111946445

Conv7.kern f4 [1, 1, 100, 1]
00000000: ed4d 1a3e a0b2 39be 37d5 49bb 216c 73be
00000010: 3026 79be 80a8 263e a23d e0bd b513 7fbe
00000020: cf84 0ebe 0fec cc3d f84b 853e 1750 f63d
00000030: 9e59 2abe 57dd 893e 089a 0f3e ca3a 823e
00000040: 41e6 1b3d f3b0 be3d ca28 563e 4ac2 20be
00000050: af9a 5cbe cf6d b13d 65cd 39be 4b18 013e
00000060: b94f 0ebe ae52 4abe cc30 3bbe 1f5c 7b3e
00000070: ed47 87be 5a5e a63e 5354 653e 9c2d 87be
00000080: 4b23 8b3e 984b e63e f47b 38be 177c 063e
00000090: 7527 52be 6505 863e a937 01be 17db 48be
000000a0: 35c5 a43d 5a34 0a3e 2608 31be 0c22 d13d
000000b0: cbcd a9be b572 76be 54b1 3f3e 1f71 983e
000000c0: 0938 acbc fead 633e dfa4 973d 8987 ee3d
000000d0: 19fb c0bd a080 5fbe b33a 8bbd 5973 72be
000000e0: 2287 613e aba1 423d 29b9 81be b4ef 85be
000000f0: 72af 4b3d 003b 683e c854 683e 9865 90bd
00000100: fe91 20be db36 7c3e 9d45 02be 4e44 cabd
00000110: 416e 093e 666a d4bd df26 1abe 6068 45be
00000120: fa9e 7c3d b702 da3e c376 57be 5f2b dfbc
00000130: 13a1 493e dd4f 783e 758f f0bd a053 7d3d
00000140: f62b 5abe 336d d6bd cabf 3e3e e25c 40be
00000150: 16f3 553e 28e7 563e dbfc 733d f7b8 14be
00000160: 23f2 053e f7a9 07be 02fe 273e f91a 6e3e
00000170: 3398 623e b270 5abe 54a8 00be 6cd3 6bbe
00000180: 7241 d83d 6976 29bc cf03 38be 9677 bbbd
0.15068789 -0.18134546 -0.0030797252 -0.23771717 -0.24330974 0.16275215 -0.109492555 -0.24909861
-0.1391785 0.10005962 0.26034522 0.12026995 -0.16635749 0.2692668 0.14023602 0.25435477
0.038061384 0.09311094 0.20913997 -0.15699115 -0.21543382 0.086635225 -0.18144758 0.12606923
-0.138976 -0.19758102 -0.18280333 0.2454686 -0.26422063 0.3249386 0.22395448 -0.26401985
0.27175364 0.44979548 -0.18016034 0.13133274 -0.20522864 0.2617599 -0.12618889 -0.19614826
0.08045427 0.13496533 -0.17288265 0.10211572 -0.3316482 -0.24067195 0.18719989 0.29773805
-0.021022813 0.22234342 0.074044935 0.11646945 -0.09422893 -0.2182641 -0.06798305 -0.23676814
0.22024205 0.04751746 -0.25336578 -0.2615944 0.049727865 0.22678757 0.22688591 -0.070506275
-0.15680692 0.246303 -0.12721868 -0.09876309 0.13420965 -0.103718564 -0.1505389 -0.19278097
0.06167505 0.42580196 -0.21041398 -0.02724236 0.19690351 0.24249215 -0.11746112 0.06184733
-0.21305832 -0.10470047 0.18627849 -0.18785432 0.20893511 0.20986617 0.059567314 -0.14523683
0.13080649 -0.1324843 0.1640549 0.23252477 0.22128372 -0.21332052 -0.12564212 -0.2302987
0.10559358 -0.010343173 -0.17970203 -0.091536686

Conv1.kern f4 [3, 3, 3, 24]
00000000: 9153 00bd 5bb4 cebd 739f e7bd 075e f13d
00000010: af23 303d 46ac 01bd 7f24 03be 45b4 34bd
00000020: 20c1 91bc 8fa6 0bbe eab1 373e 8a8c 12be
00000030: d2d2 f2bb 7dee d0bd 22eb 26bd 2a0d d6bd
00000040: 04cf 25be 6e40 3a3e 4429 263d f9b0 b8bd
00000050: 68f3 d9bd 1528 e8bd c475 aebc 97ac 14bd
00000060: 2e0f ff3c 83bf efbd e33e 033e 9ae2 263e
00000070: be33 edbd 1b02 05bd 2cfe 973d dfa5 213c
00000080: 96d9 00be 73a7 153e ced7 00be c963 44bc
00000090: 808d 253e 7fa2 29bd dd3d 5a3e 0713 173d
000000a0: 8c86 cdbd 4c07 17bc 31dc ec3c 47a1 4d3e
000000b0: 3ab8 0c3d cdca 5d3d 24fc fa3c ae3e e63a
000000c0: be21 f73d c544 003e 9741 d63d d88e 3f3d
000000d0: eb79 84bd a1e1 3b3e c1d0 173e e6ff 38bc
000000e0: 95a5 9abc 3a57 4d3e 52f8 ab3c bb9f 07be
000000f0: 370f 003e ae90 973d a029 4dbd 5157 eebd
00000100: 6c0e 07bc 26eb 8f3c bc80 16be 15d0 18be
00000110: f218 4fbd 207e 3e3e b794 90bb cc45 973d
00000120: 9b75 25be fda3 b63b 897c 56be 7ec6 53bd
00000130: b9f8 01bc 38c0 19be b7b1 713d e670 e9bd
00000140: 0312 da3d bcb1 74bd 0dca 963d f066 dbbd
00000150: 1f88 e5bd 04bd 42bc cb39 65bd be52 233e
00000160: 8e60 953d 9bdb 4a3d 8421 b33d b53b f9bc
00000170: 6c7a 583c 0e6d 70bc 2e9b f73c e8f6 86be
00000180: 7033 653e 15e5 7cbd 87e4 623d 47aa 1cbe
00000190: c617 adbd f376 833d 0fda 993c c29c edbc
000001a0: d40b 88bd 6c65 45be 5eb4 79ba 390c 0e3c
000001b0: 1780 893d bb03 733d 60ed 383d 8135 153d
000001c0: fbfa 103e ed85 d03c 03c5 803c 176c 37bd
000001d0: 98a9 51bd 937e 73bd 143a 10bd e120 2e3e
000001e0: 1c91 1b3e b34f e2bc d604 ba3d f421 0b3e
000001f0: 9d0c 20bd 6e3d dabd be8b dfbc a78d 42bb
00000200: 53e2 13bd 0823 673d f8a7 833d 89c9 7ebd
00000210: f1d4 203d 5719 693e 975f b6bd e66f 0fbe
00000220: 1b54 cd3d 7cb7 cebd e4b1 283d c49a d23d
00000230: 073b b0bd e9c2 263c a472 bd3d be5c b33d
00000240: 0eff 0d3e 873a 323c de99 48bc 6a47 0bbc
00000250: f73b 6b3e 258c 1d3c 97c2 38be 8120 d839
00000260: 5874 383d 7217 143e 37a9 c33d 9600 66bd
00000270: d8a6 6b3b 946a a9bd c02e d1bd 2ef3 3d3d
00000280: 63db 233c 0268 30be 2aee fb3d e16f 46bd
00000290: 7ec7 3cbe 77ab 08be 7764 7d3c 989e 63bd
000002a0: 92b1 943d f075 abbd 501b 403d 2134 b1bd
000002b0: b8aa 9d3d 452d 26be 285b 0dbd 6e13 43bd
000002c0: b86f c0bd b5b7 08be 2c79 7e3d c884 6ebd
000002d0: a394 9c3d 9fb5 66bc abe2 f43d b1fa 96bc
000002e0: 99ec ebbd 40c7 4e3d 8b6a d9bd 93b7 ab3d
000002f0: d531 4f3d e3f0 023e a6c3 21be 9c4b 5c3d
00000300: adbf fe3d b1f7 b23d 7b0a 92bd 6fe2 073c
00000310: 707d b63d 95b6 183e 7092 1ebb 2546 073e
00000320: 80ca 083d 210b 013e 18d6 a9bd 0499 143d
00000330: 11d1 34bd 0e41 173e 2e67 98bd a0e8 acbc
00000340: 9d1d 653a c912 9fbd 53f4 32be 6bbc 9b3d
00000350: 556a 833d 4aba 1ebe bd1c 0bbe 571f f13d
00000360: e897 a93d 8ce2 acbc d938 31bd 6db8 aebb
00000370: 584e d1bd 8974 7d3c c905 37bd d040 033e
00000380: 8c48 533e 30fb a73d e118 eb3d c802 b8bd
00000390: 687c 8fbb 494d 623d 4acb ba3c 0b95 fb3c
000003a0: 0162 cebd 7173 833d 10d3 58bd 50a1 ebbd
000003b0: 6404 22bd 0c5f 36be ddc7 eabc d17f bbbd
000003c0: edbf 7a3d 2f89 87bd a405 023e 3357 d03d
000003d0: 0dd0 923d 93cd 503d ee2e 73bd 3e8e fcbd
000003e0: aef8 233c 6f1b 653c 170b b4bd 7192 8bbd
000003f0: 6f36 ac3d 9d14 bcbd e31d e6bd 3cc4 a1bd
-0.031329695 -0.10092994 -0.113097094 0.117855124 0.04300278 -0.031658433 -0.12806891 -0.04411723
-0.017792284 -0.13637756 0.17938963 -0.14311424 -0.0074103856 -0.10201738 -0.040751584 -0.104517296
-0.16192251 0.1818864 0.040566698 -0.0901813 -0.10642129 -0.1133577 -0.02129639 -0.036297407
0.031135168 -0.1170645 0.12816958 0.16297379 -0.11582135 -0.03247271 0.07421526 0.009866207
-0.12583002 0.14614658 -0.12582323 -0.011986681 0.16167259 -0.041414734 0.21312661 0.03688338
-0.100354284 -0.009218048 0.02891359 0.20081054 0.03435538 0.054148484 0.030637808 0.0017566287
0.12066983 0.12526233 0.10461729 0.046767086 -0.064685665 0.1834779 0.14825727 -0.01129148
-0.018877784 0.20052806 0.020992432 -0.13244526 0.12505804 0.07400642 -0.050088525 -0.11637748
-0.008243185 0.017568182 -0.14697546 -0.14923127 -0.0505609 0.186028 -0.0044122594 0.073863596
-0.16158144 0.005573748 -0.20945944 -0.05170297 -0.007932835 -0.15014732 0.059007373 -0.11398487
0.10647967 -0.059739813 0.07362757 -0.10712993 -0.11207604 -0.011885885 -0.05596332 0.15949532
0.07293807 0.04952584 0.08746627 -0.030423978 0.013212781 -0.014674438 0.030225363 -0.2636025
0.22382903 -0.061741907 0.055393722 -0.1529933 -0.084518 0.06419172 0.018780736 -0.029005412
-0.06642881 -0.1927697 -0.0009525473 0.008669906 0.06713884 0.05932973 0.045148253 0.03642798
0.14158241 0.025454486 0.015718943 -0.044780817 -0.051187128 -0.059446882 -0.035211638 0.1700473
0.15192074 -0.027625894 0.09082954 0.13587171 -0.03907453 -0.10656248 -0.027288314 -0.0029686482
-0.03610451 0.056429893 0.06428522 -0.062203918 0.039265577 0.22763573 -0.08904951 -0.1400753
0.100258075 -0.100935906 0.041185275 0.102834255 -0.086050086 0.010178306 0.092503816 0.087579235
0.13866827 0.010878212 -0.012243716 -0.008500913 0.22972094 0.009615933 -0.1804298 0.00041222948
0.04503283 0.14462069 0.095537595 -0.056152903 0.00359576 -0.08272281 -0.10213995 0.046374492
0.010001036 -0.17227176 0.123012856 -0.04844654 -0.18435475 -0.13346659 0.015465847 -0.05557117
0.07260431 -0.08372104 0.046901047 -0.08652521 0.07698578 -0.16228206 -0.03451076 -0.04762595
-0.09396309 -0.13351329 0.062127277 -0.0582321 0.07645538 -0.014081388 0.11957296 -0.018430086
-0.11519737 0.05048299 -0.106160246 0.083846234 0.050584633 0.12787203 -0.1579729 0.053783044
0.12438903 0.0873865 -0.07130905 0.008293732 0.08910644 0.149134 -0.002419617 0.13210352
0.033396244 0.12601902 -0.08292788 0.03627874 -0.044144694 0.1477091 -0.07441555 -0.021107018
0.00087400695 -0.07767255 -0.17476015 0.07604297 0.064167656 -0.15500751 -0.13585182 0.11773556
0.08280927 -0.02110412 -0.043267105 -0.005332044 -0.10220021 0.015469679 -0.04468325 0.12817693
0.20633143 0.08202207 0.11479355 -0.089849055 -0.004378844 0.055249486 0.022802014 0.030710718
-0.100772865 0.06418503 -0.05293566 -0.11505377 -0.03955497 -0.17809695 -0.028659755 -0.091552384
0.06121819 -0.066179626 0.12697464 0.10172882 0.07168589 0.0509773 -0.059370928 -0.12331818
0.01000802 0.013983591 -0.08791178 -0.06815041 0.0840882 -0.09183619 -0.11236169 -0.07898757

Conv2.bias f4 [36]
00000000: 93ce 1739 d2e2 a4bc a506 373c cb6d 36bb
00000010: 1424 5abd e542 853c cb71 66bc bf88 63bd
00000020: 0c02 5b3c 3d30 aebb 41f3 233d 0731 8ebc
00000030: b858 b3bb 686f 153d 1692 dabb 99fb 38bd
00000040: c523 273d 3ffa 533d c1bc 81bc ad5e 8bbc
00000050: ff2d d6bc 9f7c 9fbc e9e5 b93c 5e43 34bc
00000060: 5ff6 9b3c bb22 323c 96a8 01bd f646 c1bc
00000070: 2e70 703c 845a 27bc f279 87b9 adfa febb
00000080: b9e9 bfbc 19b4 dd3c d810 96bc c757 6fbc
0.00014477437 -0.020127688 0.011171018 -0.0027836438 -0.053257063 0.01626725 -0.014065216 -0.055550333
0.013367187 -0.005315809 0.040026907 -0.017357362 -0.0054732226 0.0364832 -0.006670247 -0.045161817
0.040805597 0.051752325 -0.015837075 -0.017012918 -0.02614498 -0.019468604 0.022692638 -0.01100239
0.019038377 0.010872538 -0.031654917 -0.023593407 0.014675183 -0.010214452 -0.00025840063 -0.0077813477
-0.023426877 0.027063416 -0.018318579 -0.01460833

Conv6.kern f4 [1, 1, 128, 100]
00000000: 9403 2ebe f2f2 d23c 809e 50bb f88b b3bb
00000010: e854 ab3d 98ee 35bb c1c0 003e 6c8f 353e
00000020: 4e91 713e 1d83 6c3c c253 39be 6fff 39be
00000030: af31 653e 2c1a a63c 2b08 e43b 13ee 4dbe
00000040: 46cb 273e 2b06 8ebe ae48 bfbb 5d33 513d
00000050: c5f5 e53d 4822 80bd b155 063d 9d89 c3bd
00000060: a356 3e3d 0a47 1abd a0a1 2c3e ce4f 82be
00000070: 128c dc3d bc47 8abd 480c 82be cfc1 71bc
00000080: 5c5b 93be a530 cabd 6a80 703c 5914 4bbe
00000090: 71a4 f93d c571 8dbd 2ca7 8abd 42e3 4e3e
000000a0: d550 5ebe 6f41 0dbe 8f0e 203d becb 1fbe
000000b0: 28a0 693d 6bb1 b7bc a124 22be 0a3b f4bd
000000c0: 093c ecbc 7933 a6be 242e 213d 8073 3abe
000000d0: d924 633d c3e4 153d 0b97 9b3d 33b1 fa3d
000000e0: 5f26 30be 183e 553e 3f3b 843d 1f6a d43d
000000f0: 8845 053e 0290 63be 8bab 14be c643 d4bd
00000100: cfdd 943e 808d f1bd e615 c93d 42a1 1a3e
00000110: 68d7 a9be 79db a7bd f184 943d fad2 b63d
00000120: 61f6 8fbd e3f7 55bc 3d3f 5e3e 5f55 c9bd
00000130: 39fa 943c 5828 a6bd 4d74 043e 1dab 54bc
00000140: 0961 d63d 2084 cd3c 6984 01be dc0e 303e
00000150: 2202 883d da75 56bd b196 b3bc 9322 013d
00000160: aa3f 0fbe a868 b13d 102e b8bd 317f 4fbe
00000170: ae5f a6bd 6ce3 693e 0428 c73d 096b bf3d
00000180: f8e0 14be 2d45 d3bc 6a68 503e 4411 1a3e
00000190: 5bbd d43c abd2 5bbe 7315 db3d 2007 3fbe
000001a0: 2740 57be dc7b 963d d747 4abd 7166 8d3c
000001b0: 5c98 ca3b 62c3 703d 2fd4 bb3d 8556 e53c
000001c0: 0783 053d cc02 1e3d f2b2 cabb 1081 3d3e
000001d0: 33b5 eebd 5f85 8ebd b31c b93d 0420 a9bc
000001e0: ef38 ce3b 1726 953d fe77 52bd 3ba2 5e3e
000001f0: d7e5 093d 246a aabd 590d ccbd 7740 e1bd
00000200: 8018 3d3d 65a8 0c3d 4623 f33d 686f 97bd
00000210: ae7f 3e3e 1e6a 2b3c 666e 21be 998f f9bb
00000220: d21b 43be ee97 e43c 84c2 053c c60c 87bd
00000230: b132 bf3d 5301 8b3d 4200 60be 9efb 28bd
00000240: 97a5 2bbd 1f72 a83c 314f 05be 2fe0 c23d
00000250: 4c77 ba3c 297f 9bbd 35c9 6cbd b12c 223d
00000260: 550f 043d 8357 8ebc 0f2d 22bd fd19 b2bc
00000270: 29a5 d1bd 701e 293d 7358 71be 3277 72be
00000280: 752b e43d d682 b13d 7815 5c3d 1d49 df3c
00000290: 1087 283d 32c8 4a3e d0a1 d5bd 03b9 8abd
000002a0: e240 aa3d 55e2 95bd b58e c2bd 96b0 10be
000002b0: 5281 993d 45b4 703e 72fc 4e3c 1b99 7e3c
000002c0: 8eaf 013e da6d e83d bf10 70bc c1c2 b93c
000002d0: 7e2e 683d 1b98 953d ae43 813d eb9e 2bbe
000002e0: bd85 3f3d 7c83 a13c bc18 cabc 6d73 5f3d
000002f0: 247b aebd b50c 23bd e864 a03c 6055 08bd
00000300: 0425 613c 7587 473d 02f1 29be 8cb0 cebd
00000310: ff34 993d cb79 d3bc d8ad 28be 769d 41bd
00000320: 4eda 273d 4e46 0ebd 98c7 20be 5579 22be
00000330: 53bc 19be 2fbb a8bc fb4b 20be 04e4 26bd
00000340: d759 983d 1a57 15bd 0c35 153b 292e e2bd
00000350: 6fb6 953d bbb7 d53c 7b24 153d a65d 92bd
00000360: 041b 27bc ffc6 a93d 6c35 7a3c 0888 833c
00000370: 4304 a7bd 359c 193c 6d2b fcbd bbb4 3a3e
00000380: 4df5 5c3d de68 7fbd fda8 0dbd a5c9 353e
00000390: 0e07 55bd a325 febc 1721 dfbc 3cbc d8bd
000003a0: 7779 b73d efee 5dbd b741 a1bd 98b7 96bd
000003b0: cca7 fbbd 71ba ac3c 9252 0b3e cc01 ca3b
000003c0: 1856 d23c 7d99 893d 792b 053d 6df7 123e
000003d0: dac7 9fbd 1974 1cbe 149f 0a3e e749 94bd
000003e0: 53d0 f8ba 2871 8e3e 9b66 38be 9296 d13c
000003f0: 4435 2ebe 00e0 09bd 385c 70bd 20bf 19bd
-0.16993552 0.025750611 -0.0031832755 -0.005479332 0.08365804 -0.002776062 0.1257353 0.17730492
0.23590586 0.014435557 -0.18098357 -0.18163846 0.22382234 0.020276152 0.0069589815 -0.2011035
0.16386136 -0.2773908 -0.0058375215 0.051074374 0.112285174 -0.06256539 0.032796565 -0.09547732
0.046469342 -0.037665404 0.1685853 -0.2545151 0.10768904 -0.067519635 -0.25399995 -0.01475568
-0.2878064 -0.098725595 0.014679054 -0.19831981 0.12189568 -0.069064654 -0.06770167 0.2020388
-0.21710522 -0.13794492 0.039076384 -0.15605065 0.057037503 -0.022423467 -0.15834285 -0.11925323
-0.02883722 -0.32461146 0.039350644 -0.18208122 0.055455063 0.036595117 0.075971685 0.12240829
-0.17202137 0.20824468 0.06456613 0.103718035 0.13014805 -0.22222903 -0.14518563 -0.10364489
0.29075477 -0.11794567 0.0981863 0.15100577 -0.33172154 -0.08196158 0.07251919 0.08926959
-0.07029415 -0.013059589 0.21703811 -0.09830736 0.018185722 -0.08113164 0.1293499 -0.01298025
0.10467727 0.025087416 -0.12648167 0.17193168 0.06641032 -0.052358486 -0.021922441 0.031527113
-0.1398913 0.0866254 -0.08993161 -0.20263363 -0.08123718 0.22840661 0.09724429 0.09346587
-0.14538944 -0.025789822 0.20352331 0.15045649 0.025969198 -0.21467082 0.106974505 -0.18655062
-0.21020566 0.07347843 -0.049384918 0.017260762 0.0061827134 0.05878008 0.0917133 0.027995357
0.03259566 0.038576886 -0.0061858827 0.18506265 -0.11655655 -0.06959032 0.09038677 -0.020645149
0.006293408 0.07282656 -0.051383965 0.21741574 0.033666458 -0.08321026 -0.09963483 -0.10998624
0.046165943 0.03434028 0.11871962 -0.07394296 0.18603393 0.010462312 -0.1576477 -0.007615995
-0.19053581 0.027904477 0.008164052 -0.06594233 0.093358405 0.06787362 -0.21875098 -0.041255586
-0.041905966 0.02056223 -0.1301849 0.09515416 0.022761963 -0.07592613 -0.057809073 0.039593402
0.032241184 -0.017375713 -0.039593752 -0.021740908 -0.1023658 0.041288793 -0.23568897 -0.23678282
0.11141101 0.08667533 0.05373141 0.027256543 0.04114443 0.19802931 -0.10431254 -0.067735694
0.08313157 -0.0731856 -0.094998755 -0.14129862 0.07495369 0.23506267 0.01263343 0.015539433
0.12664625 0.113490775 -0.01465243 0.022675874 0.056684963 0.073044024 0.06311737 -0.16759841
0.046758402 0.019716017 -0.024669997 0.054553438 -0.08519581 -0.03980704 0.019579366 -0.033284545
0.013741735 0.048713166 -0.16595843 -0.100922674 0.07480811 -0.025814911 -0.16472566 -0.047269307
0.040979676 -0.034735017 -0.15701139 -0.15866597 -0.15013246 -0.020597069 -0.15653984 -0.040744796
0.074390106 -0.03646002 0.0022767214 -0.110439606 0.07310187 0.026088586 0.036411744 -0.07146768
-0.010199312 0.082899086 0.015271526 0.016056076 -0.0815511 0.009375622 -0.1231297 0.18233006
0.053944875 -0.06235587 -0.034584988 0.17752703 -0.05200868 -0.031023806 -0.027237458 -0.10582778
0.089587145 -0.054182943 -0.07873862 -0.073592365 -0.12287864 0.021084996 0.13605717 0.006164765
0.025675818 0.06718729 0.032512162 0.14352198 -0.078017905 -0.15278663 0.13537246 -0.07240658
-0.0018982984 0.27820706 -0.18007891 0.025584493 -0.17012507 -0.03366089 -0.058681697 -0.037535787

Conv4.bias f4 [64]
00000000: 140e f03b a9ea e8bc adf0 153d bdcc e03c
00000010: 7b0e 7a3a a25c c2bc c2e7 ae3c aa8a 373d
00000020: de82 06bb 15dc c1ba 431a c13b 5211 9c3c
00000030: dd02 dcbb a499 56bb fa7b ff3c b087 fbbb
00000040: 7607 97bb f66f 9639 a65c 743c ff68 d9bb
00000050: 74ac c53b 956e 763c 2da3 25bc fc6f c5bc
00000060: 02b9 b1bc c84a e13b 7323 bcbc ff02 98bc
00000070: fb2c ff3c 9a77 e63b 28c6 dbbb b929 103d
00000080: 071d 92bc 849b 64bc 3604 a8bc 29e0 b3ba
00000090: a49a 61bb d5e7 73bc 382e 94bc 5b73 b03b
000000a0: 25b8 093d b5f1 75ba acd8 973b d88a 46bc
000000b0: 127d a63c 78c4 e93c 457b 75bc 593d 83bc
000000c0: 777f b33c 3725 c23c 7fae b3bc 0bb0 eb3b
000000d0: 4bed cabc 9a47 943c 8840 cfbc fc3a b83c
000000e0: 869c f0bb b1d1 47bc f309 783d add4 0dbc
000000f0: 273e d4bc 9bb8 263c be0f f03c 2aca 963c
0.007325897 -0.028432207 0.03660648 0.027441377 0.0009538901 -0.023725811 0.021350745 0.044809975
-0.002052478 -0.0014790321 0.005893023 0.019051228 -0.0067142085 -0.0032745386 0.031187046 -0.0076760873
-0.0046090437 0.00028693647 0.014914667 -0.006634831 0.006032521 0.015041013 -0.010109705 -0.02410125
-0.021694664 0.0068753697 -0.022966122 -0.018556116 0.031149378 0.0070333006 -0.0067069717 0.03519604
-0.017836107 -0.013953093 -0.02050982 -0.0013723421 -0.0034424448 -0.014886816 -0.018088445 0.005384845
0.03362288 -0.00093820255 0.0046339836 -0.012118064 0.02032331 0.028536066 -0.014983003 -0.016020464
0.021911366 0.023699386 -0.021933792 0.007192617 -0.024771353 0.018100549 -0.025299326 0.022489063
-0.007342878 -0.01219599 0.060556363 -0.008656663 -0.025908543 0.010175849 0.029304381 0.018406946

Conv4.kern f4 [3, 3, 48, 64]
00000000: 2d85 073e 2102 f5bc e795 6cbd c53a acbd
00000010: 19a5 5f3d c914 aa3d 3bec 20be 5648 21be
00000020: 5ea3 39bc 1b70 6bbe 12d5 a03d 66b1 01be
00000030: 1b70 71bd 0533 ad3c 6c63 99bc 5027 4c3e
00000040: b724 df3d d00a 41bc 449a 8ebd 35f0 253d
00000050: 2d4a b13d 6808 12bd 8856 28be ce0c 513d
00000060: 12f0 0f3e 02cd 35bc 76a7 2d3d faf5 15bd
00000070: 0cd7 0a3e 8550 353d c506 93bc 5d7d 20be
00000080: aad0 033e 7a88 c8bc c719 5b3d e1b9 5d3e
00000090: 016c cfbd df83 a7bd 7c2b b2bd f116 fa3d
000000a0: c0c8 693d 0d12 81bd b02b 253e fa1d c8bc
000000b0: abf5 143e 386e 393c 55b5 513d d086 06be
000000c0: 95b4 ddbd 376a 85be c5a4 183c 3c41 b83d
000000d0: f18a b4bd 28b7 02be b934 9d3d 4daf a53d
000000e0: c087 043e 8384 993d 8aee 1fbe 06cd 48bb
000000f0: ff17 64bd 5066 a83d f165 debd d630 e7bd
00000100: 8689 81bd bbd6 35bd d8b3 28bc 6a26 153e
00000110: 7635 3abe 0af8 563d a708 943d 69c5 53bd
00000120: 6d1c 873d b4cd b3bd 264c a8bd f3c7 12be
00000130: 1930 81bb 4938 d6bc fa8a 163c 594d e2bc
00000140: c64d 08bd 5812 e13d 28c2 43be a3da d7bd
00000150: 4745 583d baca 043e 2a18 f9bd 6011 09be
00000160: 9e59 993d dfc3 343c affe 54be f463 9dbb
00000170: 6ffc fb3c ca69 af3c 93fe 743b 143f 113d
00000180: b703 6b3d ec4f e3bc 026f 12bd d42c ffbd
00000190: c05a 7b3d ce3d 3a3d 8e06 9f3b 796c 35bd
000001a0: 7385 a13d 213a 6b3b 7ba3 9f39 abd7 7d3d
000001b0: 22a1 6d3e 978c 293e 3a43 29bd 4512 82bc
000001c0: ea7f 82bc 25c2 533d c9de cc3d c030 e0bd
000001d0: 2c2e 863d 6bc8 1abe 6304 ac3c b751 463d
000001e0: daf6 9ebd 9512 a03d b1f7 523e c188 10be
000001f0: 83f2 a8bd 4189 443e 8ec7 19bd a426 55bd
00000200: ef2e 48be 7e71 ba3c 83eb 2f3e a3f4 32be
00000210: db77 063c 878f 47be 6de4 dabb 287b 96bc
00000220: a62a ac3d 157f c0bd 0921 dd3d 2314 87bd
00000230: 0feb 3d3e 4cdb e3bc 91e0 5e3e 202b 8d3c
00000240: 009a 4ebe 50d7 d1bd 2282 0abe 1422 85bd
00000250: 2139 56bc d324 a33c 1c03 353e 6a6d 663c
00000260: 7ab1 143e 9176 b43d db00 d43d ef6b 263d
00000270: c16b 4abd 60a1 c03a f531 06be 8c14 1e3e
00000280: 7199 203e 31d4 cebc 2246 c03c 2a33 89bd
00000290: 3555 edbc dd71 9e3d 8a03 f13d 8435 423e
000002a0: c1d7 143e ee4b a2bc 5c75 2a3d 23a4 8c3d
000002b0: fed6 13bd 2c60 cdbd 85ae 7ebd fee8 243d
000002c0: 3983 5d3d d044 a0bc bb02 053e ce3e b6bd
000002d0: 3ce3 743c 645e a53d 0182 34be db02 263d
000002e0: 90f7 f83d 3f68 2ebe d30a acbd 2899 b1bd
000002f0: 4d5b e73c baeb 743d 8734 133d 85f4 cf3c
00000300: 6d53 88bd a4e4 ecbd ed59 f3bd 8afb 2e3d
00000310: 1664 e13d ce11 e7bb b6ce 1dba 9512 0d3e
00000320: 5675 8ebd b660 733e a6b7 563d 4b3d 633d
00000330: ebf9 f9bd e101 3bbd 2042 f4bd bff9 48bd
00000340: 293f bebd ce11 04bd 85dc 0a3d 9b2b 083e
00000350: 8c58 88bd 9a72 ec3d 308d 60bd 2423 a9bd
00000360: dc2a 74bd 1d3a 83bc aab4 a6bb 03c8 3b3e
00000370: c616 87bd 5294 003e 97fa 963c a231 8f3d
00000380: 9bc2 9abd 968a 573c f113 b4bd 3863 163e
00000390: 899a b63d 9864 a33a f9b5 74bd ef71 52bd
000003a0: 9f32 863d ab40 1bbd 9056 5b3e 7001 6bbd
000003b0: 1d76 323e 6a73 83bb c746 303d 8e0a c43d
000003c0: 499b 0d3c 9c54 6abc d7d8 a8bd 1f07 b6bd
000003d0: a755 9b3d d2d2 3abd 1de9 11bd 52aa a93c
000003e0: b687 2cbd 6fbb bdbd 0f36 09be 8799 1bbc
000003f0: 9e20 84bd 7f26 193e cf0e 46be cd8a 6cbd
0.13234396 -0.029908242 -0.057760146 -0.08409647 0.05460081 0.08304746 -0.15715115 -0.1575025
-0.011330454 -0.22991984 0.0785314 -0.12665328 -0.058944803 0.021142492 -0.018724166 0.19936872
0.10895675 -0.011782363 -0.069630176 0.040512282 0.08656726 -0.035652548 -0.16439259 0.051037602
0.14056423 -0.011096241 0.04239603 -0.036611535 0.13558596 0.044266243 -0.017947564 -0.15672822
0.12872568 -0.02447914 0.05349138 0.21652938 -0.10128022 -0.08179449 -0.086997 0.12211407
0.057076216 -0.06302271 0.16129947 -0.024428356 0.1454684 0.011317782 0.051198322 -0.13137364
-0.10825459 -0.26057598 0.009316628 0.089968175 -0.088155635 -0.12765181 0.07676072 0.080900766
0.1294241 0.07495978 -0.15618339 -0.0030639782 -0.055686947 0.082226396 -0.108592875 -0.112886116
-0.06325059 -0.044394236 -0.010296784 0.14565435 -0.18184456 0.052482642 0.07228213 -0.051701937
0.06597219 -0.08779469 -0.08217649 -0.14334087 -0.0039425013 -0.026149886 0.009188408 -0.027624773
-0.033277296 0.10989827 -0.19117033 -0.105397485 0.052800443 0.12967959 -0.12162812 -0.13385534
0.07487796 0.011033027 -0.20800279 -0.004803175 0.030760018 0.021412749 0.0037383183 0.035460547
0.05737659 -0.02774807 -0.035750397 -0.12459722 0.061365843 0.045469098 0.0048530763 -0.0442929
0.078867815 0.0035892802 0.00030448646 0.061973255 0.23205999 0.16557537 -0.041323878 -0.015877852
-0.015930135 0.051698823 0.100034304 -0.10946798 0.06551775 -0.15115516 0.020998186 0.048417773
-0.07761927 0.07816044 0.206023 -0.14114667 -0.082493804 0.19192983 -0.037543826 -0.052038804
-0.19549154 0.022759195 0.17179684 -0.17476134 0.008207287 -0.19488345 -0.0066800625 -0.018369272
0.08406572 -0.09399239 0.107973166 -0.06595638 0.18546699 -0.02781453 0.21765353 0.017232478
-0.20175934 -0.10246146 -0.13526204 -0.065006405 -0.013075144 0.01991502 0.17676967 0.014064172
0.14520827 0.08811677 0.10351726 0.040630277 -0.04941917 0.0014696531 -0.13104995 0.15437526
0.15683533 -0.025247665 0.023470942 -0.06699212 -0.028971294 0.077365614 0.11768253 0.18965727
0.14535429 -0.019811597 0.04161583 0.06867244 -0.036093704 -0.10028109 -0.062178154 0.04026126
0.05408022 -0.019564062 0.12989323 -0.08898698 0.014946755 0.08074644 -0.17627718 0.040530067
0.12156594 -0.17031954 -0.08400502 -0.0867179 0.028241778 0.05979512 0.035938766 0.02538515
-0.06656537 -0.11567047 -0.11882386 0.042720355 0.11005418 -0.007051683 -0.0006019877 0.1377662
-0.06955974 0.23767361 0.052421235 0.055478375 -0.12205871 -0.04565609 -0.11926675 -0.0490663
-0.092893906 -0.032243542 0.03390171 0.13297884 -0.06657514 0.11545296 -0.054822147 -0.08258656
-0.059611186 -0.016018922 -0.005087455 0.18338017 -0.065961406 0.1255658 0.018430037 0.069918886
-0.07556649 0.0131556 -0.08792866 0.14686286 0.08916194 0.0012465892 -0.059743855 -0.051378187
0.06552624 -0.03790347 0.2141974 -0.057374418 0.17427869 -0.004011561 0.04303625 0.09572326
0.00864298 -0.014302399 -0.08244484 -0.08888077 0.07584696 -0.04561121 -0.035622705 0.020711098
-0.04212161 -0.09264266 -0.13399528 -0.009497053 -0.06451534 0.14956091 -0.19341587 -0.05774956

Conv3.kern f4 [3, 3, 36, 48]
00000000: 2e81 133e 2424 16be 2495 91bc 690b 6bbd
00000010: e7f3 a5bd 8a5f ed3a 38ff 91bd 9421 ccbd
00000020: d88f d43d f16c 05be 3ec9 ad3c 521d 963d
00000030: d274 b33d bbd5 bdbc 4b6f 1abd ead7 95bc
00000040: 5ca4 23be 4bb1 f0bc 6c1e fdbd a5c7 783d
00000050: 1c59 48ba c1c7 05be 4330 253d cd22 1cbd
00000060: 5609 17be 85e7 30bd 673b 01be 5670 3fbd
00000070: d25c f4bd bd87 503d 8109 b43d 8c0b ad3d
00000080: bd9b ee3c c075 09bd 2714 2fbd 471c aa3d
00000090: 5035 d13d 97d5 733d ef5a 3cbd 2235 213e
000000a0: 0e75 a03d 94dc 6c3d bfd3 cb3d 30e0 c5bc
000000b0: 2567 ddbd 4c68 18be b13c 69bd e784 8a3d
000000c0: 8b96 e93c d44d beba 4e83 86bc 5a53 ad3d
000000d0: f21d 683c 7b56 8a3d d0a3 a33d fd1e eb3d
000000e0: 0c4a 0d3e c9c3 0abe cbfb 553d 73d8 d33c
000000f0: e56f 023e 8be1 e03d b26f 52bd 6106 6abe
00000100: 981b ecbd 70d2 e2bd 2158 563d 60b8 993c
00000110: 6db6 3bbe 511e 91bd 762d 49bd 8e07 1bbb
00000120: 11ea e4bc 3325 c83d cfe4 9a3d 313a e93c
00000130: b43a 5c3b d60d 2fbe e566 fbba 336a 423d
00000140: 6dee 2a3d e598 c1bd c3d5 fb3d 7a5a c13d
00000150: ed60 23bd 4d52 1abe 89e0 333e a653 173c
00000160: 4661 353d f78c 093d 2eb7 a73d d6c0 debd
00000170: 92bb cdbd 4dd6 813a 307f 0cbe 902f 643d
00000180: b4a1 703d 65a1 bb3d 4d8d 03bd 95c9 a13d
00000190: 3cfd 13be 16cd 5dbd 553e a1bd 1c20 cb3d
000001a0: ca55 94bc 1ccf c5bd 8975 963d 7a66 6b3e
000001b0: 48d1 8abd dfd3 a6bd c6c9 12be 9d05 ad3d
000001c0: 5d36 debd 61b8 423c 8923 a83c bc85 923d
000001d0: e191 163d 0f03 113c 583b c7bd c1b4 16bd
000001e0: cf7d 3d3e d8b7 2c3e 9c40 cfbd c040 2f3e
000001f0: 8619 3b3d b91d 9abc f85a b5bd 657c c63d
00000200: a391 25bc 704a ebbd 34a3 233e d6d7 a53c
00000210: 2295 1abe 0501 0d3e 1d0f f6bc 86ba 9c3d
00000220: e91f 0a3d 67d4 a73d e8ae 70bd 8237 343b
00000230: fca8 88bd 6f19 9b3c 1b0e c83c a93f cebc
00000240: 43a2 98bd 81ff 17bd 093f 3d3e 8950 773e
00000250: 5973 74bc 94b4 d43a 9b14 5b3e d683 98bd
00000260: 61d2 333e 69f7 29be 7ec2 d03d 3f85 febd
00000270: 5549 d53b 8b39 033e 6882 6e3d 1c24 7b3d
00000280: 0b66 0bbe 46ee 1fbd 82b2 05bd 865f 7b3a
00000290: 97d5 a3bd 46fa 16be ce8b 06bd 8eca 2b3e
000002a0: de82 3b3e 38be da3d 592c 2cbd c099 033e
000002b0: 6e4c 09be 3ef4 59bd 1a94 5c3e 8229 23bc
000002c0: 142a 8cbd 5220 363d dd23 2d3e cfbc 58be
000002d0: 80a7 46be 85db 283d f5be 493d e3e6 00be
000002e0: e9c7 1abb 6b3f 04be 9b75 f93d f783 3dbd
000002f0: c8f5 143e 02f7 8bbd 99db b5bd 6e85 b43d
00000300: 185b 183d 027f 123e f3d4 2d3e 2f4a 313e
00000310: 87ff 4bbd f958 15be 4e56 8e3c 1bf6 18be
00000320: 4755 6a3d abbc d9bc ca60 b73d 9a4b 9abd
00000330: 25c4 073e 4b70 8a3d 22c9 863e 9f8a 313e
00000340: 6b2c e4bd ea60 5ebd f529 d83d dfab be3d
00000350: 3871 1dbe 5fd4 84be c096 373d 1f6e 173d
00000360: 1307 86bd a936 70be 10b6 183e 5b41 233e
00000370: 1191 1fbd ed31 833e cc38 f33c 7db6 6abe
00000380: a142 89be c8fc 673e d2aa b1bc 0b92 5bbe
00000390: 0c9a 243d f938 a53e 186e 86be 6b95 03be
000003a0: 4a38 8e3c 625e fd3d d98d a0be 0174 073e
000003b0: 9843 20be be1f acbd 45c1 08be b752 b0bd
000003c0: 96d9 4e3e 21a5 a63b fb85 683c 3315 1a3e
000003d0: 252c f53d 6c7c a03c bf8c a33d df07 d83d
000003e0: fcb6 e03c 0ddf 4c3e c3b5 773d b212 35be
000003f0: 4694 d23d 8d89 bf3d f600 78bc 7fbe c5bd
0.14404747 -0.14662224 -0.017771311 -0.05738393 -0.08103161 0.0018110138 -0.07128757 -0.09967342
0.103789985 -0.13029839 0.021214124 0.07329811 0.08762516 -0.023173204 -0.037703793 -0.018291432
-0.15980667 -0.029381415 -0.12359318 0.06073727 -0.0007642673 -0.13064481 0.04032923 -0.038119126
-0.14749655 -0.043189544 -0.12620316 -0.04673799 -0.119317666 0.0509107 0.08790875 0.08449468
0.029126996 -0.03355956 -0.04274383 0.08306175 0.10215247 0.059529867 -0.04598516 0.15742925
0.078348264 0.057827547 0.09952497 -0.024154752 -0.10810689 -0.14883536 -0.056942645 0.0676363
0.028514167 -0.0014519044 -0.016420033 0.08463164 0.014167296 0.06754776 0.07990229 0.1148052
0.13797778 -0.13551249 0.05224208 0.025860047 0.12737997 0.10980519 -0.051376052 -0.22853996
-0.115287006 -0.11075294 0.05233014 0.018764675 -0.18331309 -0.070858605 -0.04911562 -0.0023655626
-0.027943643 0.0977272 0.07563173 0.02847013 0.0033604326 -0.17095122 -0.0019180445 0.04746456
0.041731287 -0.094529904 0.12296631 0.09441085 -0.039887358 -0.15070458 0.17566122 0.009236252
0.04428222 0.0335817 0.08189236 -0.10876624 -0.10045542 0.0009905786 -0.13720393 0.05570942
0.058747962 0.09161643 -0.032117177 0.07899777 -0.1445207 -0.054150663 -0.07873217 0.09918234
-0.018107314 -0.096586436 0.07346637 0.2298831 -0.067781985 -0.0814588 -0.14334783 0.08448336
-0.10850213 0.01188478 0.020524757 0.07154414 0.036760215 0.008850827 -0.09728116 -0.036793474
0.18505023 0.16867006 -0.10119745 0.17114544 0.045678638 -0.018813001 -0.088552415 0.09691695
-0.010105523 -0.11488807 0.15980226 0.02024452 -0.15095952 0.1376992 -0.030036503 0.07652764
0.03372184 0.081948094 -0.058760554 0.0027498906 -0.06672856 0.018933026 0.024420789 -0.02517684
-0.07452824 -0.037108902 0.18481077 0.24151815 -0.014920079 0.0016228133 0.21394579 -0.07447021
0.17560722 -0.16598286 0.101933464 -0.124277584 0.006508986 0.1281492 0.058229834 0.061313733
-0.13613145 -0.039045595 -0.03264094 0.0009589124 -0.079997234 -0.14743909 -0.032848172 0.16776487
0.1831164 0.106808126 -0.04203448 0.1285162 -0.13408062 -0.053211443 0.21540871 -0.009958627
-0.06843963 0.044464417 0.16908212 -0.21165775 -0.19399834 0.041224975 0.049254376 -0.12588076
-0.002361769 -0.12914817 0.121806346 -0.04626843 0.14546883 -0.068342224 -0.088797756 0.08814512
0.03719625 0.14306262 0.16975765 0.17313455 -0.049804237 -0.14584722 0.017375138 -0.14937632
0.057210233 -0.026579222 0.08954008 -0.07533951 0.13258417 0.067596994 0.26325327 0.17338036
-0.111412846 -0.054291643 0.10554878 0.093101256 -0.15375221 -0.25943276 0.0448215 0.036970254
-0.06544318 -0.23458351 0.14913201 0.159429 -0.038956705 0.25624028 0.029690169 -0.22921176
-0.26808646 0.22655022 -0.021687899 -0.2144243 0.040185973 0.3227003 -0.2625587 -0.12849967
0.017360825 0.12371518 -0.3135822 0.13227846 -0.15650785 -0.08404492 -0.13354976 -0.086095266
0.2020019 0.005085603 0.0141921 0.1504715 0.119713105 0.019590579 0.079858296 0.10548376
0.027431004 0.20006962 0.060476076 -0.17682913 0.10282187 0.093524076 -0.015136948 -0.09655475

Conv2.kern f4 [3, 3, 24, 36]
00000000: cfcd 8e3d c5ef 35bc 7548 613e ca76 6b3d
00000010: b159 023e e434 0cbd f4fd 173e d2c9 07bd
00000020: bb8a 0fbe dab7 fe3c 99cc 833d 30b2 9d3c
00000030: 8aae f53b afe4 9cbd 5cb2 3e3e 3dc5 53bd
00000040: 9962 07be 1bfe 0bbe b604 82bd d638 1a3c
00000050: 8f7d e3bc 235f e4bc 4e20 a13b fc93 5d3c
00000060: c8c4 033e 0b7a a9bd 8ba4 ddbd 4986 eb3d
00000070: 12b3 5fbb 7e68 ba3b fc49 ec3d 1603 fa39
00000080: 9c85 e63d 6b03 683d fcc8 4ebd 615d b23d
00000090: fe84 003e 200d 2dbe 6147 173d 2642 103e
000000a0: e721 37bd 03bb 23bd cc0c 0ebe 4fd5 4dbd
000000b0: a5c8 573d 7991 15bc cac4 db3d 8f90 303c
000000c0: ab19 90bc 8e56 1dbe 0c7f d83b 7a8d 603d
000000d0: 90c3 ba3b 76ea 0abe 740c 8fbd 2b84 2a3e
000000e0: 8f76 d4bd de0d 433d 388d a8bb f670 bf3d
000000f0: 896a d33d 866e 093e a2b5 a93d 87ef e73d
00000100: 2b02 afbd b0b3 aebd e646 413d c4ae 39be
00000110: 7160 bdbc de49 e7bc 8d64 923d 18fe fc3d
00000120: b9c2 a33d 21b7 f53d 8c9f 8f3d b3f7 3d3e
00000130: 9888 8a3e 0258 683d da46 08be 228b c8bd
00000140: 53cd b23d 4893 263e f629 01be 14ad 303e
00000150: 6146 30bd 3c0d 30be df5a 2d3e 33d1 2a3e
00000160: ff00 663d e66a 22be 45c8 a0bc 5ed5 0fbd
00000170: b118 06bd 22ba 23bd 4ac3 e3bd ae37 cabd
00000180: b5b3 02be 876e b2bd 725f 0c3b 6634 babc
00000190: f133 213d 2c76 6a3e e847 4ebe e01a 243e
000001a0: eed5 473e c571 17bd 7c56 12bc da60 cabc
000001b0: cd6c 933c 5af7 3bbe 4d01 8bbd 6ff7 3b3e
000001c0: 0a3e ea3c 4ec2 2cbd fb4f 4cbd e208 acbd
000001d0: 450f 90bc 8f56 30be d8ab cd3d a968 0bbe
000001e0: 9540 ddbd f561 be3c e10d e9bd 928a d9bd
000001f0: 7d15 90bc 82c7 303e 4d55 033d bb81 473e
00000200: ae3e e9bc 8c80 683d c7d0 5ebd 9066 e93b
00000210: 87cf d4bd 10ae 61bd 8314 0c3d f59f 8d3d
00000220: 311a 70bb 0b14 133e 671b f53d b6e9 f83d
00000230: 0690 5bbd 63b9 67bd 33be fbbb bb6e 8ebd
00000240: b0f8 9bbc 872f 9abd 008c 273a 09b1 0bbd
00000250: 148c a1bd 4d5c 853d 23e4 6abd a0b9 db3b
00000260: 1890 44be f169 04be c852 253d d1c5 f9bd
00000270: 18fb 07be c76f 1ebd 24e9 b8bc d52a 41bd
00000280: 4a52 993d 84d0 143d 86f6 ffbc 88fd acbd
00000290: 7673 fa3d 6487 0d3e ed9b 243c f527 d4bd
000002a0: ba97 f0bb 3fd5 66bc 8501 7dbd 49be 0a3d
000002b0: 4e0c 383e 8452 7ebd 1a30 253e 3f55 5e3e
000002c0: 6a81 cf3d 1c1b 5bbd d541 34bd aa9a da3d
000002d0: 48a3 f7bd 97e2 1c3c cba9 013e d8d3 78bd
000002e0: e7cb f93a fe2d 123e 9189 21be 0cdd 2c3d
000002f0: 3375 8b3d 07a2 f8bd 5162 f3bc 0fe7 d1bc
00000300: 37ec 163e fd84 a9bd bf5e ed3d 0c6a dbbd
00000310: d4b3 053e 19eb d5bc ae92 28bd 531a 023d
00000320: 5e60 b5bc 9ad6 8fbd 79e0 8fbd bb7e 963c
00000330: 0ca4 103d ab46 e7bd 8365 4d3e 0948 533d
00000340: 4483 183c 96bc adbc b557 a13b d7f7 90bd
00000350: 117f e53d ef81 3f3d 1d34 28bd 0415 0bbd
00000360: 56f8 ddbd baae e03b 0370 573d d435 cb3d
00000370: 1c9f 8ebd e0ee 1ebe bdc4 123d f832 25bc
00000380: 8b65 24be fd94 03be 5bb9 bdbd 9e2c 4b3d
00000390: 2563 9dbd 26d8 1ebe 56a2 323d 93e4 8abd
000003a0: 4c6a 57bd 2e53 2fbd e5a0 053e 34c2 d2bd
000003b0: ee86 1a3d f740 933c 489b 07be 15c8 d43d
000003c0: 9392 48be f47b 5d3d 11fc 47bd 69d8 b0bc
000003d0: e8b5 cebd 0a50 52bb 7c94 6c3d 7ff6 59bd
000003e0: f208 77bd 330a a5bb abf8 ff3c a9d4 683d
000003f0: 0e07 b63c b8a8 dbbd 7e81 a1bd 17da cb3d
0.069728486 -0.011104529 0.22000296 0.057486333 0.12729527 -0.034230128 0.14842969 -0.033151455
-0.14017765 0.031093527 0.06435508 0.019250005 0.0074976133 -0.076608054 0.18622726 -0.051701773
-0.13221206 -0.13671152 -0.06348555 0.009412965 -0.027769832 -0.027877396 0.004917181 0.013524052
0.12868035 -0.08275231 -0.108224 0.11500222 -0.0034133834 0.005688726 0.11537549 0.00047686015
0.11255953 0.056643885 -0.050484642 0.08709217 0.12550732 -0.16899538 0.036933307 0.14087734
-0.044710066 -0.03997327 -0.13872069 -0.050252255 0.052681584 -0.009128922 0.10730894 0.010776653
-0.017590364 -0.15365049 0.006606942 0.054822423 0.0056995824 -0.13566002 -0.06984797 0.1665198
-0.10374176 0.047620647 -0.0051437877 0.093477175 0.10323054 0.13421068 0.08286597 0.11324983
-0.085453354 -0.085303664 0.047186755 -0.18133074 -0.023117276 -0.028233465 0.07148085 0.12353152
0.07996125 0.1199782 0.07012853 0.18551521 0.27057338 0.056724556 -0.13308278 -0.097921625
0.08730569 0.16267121 -0.12613663 0.17253524 -0.04303587 -0.17192549 0.16929196 0.16681366
0.056153294 -0.15861091 -0.019626746 -0.035115592 -0.03273839 -0.039972432 -0.11121233 -0.09873901
-0.12763865 -0.08712488 0.0021419195 -0.022730064 0.039356176 0.22896641 -0.20144618 0.16025877
0.19515201 -0.036973733 -0.008931752 -0.024704386 0.017996216 -0.18356076 -0.067873575 0.18356107
0.028594036 -0.04217749 -0.049880963 -0.08400132 -0.017585406 -0.1722052 0.10042542 -0.13614143
-0.10803334 0.023240069 -0.113796 -0.10622133 -0.017588371 0.17263606 0.03206377 0.19483082
-0.02847227 0.056763217 -0.054398324 0.007122822 -0.10391145 -0.05509764 0.03419925 0.06915275
-0.0036636705 0.14363115 0.11968117 0.12153952 -0.05360415 -0.056573283 -0.0076825856 -0.06954714
-0.019039482 -0.07528596 0.0006391406 -0.03410438 -0.07888046 0.065117456 -0.057346474 0.006705478
-0.19195592 -0.12931038 0.04036215 -0.121959336 -0.13279378 -0.038680818 -0.022572108 -0.04715999
0.074863985 0.03633167 -0.031245481 -0.08446795 0.12229054 0.13821179 0.010046941 -0.10359184
-0.007342306 -0.014088928 -0.061769027 0.033872876 0.17973444 -0.06209041 0.1613163 0.21712206
0.10132106 -0.05349265 -0.044008095 0.10674031 -0.1209169 0.009575508 0.12662427 -0.060748905
0.001905796 0.14275357 -0.15775134 0.042202994 0.06809463 -0.12140279 -0.029709967 -0.025622873
0.14738546 -0.082773186 0.11590337 -0.10713586 0.1305688 -0.02611308 -0.04115551 0.031763386
-0.022140678 -0.07023354 -0.07025237 0.018370977 0.035312697 -0.11292776 0.20058255 0.05158237
0.00930864 -0.021208089 0.0049237856 -0.07078522 0.112058766 0.046754774 -0.041065324 -0.03395559
-0.10838382 0.0068567665 0.052597057 0.09922376 -0.069639415 -0.15520811 0.035832155 -0.010082953
-0.1605436 -0.12849803 -0.092638694 0.049603097 -0.07684926 -0.15512142 0.043611847 -0.06781878
-0.052591607 -0.042803936 0.13049658 -0.102909476 0.037726335 0.017975314 -0.13242829 0.10389725
-0.19587164 0.05407329 -0.048824374 -0.021587567 -0.100932896 -0.0032091164 0.057758793 -0.053213593
-0.060311265 -0.005036616 0.031246504 0.056843434 0.02222016 -0.1072554 -0.07886027 0.09953707

Conv5.kern f4 [3, 3, 64, 128]
00000000: 14d7 0abe e78d fcb9 5360 e8bd 9258 a13c
00000010: ffdc b9bc f462 b53d aeb1 963e 3a0d 1d3e
00000020: c567 4bbd d5e4 a73e 6ad7 48bc 961f 25bd
00000030: 05ca 0b3d 29fe 9f3d c36b c8bd f6c4 533e
00000040: 5c1e fa3d abc7 1dbd 8c04 15be e5c0 22be
00000050: 9016 15bc 0f6c 783d 4004 073e eb6b 05bd
00000060: 53b5 aa3c c543 6a3c fb91 65be 463a e7bd
00000070: 8a36 1f3e 91d5 d63c 6fc6 adbe 4529 7cbe
00000080: 09bc 15be 396d 0fbe c1c0 e0ba 1766 3c3e
00000090: 0dfd 41be 2e38 f83c e125 91bd 2d35 57be
000000a0: 4154 22bd 6f96 70bd 7468 af3d c49f d6bd
000000b0: 5a82 5b3e b628 c9bd f468 69be 594a ccbc
000000c0: 23fe be3c 2691 c33c 1dac a03c 6fa3 ce3d
000000d0: 1b94 b0bd ae54 383a d735 9f3e b5cf 323e
000000e0: af12 afbd fd72 a03c b267 223e 080f f23d
000000f0: 2883 1dbe baf9 503e 2c60 8abd 92bf 363d
00000100: 1f8a 9a3e 7104 713e 216e cdbc eaec 823e
00000110: 059d 9ebd 1774 86bc 63d5 193d f164 623e
00000120: ca59 54bd 5cf8 763d 1d27 2bbe 13a8 e5bc
00000130: ada0 42bd b2a6 2bbe 6d56 d6bd 2837 983d
00000140: 886a 3a3e 551c ecbc eaaf 47be 3b7f 923e
00000150: 6c39 7d3e 3d94 54be 7bb9 333e 1d3c 373d
00000160: 55b9 ecbd a1bf 9b3d 55f9 6bbd f6d1 203e
00000170: 9405 0f3e 8c66 c5bd a575 0b3e 6509 87be
00000180: c89f 413c ef6e 113d 8196 483e 3517 4c3e
00000190: e4de 253e cea0 00be 96a0 563e 0d49 1b3d
000001a0: aaf2 993e fe95 5d3b 8a64 b13e 5d7a 0fbd
000001b0: d82f bebd 4929 4a3d face 1dbe bea1 d33d
000001c0: 867f 1f3e 4bfa b93d 93de e53d a8ca 0f3e
000001d0: 693c bebc 2f10 9c3c 53bb 943e c16c 453d
000001e0: 7bdc 173c 2b48 3bbd 68b1 81be ddce aebd
000001f0: ebec 6fbd 3e08 dc3d c154 36bd 1830 2abd
00000200: ce01 5fbe 8c59 403d 054b ddbc 9582 e63c
00000210: 2ee4 edbd 2379 fe3c 7e14 503c 394c d1bd
00000220: d43e 2cbd a94a 153e 1b2c 04be 9c22 62bd
00000230: 04ee 353d 2e00 8f3d cc40 623c e672 93bd
00000240: df4f c0bd a6bf 04be 488f 07be d32d 883d
00000250: 45b1 233d 5375 87bd 82de c13d 42c3 1c3c
00000260: d47c 6dbd 3c36 dc3d 17cd f13d 85c1 79bd
00000270: 1493 e13c 2408 e23d 1888 4fbc 8e15 0cbd
00000280: c9bc 183e 5279 91bd 462a 053d 49d2 c73d
00000290: 5242 03bd 19f5 74bd 1d87 4abd 6fce 653d
000002a0: 1155 9dbc 41a9 4d3d c69f 20bc 7134 db3d
000002b0: 4a67 6b3a 92c3 823c 328e 6bbd 17ba 9cbd
000002c0: 4ab6 2cbe afce 303d fa00 083d 7704 a9bb
000002d0: 3c9c 063e f57f 33bd bf4f 1fbe 62f8 0a3e
000002e0: 7eb5 8cbb 2c8c fb3c f29b bdbd ebd7 123e
000002f0: ab4b 763d 815f 7c3c 658b 47be 70f4 a73d
00000300: c16c e93d 1da7 cbbc 4b4f 1b3d ed55 153d
00000310: bf3b 373e e798 13be faaf 47bd 99a3 40bd
00000320: 2053 afbc ae36 11bc 1152 bf3d 17a7 cabd
00000330: a155 843d b816 183d 0f0d f23c 4df5 a83d
00000340: d45f b93b ae31 493d d229 ed3d a817 95bd
00000350: 8535 18bd 5c8f 2dbd c933 c139 0a49 e339
00000360: 6237 55bd 45d8 5c3d a529 143e 3f48 10be
00000370: de9e 333d 6276 753d 5e5c a1bd 34fa 10bd
00000380: a4e8 22be 7d7b d1bb 69a9 d3bb c288 f63c
00000390: c43d 63bd 75ab 403e 63f5 babc af66 013e
000003a0: dc3e 80bc 7038 f63b 279f e4bd 056b d8bc
000003b0: 7f22 e03c 71c3 bbbc e8da 46bd fe6c 05be
000003c0: e8d7 f63a 6769 853d 9cb2 10bd 80ba 243d
000003d0: 4b4b fcbd 11e7 393e 476c 253c 5b64 9d3d
000003e0: edf9 8f3d be3f babd befb 2abe eec3 b7bc
000003f0: 0325 c5bd 8c3a cabd 6bd8 9e3d 6939 933d
-0.13558608 -0.0004817091 -0.113464974 0.019695554 -0.022688387 0.088567644 0.29432434 0.15337077
-0.04965951 0.32791772 -0.01225839 -0.040313326 0.034128208 0.07812149 -0.09786179 0.20680603
0.12212822 -0.038520496 -0.14552516 -0.15893896 -0.009099618 0.060649928 0.13185215 -0.03257362
0.020838415 0.014298384 -0.22418968 -0.11290412 0.15548149 0.026224883 -0.33940455 -0.24625118
-0.14622511 -0.14006509 -0.0017147289 0.18398319 -0.18944187 0.030300226 -0.07087303 -0.21016379
-0.039631132 -0.058737215 0.08564845 -0.104796916 0.21436444 -0.09822218 -0.22793943 -0.024937795
0.023314541 0.023872923 0.01961332 0.10089766 -0.08621999 0.0007031661 0.31095764 0.17462046
-0.085484855 0.01958608 0.15859869 0.11819273 -0.15382063 0.20407763 -0.067566246 0.04461629
0.30183503 0.2353685 -0.025076928 0.25571376 -0.07744793 -0.016412778 0.037557017 0.22108819
-0.051843442 0.060295448 -0.1671414 -0.028034246 -0.047516514 -0.16762808 -0.10465703 0.07432395
0.18204701 -0.028822104 -0.195007 0.28612694 0.24728936 -0.20759673 0.17551224 0.044735063
-0.11558787 0.0760491 -0.05761083 0.15705094 0.13966972 -0.096387 0.13619097 -0.26374355
0.01181788 0.035506185 0.19588663 0.19930728 0.16198307 -0.12561342 0.20959696 0.037911464
0.3006795 0.0033811326 0.34647018 -0.035028804 -0.09286469 0.04935578 -0.15410987 0.10333584
0.1557599 0.09080943 0.11224093 0.14042151 -0.023222165 0.019050686 0.29049167 0.04819942
0.009268875 -0.04572312 -0.25330663 -0.0853555 -0.058575552 0.107437596 -0.04451442 -0.041549772
-0.21778032 0.0469604 -0.027013311 0.028138438 -0.116157874 0.031063622 0.012700198 -0.102196164
-0.042052105 0.14579262 -0.1290745 -0.055208787 0.044416443 0.06982456 0.013809394 -0.071996495
-0.09390234 -0.12963733 -0.13238251 0.06649365 0.03996398 -0.06614175 0.09466268 0.009568037
-0.057980374 0.10752532 0.11806696 -0.06097557 0.027535953 0.11036709 -0.012666725 -0.034200244
0.14915766 -0.07103218 0.03251102 0.097569056 -0.03204567 -0.059804056 -0.04944526 0.056105074
-0.019205602 0.05021024 -0.009803718 0.10703362 0.000897993 0.015962396 -0.057508655 -0.07652681
-0.16866413 0.04316586 0.033204056 -0.005158003 0.13145536 -0.0438232 -0.15557764 0.13571313
-0.0042940965 0.030706488 -0.0925826 0.14340179 0.060130756 0.015403629 -0.19486769 0.0820092
0.11397696 -0.02485996 0.037917417 0.0364589 0.17893885 -0.14413796 -0.04875181 -0.04703102
-0.021401942 -0.008863134 0.09341825 -0.09895151 0.06461645 0.03713104 0.029547242 0.082499124
0.0056571756 0.049119644 0.11580242 -0.07279903 -0.037160415 -0.042373046 0.00036850412 0.00043351232
-0.05205477 0.05391719 0.14469011 -0.1409006 0.04385268 0.05992735 -0.07878946 -0.035394862
-0.15909058 -0.006392895 -0.0064594042 0.030094508 -0.055478826 0.18815406 -0.022822088 0.12636827
-0.015654974 0.007514052 -0.111631684 -0.026418218 0.027360199 -0.022920342 -0.04854861 -0.13029858
0.0018832656 0.065142445 -0.035326585 0.040216923 -0.123190485 0.18154551 0.010096616 0.07685157
0.070300914 -0.09094189 -0.16697595 -0.022432294 -0.096262 -0.09874448 0.07756122 0.071886845
