model.npz (npz, 557226 bytes, 13 tensors)

Conv6.kern f4 [1, 1, 128, 100]
00000000: e74a bd3d cfcd 40be 4f3f 9dbd 66c3 8bbd
00000010: 8a2f c9bd f6db 7f3e 7b88 82bc 6c85 48bd
00000020: dbc9 0a3d 4cbe 9c3e 6604 853d 39eb b03d
00000030: de13 253d 01ca 853e 9bdd 933e 4904 6b3d
00000040: 8656 2a3e 9d44 3cbe 1e15 923e 3f82 27be
00000050: 0379 efbc 9286 663e 7ceb 00be 6d5e 283e
00000060: 1bb5 89bd 8e7a 2dbe 414a 883a 8dd0 bc3c
00000070: b00c e0bc 44c2 403e daa7 ec3c ce70 4ebe
00000080: 20a0 04be 38a2 5a3e 1fcb f1bd 641e b43d
00000090: eb48 90ba 1204 333e ebc0 ebbd 558b 13bb
000000a0: 20f0 8e3d de9b 9dbb b900 6fbe 4de3 013e
000000b0: 01a8 e7bd 00a0 35be df0d b33d b5b4 313e
000000c0: 9418 e9bb e050 663c f063 273e 7e3c b13d
000000d0: 2278 49be 4210 8dbd 6533 303e b464 0abe
000000e0: 06df be3d 8534 3e3e e260 c1bd 0827 cdbd
000000f0: 21d6 023e ae47 943d eaa1 c73d d68f 88bd
00000100: a7d2 ae3d 972f 0b3e d450 d0bd dfb9 9dbd
00000110: 7afe 37bd 6c90 69be 49e1 4cbe 0889 fcbc
00000120: 9c6b 483e 687d 533e 792d 0bbc 2d1c 1bbe
00000130: a96c 903e 351a 723e 5df1 76bd 5e78 e73d
00000140: 7738 94bd e73e dabd 985a 0f3e ca79 2bbd
00000150: 0c5f 4a3e 0f0a 673e e764 f33d 358c d0bd
00000160: 2df9 233e 81ba 88bd 41b0 3e3e ac2b 703d
00000170: 8e1a 273e f2b8 b83d 45dc fdbd 7872 c6bd
00000180: 3694 3e3e 056d 0fbe 6b3e 533c 9495 7fbd
00000190: 1f60 f93d b9ca a2be 9e67 293e a8ea 22be
000001a0: e832 a2be 765c 2d3e d30d 42be 3526 05be
000001b0: aac8 d4bd 58ce 5e3e 735f 413e 99d4 103e
000001c0: a8bf 90bd f436 013e 4b0c 943d 04ad 943e
000001d0: 1bc2 f0bd 8113 8abe 21a2 db3d 3289 1abe
000001e0: b871 95bd 4b65 423e 7648 1fbe a2fc a13e
000001f0: b07f a8bd 1082 aa3c 85d3 c0bd 67bd 03bd
00000200: 2ab0 dabd 848d 1c3e 0755 5d3e 6e40 37be
00000210: 24d0 983d f811 d43c d936 abbe 4a9c a83d
00000220: df30 383d 3af7 f83d 1898 eebd bf24 32be
00000230: 6b9a 423e 92d9 5e3e 0d51 88be 619a 3a3d
00000240: ebc0 2cbe a051 acbd 58f7 14bd 6c27 693e
00000250: 15e2 633d 3053 853d 29cf b83d 8333 0e3e
00000260: 8c62 8ebd bdfc eb3c 639b 3f3e 756f eebd
00000270: 5b6f 5a3c 4b85 5cbd d572 b0be 82df 9dbe
00000280: 3a84 d53d b978 f53d 7125 1b3e dfa3 c5bd
00000290: fbc7 a0bd cbe5 983e 045a 58be 28c5 31be
000002a0: c797 253e 6d3e 13be 8736 f6bd f37f 35be
000002b0: 1a47 2a3e 99ff b23e 3501 2ebd 2201 08be
000002c0: f423 753e 0c28 653e bf63 31be 9445 fc3d
000002d0: eda0 c5bd 30b9 1bbd 63f2 443e 56fb 6dbe
000002e0: f282 8b3d a89f e13d f18d 8c3b fd81 b7bd
000002f0: 311a e83a 25eb 32be ada1 243e a3b5 933d
00000300: 0dfc db3d ba5d c3bd b2e0 96be ec8e 4abe
00000310: 78d3 503e 76b9 66be 03b2 9dbe 05fa 54be
00000320: 6aa0 153c c529 dfbd 2166 61be 618d 10be
00000330: c084 01be e9ca 42bd 172c 2abe d423 03bd
00000340: 1e51 c23d 5f23 37bd 8702 68bc 7d80 f7bd
00000350: 1dbf 9d3d d24c ff3b eeee 163d 44bd abbd
00000360: 1207 ac3b 0dc5 a63c fca2 87bb e7e3 b83c
00000370: 81dd 45bd 2488 cfba 9cc3 17be 9975 263e
00000380: a076 883d 5cb1 0abd 6370 9bbd 8d83 283e
00000390: 3319 7cbd 6627 54bb d503 81bd 01f0 b4bd
000003a0: 59d3 143c 7ecd fdbc 5e6e 05be 7f71 a6bd
000003b0: 98d5 04be ddda f13b 3c93 063e 123f 13bb
000003c0: 0900 bd3c f84c bc3d e184 433d c1e2 f43d
000003d0: a4fc 34bd f964 febd f658 f03d 3199 acbd
000003e0: b4d6 063c 4bd0 953d 1d59 1dbe 3df7 223c
000003f0: ca45 1dbe 6d04 b1bc 5e9b 62bb 8817 6ebc
0.09242802 -0.1882851 -0.07678091 -0.06824379 -0.098235205 0.24986252 -0.01593422 -0.048955366
0.03388391 0.30613935 0.064949796 0.08638615 0.04030215 0.2613068 0.2888001 0.057377134
0.16634569 -0.18385549 0.28531736 -0.16358279 -0.029232508 0.22512272 -0.1258983 0.1644227
-0.06723996 -0.16941282 0.0010398106 0.023048664 -0.0273498 0.18824106 0.028888632 -0.20160219
-0.12951708 0.21350944 -0.118063204 0.08794859 -0.0011008059 0.17482021 -0.115114056 -0.0022513468
0.06979394 -0.0048098406 -0.2334012 0.12684365 -0.11311341 -0.17736816 0.0874288 0.1735409
-0.0071135256 0.014057368 0.16346717 0.08654116 -0.19674733 -0.068878666 0.17207105 -0.13514978
0.09319882 0.18574722 -0.09442307 -0.1001721 0.12776996 0.07240234 0.097476795 -0.066680595
0.085362725 0.13592373 -0.10171667 -0.07701468 -0.044920422 -0.22808999 -0.20007814 -0.03082706
0.195723 0.20653307 -0.008494728 -0.15147467 0.282079 0.2364281 -0.060288776 0.11302255
-0.07237332 -0.10656529 0.13999403 -0.041864194 0.1976282 0.22562431 0.1188448 -0.10182992
0.16013022 -0.06676198 0.18621923 0.0586354 0.16318724 0.090196505 -0.12395529 -0.09689802
0.18611225 -0.14006431 0.0128933 -0.06239851 0.12176537 -0.3179529 0.16543433 -0.15909827
-0.31679463 0.16929802 -0.18950586 -0.13002856 -0.10389836 0.21758401 0.18884067 0.141436
-0.070678055 0.12618619 0.07228907 0.2903825 -0.11755773 -0.26968005 0.10724283 -0.15091398
-0.07297081 0.18983953 -0.15554985 0.31638056 -0.082274795 0.020813972 -0.09415344 -0.03216305
-0.10678132 0.15288359 0.21614467 -0.17895672 0.07461575 0.025887474 -0.33440283 0.08232935
0.044968482 0.1215653 -0.11650103 -0.1739683 0.19004218 0.21762684 -0.26624337 0.045557383
-0.16870467 -0.08414006 -0.036368698 0.22768945 0.05563553 0.065100074 0.09023888 0.13886838
-0.0695239 0.028807038 0.18711619 -0.116423525 0.013332213 -0.053838056 -0.3446261 -0.30834585
0.10425611 0.11985917 0.15151002 -0.096503966 -0.07850643 0.29862818 -0.21128088 -0.17360365
0.1617118 -0.14379282 -0.12022119 -0.1772459 0.16628686 0.3496063 -0.04248162 -0.13281682
0.23939496 0.22378558 -0.17323206 0.123179585 -0.09649835 -0.038018405 0.19233088 -0.23240408
0.06812085 0.1101678 0.0042893817 -0.0896034 0.0017708001 -0.17472513 0.160773 0.07212379
0.10741434 -0.09539361 -0.29468304 -0.19781083 0.20393169 -0.22531685 -0.30799875 -0.207985
0.009132484 -0.10896639 -0.22011615 -0.14116432 -0.12648296 -0.04755679 -0.16618381 -0.03201659
0.09488128 -0.044711467 -0.014160759 -0.12085054 0.077024676 0.00779114 0.036848955 -0.08385709
0.0052498663 0.020357633 -0.0041393023 0.02256961 -0.048306946 -0.001583342 -0.14820713 0.16255797
0.06663251 -0.03386055 -0.075897954 0.16456433 -0.06154747 -0.0032372116 -0.06299559 -0.088348396
0.009083592 -0.030981775 -0.13030383 -0.081271164 -0.12972105 0.007380827 0.13142103 -0.0022468013
0.023071306 0.09194368 0.047734145 0.119573124 -0.04418625 -0.12421603 0.11735718 -0.084276564
0.0082299 0.07315119 -0.15366025 0.0099466415 -0.15358654 -0.021608556 -0.003457747 -0.0145319775

Conv1.kern f4 [3, 3, 3, 24]
00000000: 8380 bcbc aa4a f0bd 03c3 6ebd beee ae3d
00000010: 0179 753d e06b 583c 0f57 00be 1d73 06bd
00000020: 8e3f 42bd 7f8f 9fbd fcc7 e33d 6565 18be
00000030: 521f f4bc 45cb c93b 9ba1 1cbd a117 17be
00000040: 5f9a dbbd ed12 6e3e fd68 e7bc 735e 7cbd
00000050: 2004 73bd 9187 1ebd d24a 61bd b0c9 5e3d
00000060: bac0 4b3e e5cf 0cbe c9fe a63e b8ab be3e
00000070: d532 de3d d004 843d a5cb bbbd 9438 6f3d
00000080: fa7e d3bd 7f73 983d f089 65be 76c6 26bd
00000090: ecd3 9f3e 1e3d 4ebd 80cf 523c eaa9 443d
000000a0: 08a7 fabd 3298 ebbd 4e8d a9bc 03eb ae3e
000000b0: f499 203e 3a23 a93d 1c34 0fbe b5c7 f33d
000000c0: f431 463e 2c7f 733e de39 5d3e 3522 d33e
000000d0: d064 1bbc 41df 983e 1785 b03d 1e15 5c3d
000000e0: 2ddd 9abd 44ed 703e d394 16bd d066 abbd
000000f0: 7070 463e 8c07 b03d bef3 2abd 2030 8fbe
00000100: 6feb 93bc 5ffd 393b 4b21 7bbe 105f 48be
00000110: 6cc7 47be 4228 803e 9f1d f4bd aa57 4e3d
00000120: ef82 12be 5408 0bbc 49f7 22be 71c6 0cbd
00000130: ebd2 17ba 3a59 d9bd e3b5 8c3d 8df5 debd
00000140: edd9 3e3d 8db8 55bd 66a9 4939 e827 efbd
00000150: 34b9 e8bd 4b6c 0a3e 1605 7abd 6f3e 003e
00000160: b5fa 043e 2dd3 fb3d df28 cb3c 4a1c 0abc
00000170: e3a9 6f3d d088 483d 27eb 8ebb b16b 16be
00000180: a6a3 d13e 3bff 9cbd b8a5 273e ff7c 1cbd
00000190: 296c d83d adb2 393e 3c3f 10be bb63 913c
000001a0: ce2a 15bd 5ad3 a6be dc80 79bd 4bec 01bd
000001b0: 697d 653e 4317 aa3a 1fbc 09be 9935 d6bb
000001c0: a985 d83d 4494 42bd 66cf 41bd ad34 b63d
000001d0: cfb9 003e 08ab 14bd ba29 55be a860 973e
000001e0: 0554 783e 1989 a03d fce4 2e3e 998f ff3e
000001f0: 0f6c adbb 77cf 853c 8990 d4bd f6d7 3a3d
00000200: 91f8 c2bd e621 7a3d 9cd7 643b c1af e8bc
00000210: b91a 123e bfa5 613e f7f2 b2bd f393 99be
00000220: 5edf b63d 00ca 12be 1f32 dcbc d727 ce3d
00000230: 9091 53be 8382 9f3d 4082 13bc 0ab9 573d
00000240: f388 203e 1b84 4a3c 030f 613c dcdf 803c
00000250: da15 4f3e aacd 483d 7988 1dbe 873a 0f3b
00000260: 2cdf 8f3b 95e2 f03d 4cec 313d a3e0 9bbd
00000270: 36a6 ff38 4783 613d e374 e8bd e91b e63b
00000280: 7bf2 7f3d 1448 aebd d729 943d ac0a 17bd
00000290: 197b 03be dd10 a7bd 1c3e b7bc 5403 d73c
000002a0: 593f 763e f882 c3bd fd17 943d 2ef3 04bd
000002b0: ad4a 5d3e ee65 52bd 98ae 41be 37e8 2c3a
000002c0: de15 0ebd ec92 84be ec59 903d b534 efbd
000002d0: 451e 5a3e f637 40bd 8f3b 25bd e5e7 cfbd
000002e0: 4fc0 26be d16b c3bb c30a 32be a685 3d3e
000002f0: 6ab6 903e 4403 103e 9e5a acbe 48b2 113e
00000300: fea4 5b3e 9e59 383e edda 203c 6ed1 6e3e
00000310: d010 bc3d 249c 863e 369c a9bd 54be 283e
00000320: 37b9 3ebc f1d5 4a3e c5a2 1fbe 0cf2 293d
00000330: 4159 8a3d d834 d43d 99bb a7bd 9e0c 2abe
00000340: 6530 e7bb cedd 05be 2878 80be 0082 c63d
00000350: 34b0 7cbc 6944 b5bd f133 82be a233 663d
00000360: 3ac4 bc3d 597c ecbc 28a2 5bbc e6fb bcbd
00000370: a5f4 eabd a2f3 663d 2913 00bd 553b 0b3e
00000380: fc2a 493e d33e b33d fb24 343d bc4e 9bbd
00000390: b2a4 f6bc 790a 0b3e 7525 f73c 3cce 8ebc
000003a0: ee4b 67bd 2d26 bc3d 26cf eabd b63f d6bd
000003b0: 8a42 953c deda dcbd 70dc 8abd f618 d43c
000003c0: e4b2 5e3e 584a a9bd d94e 843e 7060 6f3e
000003d0: 1110 943e a627 0d3e 57bf 56be 3c88 5abd
000003e0: 8877 a63c 66df 2bbd daad 68be 5db8 b4bd
000003f0: 02da 783e a3f0 0abe 490a 98be 59cd b4bd
-0.023010498 -0.11732991 -0.058291446 0.0854163 0.05992985 0.013209313 -0.1253321 -0.032824624
-0.04742389 -0.077910416 0.11122128 -0.14882429 -0.029800091 0.006158265 -0.038240056 -0.14755107
-0.10722803 0.23249407 -0.028248305 -0.06161351 -0.059330106 -0.038703505 -0.055002995 0.054391563
0.19897738 -0.1375118 0.3261626 0.37240386 0.10849539 0.064462304 -0.091697015 0.058403566
-0.10326953 0.07443904 -0.224159 -0.04071661 0.3121637 -0.050351255 0.012866855 0.048013605
-0.1223889 -0.11503638 -0.020697262 0.34163675 0.15683728 0.08258672 -0.13984722 0.119033255
0.19354993 0.23778981 0.21604106 0.41237035 -0.009484485 0.2985783 0.08619135 0.053731076
-0.07561717 0.2352801 -0.036763024 -0.08369219 0.19378829 0.085951895 -0.041736357 -0.27966404
-0.0180566 0.002837978 -0.24524419 -0.19567513 -0.19509667 0.25030714 -0.11919712 0.05037657
-0.1430776 -0.008485872 -0.15914644 -0.034368936 -0.0005791622 -0.10612722 0.0687063 -0.10886679
0.04659455 -0.052177954 0.0001923196 -0.116775334 -0.1136345 0.13517873 -0.061040007 0.12523817
0.12986262 0.12296138 0.024799762 -0.008429596 0.058511626 0.0489586 -0.0043615284 -0.14689519
0.40945166 -0.07665869 0.1637181 -0.038205143 0.10567505 0.18134566 -0.14086622 0.01774775
-0.036417775 -0.32583123 -0.060913906 -0.031719487 0.22411121 0.0012976903 -0.13450669 -0.006537151
0.10572369 -0.04750468 -0.04731693 0.08896766 0.1257088 -0.03629592 -0.20816699 0.2956593
0.24250801 0.07838649 0.17079538 0.49914244 -0.0052924226 0.016334279 -0.103791304 0.045616113
-0.095200665 0.061067484 0.0034918552 -0.028404118 0.14268006 0.22035883 -0.08737748 -0.2999569
0.08929323 -0.1433487 -0.026879368 0.100661926 -0.20660996 0.07788565 -0.009003222 0.0526667
0.15677242 0.012360598 0.013736489 0.015731744 0.2022318 0.04902426 -0.15384091 0.0021854953
0.004390618 0.11761967 0.04343824 -0.076112054 0.00012190307 0.055056836 -0.11350419 0.00702237
0.062487107 -0.085098416 0.07234543 -0.036875412 -0.12839927 -0.08157513 -0.022368483 0.026246704
0.24047603 -0.09546465 0.07231138 -0.032458477 0.21610518 -0.05136674 -0.18914258 0.0006595882
-0.034688823 -0.25893342 0.07048401 -0.11679975 0.2130061 -0.04692837 -0.040340003 -0.10151652
-0.16284297 -0.0059637805 -0.17386918 0.18508014 0.2826417 0.14063746 -0.33662885 0.14228165
0.21449658 0.18002936 0.009817821 0.23322079 0.09182894 0.26291 -0.08281748 0.16478854
-0.011640838 0.19808175 -0.15589435 0.0414906 0.06755305 0.10361642 -0.08190078 -0.16606376
-0.0070553296 -0.13072893 -0.25091672 0.09692764 -0.0154228695 -0.08850939 -0.25430253 0.056201585
0.09217115 -0.028867887 -0.01340536 -0.09227733 -0.114724435 0.05638469 -0.031268273 0.13596852
0.19645303 0.08752217 0.04398058 -0.07583377 -0.03010783 0.13578214 0.030169228 -0.017432325
-0.056468897 0.09186969 -0.11465292 -0.10461371 0.018220205 -0.10783933 -0.06780326 0.025890809
0.21747929 -0.08266133 0.25841406 0.23376632 0.28918508 0.13784656 -0.20971428 -0.05335258
0.020320669 -0.041961096 -0.22722569 -0.08824227 0.24301913 -0.13568358 -0.29695347 -0.088282295

Conv6.bias f4 [100]
00000000: 86bb cabc 6c81 183e 8359 3bbd a02c 0cbc
00000010: 874d a13d 57c1 08bd 2d1a ee3d 5b91 953d
00000020: e046 723d a01d 8ebc 10ee 6abc 1cf5 15bd
00000030: 1a46 9b3d ce5d 26bd a81e e5ba 4cef 77bc
00000040: ba44 84bc b4d4 ca3d cfe5 55bc 22c2 bb3d
00000050: 83b3 9b3d f396 d7bc f835 fa3d 6ecd d1bc
00000060: 368f ac3d 9474 0c3b 70b5 9f3d 0ee4 533b
00000070: 7b78 0d3e 589b d6bb 5bb2 c5bc 6581 8e3d
00000080: 3354 2bbd 19c9 73bc 4635 093e 568a 1bbd
00000090: 4056 9d3c ff1e 00bd a20f a43d 1de6 953d
000000a0: fdc3 27bd d64d 0fbc b58e 973d 6f71 04bd
000000b0: 136e b33d 545a b93d 4341 e8bc 73cb 06bd
000000c0: ae05 cebb a785 02bd 4d43 a9bc 6cdb eebc
000000d0: 1973 7b3d 531a c9bc 1311 4abd 12ed da3d
000000e0: b467 d0bc 6b2a abbc abcb a63d 4e39 953d
000000f0: 0838 afbc 8499 903c 6da8 e0bc fad5 d33d
00000100: b943 f03d 4dd3 c2bc e8a9 f43d 87fc a73d
00000110: 8271 39bd 9e45 c53d fad7 d13d a4a0 d03c
00000120: e6bd f1bc c1fb e2bc ae55 8d3d a0fb b83d
00000130: e785 88bc 0811 45bd eaf1 bd3d bb25 433c
00000140: 9d17 cc3d 47c1 ce3d e0e0 d83b a531 d23d
00000150: 0aa2 16bd c01e fabb dc0b 1ebc 0032 8e3d
00000160: f639 a7bc 1340 c23d 3cd8 7a3b e235 18bd
00000170: 9685 b5bc e36f c33d 8887 b13d fde1 813d
00000180: df62 1ebd b14e db3d 9e78 b13d 94b1 c93d
-0.024747621 0.1489312 -0.045739662 -0.008555561 0.07876115 -0.03338751 0.116260864 0.07303115
0.059149623 -0.01734811 -0.014338985 -0.036610708 0.0758173 -0.040616803 -0.001748045 -0.015132736
-0.016146053 0.09903851 -0.013055279 0.09167887 0.076025985 -0.026317095 0.12217325 -0.025610652
0.08425753 0.002143179 0.07798278 0.0032331976 0.13815491 -0.00654928 -0.024132898 0.06958274
-0.041828346 -0.014879488 0.13399228 -0.037973724 0.019206166 -0.03127956 0.08010794 0.07319281
-0.040958393 -0.008746585 0.07400266 -0.03233474 0.08761229 0.09050432 -0.028351432 -0.032908868
-0.006287298 -0.031865742 -0.020661974 -0.029157363 0.061389063 -0.024548685 -0.04933269 0.10689749
-0.025440075 -0.02089425 0.08144315 0.072863206 -0.021389022 0.017651327 -0.027424062 0.10343547
0.11731667 -0.023782397 0.119464695 0.08202463 -0.045274265 0.09632419 0.102462724 0.025467224
-0.029509496 -0.027707936 0.06901108 0.09032369 -0.016665412 -0.048111945 0.09274657 0.011910851
0.099654414 0.100954585 0.006618604 0.10263375 -0.036775626 -0.00763306 -0.009646382 0.069431305
-0.02041338 0.094848774 0.0038275858 -0.03716076 -0.022158425 0.09542825 0.08668429 0.06341932
-0.03866851 0.107083686 0.08665584 0.098483235

Conv5.bias f4 [128]
00000000: ee87 f2bb cbea dabc 98c7 adbd d9d7 aa3d
00000010: 4e53 e23c 12f9 523d 3695 8d3d 5597 703d
00000020: a52d 04bc a5d0 763d 9782 a43d ac5a 8a3d
00000030: 9b61 b73d 8905 a93d 4717 afbc 8c1a cdbb
00000040: 75e4 a33d 18ac 15bd 4d6b d6bc 35b4 94bc
00000050: a2bc 093d e26e a93b 937c 72bc 7abe 10bd
00000060: f35e 95bc fdba 4f3c c511 f9bc 561a 2ebd
00000070: bebc a33d 4121 3b3d 0a23 ebbc 6e1b fdba
00000080: d884 cbbc 3dc4 c1bc 66b9 903d 3c10 b03d
00000090: ff58 a1bc a99f c83d f6a8 c23d f91f 05bd
000000a0: 0136 27bd da31 753d 81be 8c3d aa98 09bd
000000b0: 2399 1dbd 0e19 b5bc ed5e f5ba 0455 d9ba
000000c0: 6813 99bc 6abc 17bd 5356 89bc 4eb8 7bbc
000000d0: 67b9 b3bc c3bb 993d 637b 48bc 3801 a7bb
000000e0: 3a12 b7bc ee8d 34bd 4f8c 903d 0355 1d3d
000000f0: f883 04bd 3100 b93d 7783 423d 10ff 733c
00000100: 35b9 813d 79d4 a63d c2ad 24bc fc85 bdbc
00000110: f3c7 44bd 88c7 5d3d ea8c b13d 36dc 9d3d
00000120: 312b 8bbc 0db1 0c3d 0ba3 1cbd 727d 1fbd
00000130: dbdf 673d d3c2 1abd 6b67 4fbd dc66 bcbc
00000140: 4048 cebc dd50 883d 79f7 3ebd 1b75 193d
00000150: d143 d0bc e7a4 463d f596 8b3d 95c1 9e3d
00000160: 1d75 3bbd df2b b03a 19c3 ad3d d24e b3bb
00000170: e21a 1b3d aacf 263d c39e c73d d6c9 753d
00000180: e0d3 823d cdee 7c3d f552 72bc 0964 1d3d
00000190: 0390 913d 00d7 903d 403e 523d 2827 9c3d
000001a0: a8fc 823d 34ad c0bc 7166 a73b 3552 aabc
000001b0: f57c 9ab9 0429 5e3d d9c2 1ebd 931b 913d
000001c0: 7121 8d3d 51d3 423d 2781 95bd 9648 493d
000001d0: b360 01bd 71d6 0e3d 4659 e8bc 7904 653c
000001e0: f250 633d 05b9 1bbd 2846 fdbc 7aa1 ccbc
000001f0: a0a1 ccbc f27b 6ebd d945 07bd f291 b8bc
-0.007401458 -0.026723286 -0.08485335 0.08341951 0.027627613 0.051507063 0.06913225 0.05873807
-0.008067523 0.060257573 0.080327205 0.067555755 0.08954164 0.08253009 -0.021373404 -0.006259268
0.08002559 -0.036541075 -0.026174212 -0.018152336 0.03362716 0.005170689 -0.014800209 -0.035337903
-0.018233752 0.012678859 -0.030403981 -0.042505585 0.07994984 0.04568601 -0.028703231 -0.0019310543
-0.024843618 -0.023653144 0.07066612 0.085968465 -0.019695757 0.09796078 0.09504883 -0.032501195
-0.040822987 0.059861995 0.06872273 -0.033592857 -0.03847612 -0.022106674 -0.0018720307 -0.0016581123
-0.018686011 -0.03704492 -0.016764795 -0.015363766 -0.021938993 0.07506516 -0.012236449 -0.005096581
-0.022347558 -0.044080667 0.07058012 0.03841115 -0.032352418 0.0903324 0.047488656 0.014892355
0.063341536 0.08145995 -0.010051193 -0.023135178 -0.04804225 0.054145366 0.08669455 0.077080175
-0.016988369 0.034348536 -0.038241427 -0.038937993 0.05660997 -0.037783455 -0.050635736 -0.022998266
-0.025180936 0.066560484 -0.046622727 0.037465196 -0.025422962 0.048497107 0.06815902 0.077517666
-0.045765985 0.0013440809 0.084844775 -0.0054720426 0.037867434 0.040725388 0.09747078 0.06000694
0.06388068 0.061751176 -0.014790286 0.03842548 0.07107546 0.07072258 0.051328897 0.07624656
0.063958466 -0.02352009 0.0051086475 -0.020791152 -0.0002946627 0.054238334 -0.03876004 0.070853375
0.06891144 0.04756481 -0.073000245 0.04914149 -0.03158636 0.034872476 -0.028362881 0.013978117
0.055497117 -0.038018245 -0.030917242 -0.024979342 -0.024979413 -0.058223672 -0.033025596 -0.02253053

Conv2.bias f4 [36]
00000000: 7b28 0c3c 9e1d dbbc f6d2 09bd a94f a0bc
00000010: fc67 eebc a743 a8bc d7ef 1dbd c21d 49bd
00000020: a7fb 7e3d 19db aebb 7c92 d13c 5eed b2bc
00000030: 56c9 1cbd 0536 1e3c d3dc 53bc f5fe 64bc
00000040: bf80 0b3d 4f01 2a3d 2a08 1bbd 5677 0b3d
00000050: f253 683a f521 08bd 7d0e a63c 36e8 aebc
00000060: 9ff7 663a f974 31bc 7374 143c 279e d73c
00000070: bb18 eabc 8eea 9fbc 9eca 4c3c 4f90 70bd
00000080: 3e38 18bd 9194 00bb 7261 0bbd 4527 f2bb
0.008554573 -0.026747521 -0.033648454 -0.019569235 -0.029102318 -0.020540072 -0.038558807 -0.049100645
0.062251713 -0.005336177 0.025582545 -0.021841701 -0.038277946 0.009656434 -0.012931067 -0.013976802
0.03405833 0.041505154 -0.037849583 0.034049354 0.00088626065 -0.03323551 0.02027058 -0.021350961
0.0008810702 -0.010831111 0.009060967 0.02632053 -0.028576246 -0.019521024 0.01249948 -0.058731373
-0.03716301 -0.0019619802 -0.034028478 -0.007389935

Conv3.bias f4 [48]
00000000: e83d 743c 314b e13c 1689 2e3c b0df f5bb
00000010: 3020 b03c 0c32 edbb c59f b8bb 220f 48bc
00000020: 7209 ec3c 5a8f bd3c 61f8 15bc 163e 43bd
00000030: 8d66 513d 7930 58bc 7d7c c2bb b4f4 c0bc
00000040: b16c fd3c 370c 04bd fd1c dfbb 4731 093c
00000050: a6d0 393d 7bc6 a53c 1025 11bc 45df 83bc
00000060: 6586 65bc aed5 07bd 7b4e 11bb 09f9 2bbd
00000070: 9a5a a33c ec49 43bc 6df9 4d3b 74e4 a03d
00000080: 7790 afbc 8593 69bc e834 8cbc db02 dabc
00000090: 8e79 0dbb 5fc0 ccbc 87af 7dbc f77d 3bbd
000000a0: e1ab 79ba f082 f13b 5a67 fc3c c15d 2c3d
000000b0: 5e5b cd3c 5abc e0bb 01a9 703b b01f 5c3c
0.014907338 0.027501674 0.010652801 -0.0075034723 0.021499723 -0.007238632 -0.0056342804 -0.012210639
0.028813098 0.023139644 -0.009153456 -0.04766663 0.05112319 -0.0131951505 -0.0059352503 -0.023554184
0.030935617 -0.03223821 -0.0068088756 0.008373565 0.045365 0.020236244 -0.008858934 -0.016097674
-0.014009093 -0.033162765 -0.0022172022 -0.041985545 0.019940663 -0.01191948 0.0031429187 0.07856074
-0.02143119 -0.014256363 -0.017115071 -0.02661269 -0.0021587345 -0.024994073 -0.0154837435 -0.045774426
-0.0009524208 0.0073703453 0.030811 0.0420816 0.025067981 -0.0068583908 0.0036721828 0.013435289

Conv2.kern f4 [3, 3, 24, 36]
00000000: e918 b73d 6d4c 11bc d3d0 513e 19f5 963d
00000010: 548e 3e3e 39ec 0ebd ff96 263e 4147 b3bc
00000020: 89ce cabd d618 653d 957a 853d 879e 033d
00000030: 1c82 9b3c cefb afbd 7a3f 3a3e a6b8 5dbc
00000040: 5e71 d1bd ca26 dbbd 0f18 89bd 7a91 fcbc
00000050: 805e a5bc c378 c9bc fd7e 97bb 42ed 463d
00000060: a5a1 ac3d 1fc0 23bd 3899 d8bd 1841 1b3e
00000070: 41d6 bb3c f9fd dd3b afd1 113e 0463 293d
00000080: 3119 d93d fe46 37bd ea68 b0bd a9bd a33d
00000090: d698 073e 7d86 47be e052 d8bc bf1d 423e
000000a0: 3566 13be 12b0 b9bd 70e4 4ebe 16f3 14bd
000000b0: 2548 49bd 0883 2cbd 9fd3 0e3e fb74 2abd
000000c0: d401 71bd e851 3fbe 2aaf 48bd c803 cb3d
000000d0: 88ee c7bc 16b8 ecbd 1543 a2bd 09c2 0f3e
000000e0: 5d1c 18be 19a1 5f3d 5aaa 0abc 1b07 623c
000000f0: 85c6 5f3e a4e1 003e c81a 553d a777 0e3d
00000100: b4c7 ecbd 216b 95bd f568 193b 33ab 28be
00000110: 2ebd ffbc d428 cf3d 553c c03c 0d48 273d
00000120: 89b8 5abc 111b c33d e06f 283e 73b2 d63d
00000130: f076 6a3d 6230 08bd e18f 993d b330 29be
00000140: a3a4 c53c 8cda 9b3d e57f 3bbe 299f 263e
00000150: fc19 ef3d a37b 2b3e 29b7 af3d 06d9 1b3d
00000160: 1eb3 81bc 9a89 65be f2c3 b83c 5005 56bd
00000170: b3b0 7ebd 6b14 df3c b985 26be 30e5 2e3d
00000180: b91b 92be 6d48 8e3d 777e d1bd 03ce a53d
00000190: ca73 743e 2497 143e 2f91 b6bd fd8e a03d
000001a0: 2fac 993e f68c f3bd 3279 ff3d 03bb 1f3d
000001b0: 4cc4 65bd 035c f23c feb6 d23d f38a 83bd
000001c0: eec2 813e 7689 193e 7edf 4c3c 5d0a 04be
000001d0: f6ab 79be d7c7 7fbc 7df5 b03d 36f6 e43d
000001e0: 14d7 4a3e 41d7 8a3e 5f02 a03d b408 97be
000001f0: 6a52 e7bc 4386 fe3c 1560 b53d 945b 583d
00000200: fd3f 11be 3e16 ee3d baf3 09be 61d8 0bbe
00000210: 114e 31be 5c8c 1d3e 819b 1bbc 1de0 193e
00000220: 43a0 373e 4649 683e ba55 8c3e bbf0 da3d
00000230: 4839 163e ae77 6fbe 5a80 2d3e 789d 44bd
00000240: f42c 6abd 5d51 c1bc a45c 17bb 7f7d 8ebe
00000250: a0a5 99bd adab 9b3d 8cc8 d3bd 044e a03d
00000260: 130c d7bd 7019 96bd 978a f73c 2369 d0bd
00000270: 64a8 a1bd efac b8bd 4408 60bc daa1 b3bd
00000280: 9ed8 113d f4bd eabd 72f4 a8bd 25cc 07be
00000290: dd60 133e e5fc 443e 7160 bcbc 41e5 09bd
000002a0: b741 74bd c827 8f3d ecf1 ccbd 87b7 32bd
000002b0: 2f6d 263e da69 87bd ad71 853a d78a 473e
000002c0: 32f8 2a3e e3d9 8d3c dbc4 26bd 2d2f 2a3e
000002d0: 225e debd d229 eabb 4b4f 1a3e dacf 3bbd
000002e0: cefd 493c 4262 cd3d 5c45 bdbd 9eb1 b23d
000002f0: c4ac fd3c f262 14be 6a5f a9bd f15a d9bc
00000300: eff6 d33d 7cf2 19bd 25b7 983d c943 88bd
00000310: a93e cc3d 806b ab3c 769c 9fbc e14d 293c
00000320: 3f90 02bd 5912 a7bd 0c13 acbc 563b fbbb
00000330: 3a9d 0a3e 8eab 28bd e7ad 193e e2e9 ac3d
00000340: 7d39 303d 6210 adbd 7046 e53c 39d1 96bd
00000350: 1550 c23d 72ef cc3b bab7 40bd 9d57 7cbd
00000360: 9481 fdbd 4e01 c53c 973f 803c 3ef1 873d
00000370: 662d d6bd d800 0abe ed28 d9bc 0dbe 73bd
00000380: 94bc 58be 6bd1 0ebe f45a ddbd bf94 ac3c
00000390: abe2 c4bd cf65 fabd 2f4f 8a3d 4f26 dcbd
000003a0: 06b5 12bd 3961 8abd 7d8a 283e d987 0fbe
000003b0: f2e9 fa3c c4b5 3e3d 515d 1ebe 4ecd a53d
000003c0: 3150 32be 6b35 b13d 1006 a2bd 33ef af3b
000003d0: d3f3 17be b41b a33b 2e0f 1bbb d24b 28bd
000003e0: 4c18 60bd 9e77 63bd a023 753d c676 ac3c
000003f0: 8655 a43c 5fbf e0bd 3330 cbbd 9b5a 083e
0.08940298 -0.008868319 0.20489816 0.073709674 0.18608981 -0.03489325 0.16268538 -0.021884562
-0.09902675 0.05593189 0.06517521 0.032133605 0.01898294 -0.0859295 0.18188277 -0.013532793
-0.10226701 -0.10700758 -0.06694042 -0.030831087 -0.020186663 -0.024593716 -0.0046232925 0.04856611
0.08429269 -0.039978143 -0.10576099 0.1516155 0.022929313 0.0067746607 0.14240144 0.041354194
0.10600508 -0.044745438 -0.08613761 0.07995159 0.13241896 -0.19484897 -0.026406705 0.1895666
-0.14394458 -0.09066786 -0.2020433 -0.036364637 -0.049141068 -0.04211715 0.13947915 -0.041615468
-0.058839634 -0.18683589 -0.048995174 0.099128306 -0.024405733 -0.11558549 -0.07922951 0.14038862
-0.1485457 0.054596994 -0.008463467 0.013795639 0.21853073 0.12586075 0.052027494 0.034782078
-0.11561528 -0.07295824 0.0023408507 -0.16471557 -0.031218138 0.10115209 0.023466269 0.040840197
-0.013349661 0.09526647 0.16448927 0.10483255 0.057242334 -0.033249266 0.07498146 -0.16522484
0.024126356 0.07610044 -0.18310507 0.16271652 0.11674878 0.16746382 0.08579857 0.038048767
-0.01583248 -0.22415772 0.022554372 -0.05225116 -0.062180232 0.027231416 -0.16261949 0.04269904
-0.28536776 0.06947408 -0.102291994 0.08095934 0.23872295 0.1451078 -0.0891441 0.07839773
0.30014178 -0.118921205 0.12474288 0.038996708 -0.056095406 0.02958489 0.10288809 -0.06422987
0.25344032 0.14993843 0.012504457 -0.12894578 -0.24382004 -0.01561161 0.08640573 0.111797735
0.19808608 0.2711735 0.07812952 -0.29498827 -0.02823754 0.03106988 0.08856217 0.05282171
-0.14184566 0.11625336 -0.1347188 -0.13656761 -0.17314936 0.15385574 -0.009497524 0.15026899
0.17932229 0.22684202 0.27409154 0.10690447 0.14670289 -0.23385498 0.16943493 -0.048001736
-0.057171777 -0.023598367 -0.002309599 -0.2783012 -0.075022936 0.07601104 -0.10340986 0.0782738
-0.1050035 -0.073290706 0.030217452 -0.10176303 -0.07893446 -0.090173595 -0.013673846 -0.08771105
0.035606973 -0.11462012 -0.08249749 -0.13261469 0.14392419 0.19237097 -0.022995206 -0.0336659
-0.059632983 0.069900095 -0.100070804 -0.043632057 0.16252588 -0.066119865 0.0010180973 0.19486557
0.16696241 0.01731581 -0.04071508 0.16619559 -0.10857798 -0.0071460987 0.1506931 -0.04585252
0.012328578 0.10028507 -0.09241745 0.08725284 0.03096617 -0.1449087 -0.08270152 -0.026532622
0.10349833 -0.037584767 0.07456807 -0.06653554 0.09972889 0.020925283 -0.019483786 0.010333509
-0.031875845 -0.081577964 -0.021005176 -0.0076669855 0.1353654 -0.041179232 0.15007745 0.08443047
0.043023575 -0.084503904 0.027987689 -0.07364125 0.09487931 0.00625413 -0.047050215 -0.061606992
-0.12378231 0.024048474 0.015655322 0.0663781 -0.10457878 -0.13476884 -0.026508773 -0.05950742
-0.21165687 -0.13947074 -0.108083636 0.021067021 -0.09613546 -0.1222645 0.06753384 -0.10749494
-0.03581717 -0.06756825 0.16459079 -0.14016666 0.030629132 0.046560064 -0.15465285 0.080957994
-0.17413403 0.08652767 -0.079113126 0.005369091 -0.14839105 0.0049776677 -0.002366017 -0.041087933
-0.05471067 -0.055533998 0.059848428 0.02105273 0.020060312 -0.10974001 -0.09921303 0.13315813

Conv4.kern f4 [3, 3, 48, 64]
00000000: aab8 d6bc 493e 67bd 7a41 d3bd 2ad2 15bd
00000010: ca23 47be 8a89 b13d ea1e f5bd 9935 1fbe
00000020: ca57 ffbc cb9d cbbd a707 873d e538 0cbe
00000030: 7540 53be ec44 5f3d 9fa8 9bbd 8ef0 403e
00000040: adf0 e83b ad5d 61bb db0c ebbd fd25 a73d
00000050: 8714 e23d bd48 2fbe 33fc 8bbe 0a5c 613d
00000060: 65d3 753e 3ed5 06be 29f2 5a3d e8cf 3cbe
00000070: 16d8 833d 020e d6bc 2431 2a3d c66a eebd
00000080: 8e9f de3d 5889 65bd 8ae1 7ab8 6d11 883e
00000090: 3a01 b6bc 7e83 47bd 913c 59bc 063a e03d
000000a0: df56 ec3d d753 a2bd 4c62 1c3d 5f27 19bc
000000b0: baa8 473e 35e9 553d da75 473d 1176 a2bd
000000c0: 9988 9e3d 5587 31be ae3c 493b 918b 763d
000000d0: 5cc5 14be 1128 59be 7ffe ce3d 5dbb 523d
000000e0: c10a e23d d2e6 ba3d 6a17 b9bd f122 4a3d
000000f0: d080 06bd 91bd c93d 2bfe 0cbe dc87 6fbe
00000100: 1ee5 043d db3c 2abd 87a8 d6bc 2231 363e
00000110: deb0 2abe f718 cd3a 9a77 0d3c b53b 7abd
00000120: a799 853d ce57 1abd c274 80bc c3f1 3abd
00000130: ec2d 813d c010 0c3d b03d e93c b59b 50bd
00000140: f4b4 46bd 79b5 8fbc 3c59 cebd b992 36bb
00000150: a315 0ebd 9a71 813d 07ab 38be 32fa 2cbe
00000160: f28a da3d 9230 383c d2ac 2abe 7b9f 09bd
00000170: dcdc d73c e3da 4a3d 863f 323d 530e 0fbe
00000180: 9bd6 a63d 9f08 abbd 395f a03d 5c4f 94ba
00000190: 3467 b439 4bfd 923d 55ca f4bc d43f ccbd
000001a0: 5060 0a3e 6e73 78bd 0307 3c3a 85a7 4c3d
000001b0: fb0c 823e 0119 243e 4945 4cbd a473 063c
000001c0: da27 933d 8a1f f03d cb2b 233e cb7f 1bbe
000001d0: ee0c c13d d52c 3ebe 1f38 db3d dced a73c
000001e0: 806d a5bb 0990 063e 21f0 153e 2a95 fabd
000001f0: a613 abbc 7b5a f23d db50 06be 769c a1bd
00000200: 67c5 9bbd 4b9b 3f3c 3ae6 373e 3fd7 17be
00000210: 05ac 803d 5ddf 34be a39b 243d 85e8 8cbd
00000220: 12a1 b63d 62bb 80bd c344 193d 2619 bcbd
00000230: a9da 173e 5d2c b03c 0a8a 3e3e 4d85 923c
00000240: 61dc 13be a2a9 84bd a564 0ebe 65e4 d5bc
00000250: 70f6 5dbd 1b4f 02ba 657f 233e 1d0a 06be
00000260: 94ff 683e 3cfd f23d 5979 f53d 65d8 513d
00000270: dae8 853d 0020 67bc c63e 85bd f643 e93d
00000280: 5a87 f43d 7e28 7ebb ccb7 6dbd 46b5 3bbc
00000290: f9e1 95bd 7b00 c93d 1e6a f23d bc56 553e
000002a0: f413 593e 1c02 00bd 61eb 67bd 4fdd 423d
000002b0: df57 05be e265 53be dc8c fcbc 3a94 b3bd
000002c0: b4a5 8b3d 21e8 a73c 3c85 4a3e d4e4 abbd
000002d0: 048b 9cbc d927 1b3e 0758 31be c4cc b23d
000002e0: f99f 293e f354 08be 38e3 03be 338b 81bd
000002f0: e70b 2f3d 7ad6 7b3d cfdc d83c a2ba cd3b
00000300: 86fa 1abe 7079 b8bd b6b2 8fbd 2e19 6d3d
00000310: e210 2fbc f8ba ef3c 4eab 843d 68ec 073e
00000320: a105 7abd 446a 653e 99d0 b43d c86e 943d
00000330: 1bef 22be 1223 9abd 2030 d9bd 73b8 77bd
00000340: 4619 a2bd bb57 2ebd c088 813d bc30 0c3e
00000350: 9d00 8bbd 3905 953d d64e d1bd ef69 92bd
00000360: f0cd 36bd e259 45bd 14b5 c63d 9003 f23d
00000370: 089d a4bd 4cd1 963d 3041 693c 7331 6c3d
00000380: ec00 d0bd e027 89bc e01e fcbd 9202 613e
00000390: 9abd 223e f83b f1bb 3c5e a03d 4e0f 80bd
000003a0: fb61 c73d 2c49 febb 927e 053e 05a2 a4bd
000003b0: e70f 493e f742 3c3d 21f5 b8bc d4de 313d
000003c0: 8870 ee3d 7523 07bd 333a b4bd 2e1e babd
000003d0: df62 643d f00e 0dbe 0a25 533d a6dc c13c
000003e0: 1c6e e7bc b974 a0bd aed5 a0bd a9e6 b83c
000003f0: e91a 2ebd be22 003e c030 4fbe 89b4 c9bd
-0.026211102 -0.056455884 -0.10315223 -0.03657738 -0.19447246 0.086688116 -0.11968787 -0.1554779
-0.03116979 -0.09942206 0.065932564 -0.13693579 -0.20630057 0.05450909 -0.07600521 0.18841764
0.007108769 -0.003438811 -0.11477061 0.081615426 0.110390715 -0.17117591 -0.2734085 0.055019416
0.24006422 -0.13167283 0.0534536 -0.18438685 0.064376995 -0.026129726 0.04155077 -0.11641459
0.108702764 -0.056039184 -5.9814694e-05 0.26575795 -0.022217382 -0.048709385 -0.013259069 0.10948567
0.11540007 -0.079261474 0.03817968 -0.009347766 0.19497958 0.052224357 0.048696376 -0.07932676
0.07740898 -0.17336781 0.0030706334 0.060191695 -0.14528412 -0.2120669 0.10107135 0.051448215
0.110372074 0.09126057 -0.09037669 0.04934973 -0.03283769 0.0985061 -0.13768832 -0.2339167
0.032445066 -0.041561943 -0.026203407 0.1779218 -0.16669032 0.0015647699 0.008634472 -0.061092097
0.065234475 -0.037681393 -0.015680674 -0.04564072 0.06307587 0.03419566 0.028471798 -0.050929744
-0.048512414 -0.017542588 -0.10075614 -0.002785845 -0.034688603 0.06320496 -0.18033992 -0.16892317
0.10671033 0.011242049 -0.16667488 -0.033599358 0.026350431 0.049525153 0.043517612 -0.13970308
0.081464015 -0.08351254 0.07830662 -0.0011315155 0.00034409168 0.07177218 -0.029881636 -0.09973112
0.13513303 -0.060656957 0.00071726757 0.049964447 0.25400528 0.16025163 -0.049870763 0.008206282
0.071853355 0.117247656 0.15934674 -0.15185468 0.09426294 -0.1857179 0.107040636 0.020499162
-0.005048454 0.13140883 0.14642383 -0.12235482 -0.020883393 0.11833664 -0.13116781 -0.07891171
-0.07606011 0.01169474 0.17958918 -0.14828204 0.0628281 -0.17663331 0.04018749 -0.06880287
0.089174405 -0.062857404 0.037419092 -0.09184484 0.14829506 0.021505529 0.18607345 0.017885828
-0.14439537 -0.064776674 -0.1390558 -0.026109884 -0.0541901 -0.0004970894 0.15966566 -0.13089795
0.22753745 0.11864707 0.11986036 0.05123176 0.065385535 -0.0141067505 -0.06506114 0.11389916
0.11939879 -0.003878146 -0.05803661 -0.011456793 -0.073184915 0.09814545 0.118366465 0.20833868
0.21199018 -0.03125201 -0.05662096 0.047574338 -0.13021801 -0.20644334 -0.030828886 -0.08768506
0.06818715 0.02049643 0.19777387 -0.08393255 -0.019109257 0.1515192 -0.17318736 0.08730462
0.16564931 -0.13313656 -0.12879646 -0.06325378 0.04273596 0.061483838 0.026472477 0.006278352
-0.1513463 -0.09007537 -0.07016508 0.05788534 -0.0106851775 0.029263958 0.06477986 0.13273776
-0.061040524 0.22403818 0.08828849 0.07247692 -0.15911524 -0.075262204 -0.10604882 -0.06047864
-0.07914977 -0.042564135 0.06324911 0.13690466 -0.06787226 0.07276387 -0.10220115 -0.071491115
-0.04462999 -0.048181422 0.09702507 0.11817086 -0.08037764 0.07364139 0.014236733 0.057664346
-0.10156426 -0.016742647 -0.123105764 0.21973637 0.1589264 -0.007361885 0.07830474 -0.06252919
0.09735485 -0.0077601876 0.13036564 -0.08038715 0.19634973 0.0459623 -0.022577824 0.043425396
0.116425574 -0.0329928 -0.08800163 -0.090877876 0.055758353 -0.1377523 0.051548995 0.023664784
-0.028250746 -0.07834763 -0.07853256 0.022570925 -0.042506132 0.12513253 -0.2023344 -0.098488875

Conv5.kern f4 [3, 3, 64, 128]
00000000: f06c b4bd bfc1 65bc 6ae7 e6bd 200f 3ebc
00000010: 3ffc f73d 7296 37bd df3e e33d f4db d13c
00000020: 46ed 84bc bba3 223e 40aa 23bd c153 d83d
00000030: 3a2a ebbd 74aa e03d 0bd0 8abd 932f d8bc
00000040: e53d 8d3d 8b18 0f3d e5ed 1abe eb0d f9bd
00000050: 304c cf3c 78ff 883e 71dc fbbc 5730 5e3c
00000060: 5b57 f3bd c358 993d 363b 46be 7380 96bd
00000070: 0394 b93d 09f4 9d3d 3138 5ebe 1e69 32be
00000080: 285b 31be 75da 7dbd 0d9c 14bd dbf2 1c3e
00000090: d452 66be fddd a53d a4a1 df3d 42b6 50be
000000a0: ef30 5abc cc50 003d dec4 473c 0cc8 b0bd
000000b0: 68b6 aa3b 48de 65bd 3ffb 69bd d653 c93c
000000c0: e177 60bd 0088 023d 44df 6d3c 9306 993d
000000d0: 7d4b 21bd 77d7 c9bc 8b2c 213d b951 9a3d
000000e0: 9025 bcbd 7210 5ebe 4caa 913d 08f2 233d
000000f0: 476c d9bd 2e55 c73d 4e9c bc3d 838f 033e
00000100: 02f0 683e ab37 e73d 50d0 4f3d cb9d 16bc
00000110: 761a 76bd 684d 9c3d 89f7 3d3c 3906 bd3d
00000120: f3f6 d03c 4969 123d 3659 0abe 5c38 b6bb
00000130: 8969 723c 0af3 9abd a180 a9bd 2b34 c3bd
00000140: 8e8f b4bd 97cf b33c 669c 2abe d0a7 c53d
00000150: 5f18 a73c f04e ecbc 8614 b03d f15f 163d
00000160: 7832 d2bd 6d70 efbd 1d41 c5bd 4e90 b63d
00000170: 4e35 af3c b6c6 ecbd b732 5f3d e2fe 30be
00000180: b696 483d cfe2 c13b d7e1 43bd b44a 113d
00000190: 5988 b53d 1cfe f0bd bf69 a13d 845f 163e
000001a0: d38f cd3d f1b1 ee3a 531d 113e c94b 9bbc
000001b0: 2348 e5bd 947c 603e ef20 3cbe b7e9 663c
000001c0: 2897 173e 9120 e1bd 24f0 0cbe 6f9f 063e
000001d0: a3e1 05bb 82cb b03c d4d3 043d 8d4f a63d
000001e0: 8c73 073c b4b2 32bd 57a9 62be 69da 23be
000001f0: 9093 b9bd f093 bd3d 327a 35bd fe61 4138
00000200: d21d 3dbe 4fda 543c 352c 19bd 8639 c23b
00000210: 8818 3ebe 97b9 1e3d 8692 08bd 6f92 01be
00000220: ad3c 15bd 6326 b23d cc72 2abe e3a9 adbd
00000230: 3ec5 493b db1a 873d d784 23bd 6e10 fcbc
00000240: 4e17 98bc 3f92 fcbd 438e f4bd e7c8 953d
00000250: 9d08 5e3d 5d87 c2bd 7697 343d b5fa e03c
00000260: d230 2fbd ec99 ef3d 1697 073e 324c 39bd
00000270: 0dc1 3cbd ba42 bd3d 5785 bfbd 8e41 3abc
00000280: 91ab 4f3e bb2b e2bc 2b25 20ba 6a79 3f3d
00000290: 8b55 cb3b ccc9 a4bd a618 39be 3596 9d3d
000002a0: 2387 99ba 062d b33d d8c5 06bd ac23 083e
000002b0: 2ad0 973a 5fc2 213d 1321 983c efc8 83bd
000002c0: 504f 2ebe 3176 e03c 29ad 8d3c 5095 64bc
000002d0: 7e11 e33d c4b2 a9bd 4376 36be 55ed fb3d
000002e0: 28f4 003c 9426 27bd 0d08 f6bd acd7 143e
000002f0: 0ec3 f0bc 5a51 56bd a5b7 6fbe ab90 cb3d
00000300: 106d a23d 9bea 99bd 82bb 9d3c 4b7a fd3c
00000310: a773 4d3e 1485 1ebe 4f13 97bd 5a0e cfbd
00000320: e0f8 b3bc d40d 8dbb 7625 e23d c78d 95bd
00000330: 1294 003e 4055 a13d d83c 643d 8d35 ce3d
00000340: 488e d73c 61df cebc bb36 fe3d 8c76 99bd
00000350: 6408 a6bd 59cc a73d 08f2 5bbd 5067 39bd
00000360: 1e75 43bd 551c 403c 6fd0 023e 0b3a 0dbe
00000370: 9e6a be3c 73af 753d 9c01 dabd 3b90 f5bc
00000380: d704 0bbe f17d 25bd 2f44 efbc 3290 163c
00000390: 66b0 83bd 9a93 023e 65fd 75bd 6150 bf3d
000003a0: 2817 11bd 6c64 a63d 6cd1 debd 5027 f8bc
000003b0: 0e72 4d3d 4784 dcbc 504d 73bc 0709 19be
000003c0: eafa 0dbd a90e 113d af0e 9bbc 4d51 403c
000003d0: e029 d4bd 759f 073e 1732 843d d742 a13d
000003e0: 5bcc 5a3d 2e5a 97bd fc90 1cbe 3ac9 d33c
000003f0: 17c9 01bd c974 45bd 70ec ba3d 547b 8f3d
-0.08809841 -0.014023243 -0.112746075 -0.011600286 0.12108659 -0.04482121 0.11095976 0.025617577
-0.016226422 0.1588277 -0.039957285 0.1056285 -0.114826635 0.10970011 -0.06777962 -0.026389873
0.06896571 0.034935515 -0.15129812 -0.12160858 0.025304884 0.26757407 -0.030744763 0.01356133
-0.11881896 0.07487633 -0.19358525 -0.073487185 0.09061434 0.07712562 -0.21701123 -0.17422912
-0.1731993 -0.061975915 -0.036281634 0.15327017 -0.22492534 0.080989815 0.109195024 -0.20382026
-0.013317331 0.031327054 0.012192933 -0.08631906 0.005209733 -0.056120187 -0.057124373 0.024576109
-0.054801825 0.03186798 0.014518563 0.07471957 -0.03937863 -0.024638874 0.03934912 0.075351186
-0.09186852 -0.21685961 0.0711256 0.04002574 -0.106163554 0.097330436 0.092095 0.12847714
0.22747806 0.11289915 0.05073577 -0.009192894 -0.06008383 0.076319516 0.0115946615 0.092297025
0.02550838 0.03574494 -0.13510594 -0.005560918 0.014795669 -0.07565887 -0.08276487 -0.095314346
-0.088164434 0.021949572 -0.16661224 0.09651148 0.020397363 -0.028846234 0.085976645 0.03671259
-0.102635324 -0.116913654 -0.0963156 0.08914243 0.021387722 -0.115613386 0.054491725 -0.1728473
0.048971854 0.0059169303 -0.0478228 0.035471633 0.08863897 -0.117672175 0.078814976 0.14684874
0.10037198 0.001821099 0.14171343 -0.018957036 -0.111953996 0.21922523 -0.18371938 0.014093808
0.14803755 -0.1099254 -0.13763481 0.13146757 -0.002042868 0.021581415 0.032428578 0.08120642
0.008267295 -0.043627456 -0.2213491 -0.16001286 -0.090613484 0.092567325 -0.044305988 4.6106048e-05
-0.18468407 0.012991502 -0.037395675 0.0059272675 -0.18564045 0.03875121 -0.03334286 -0.12653516
-0.036434818 0.08698728 -0.16645354 -0.08479669 0.0030787732 0.06596919 -0.039921608 -0.030769553
-0.0185658 -0.12332582 -0.11941197 0.0731371 0.054207433 -0.09498475 0.044089757 0.027463296
-0.042771168 0.1169928 0.13241228 -0.04523868 -0.046082545 0.09241243 -0.093516044 -0.0113681685
0.20280291 -0.027608743 -0.0006109054 0.04674665 0.006205266 -0.08046302 -0.18075809 0.07694665
-0.0011713248 0.08748822 -0.032903522 0.13294858 0.0011582423 0.039492007 0.018570459 -0.064348094
-0.17022443 0.027400108 0.017294483 -0.0139516145 0.11087321 -0.0828605 -0.17818551 0.12301127
0.007870711 -0.040808275 -0.12013254 0.14535397 -0.029389884 -0.052323677 -0.23409899 0.099397026
0.07930958 -0.075154506 0.01925445 0.030942103 0.20063649 -0.15480453 -0.0737673 -0.10110159
-0.021969259 -0.004304627 0.11042301 -0.073024325 0.12556484 0.07877588 0.055722088 0.10068808
0.026312962 -0.025253 0.12412783 -0.07493314 -0.08107069 0.08193273 -0.053697616 -0.045264542
-0.047719114 0.011725505 0.12774824 -0.13791673 0.023244198 0.059981775 -0.10644838 -0.029976001
-0.13576065 -0.04040331 -0.029207317 0.009189652 -0.0643013 0.12751618 -0.06005611 0.09341503
-0.035422474 0.08124623 -0.10879788 -0.030292183 0.0501576 -0.026918544 -0.014849976 -0.1494485
-0.03466312 0.03541437 -0.0189279 0.011738134 -0.103595495 0.13244422 0.064548664 0.07874077
0.053417545 -0.07390247 -0.15289682 0.025852788 -0.031685915 -0.048207078 0.09127128 0.07005945

Conv7.kern f4 [1, 1, 100, 1]
00000000: 3f0a 803d e425 5ebe afdb 623d 3482 9dbd
00000010: 8c13 6abe 8835 dd3d b88f 0bbe 76e2 76be
00000020: d3cb 0fbe 6b4b 3f3d a34e 653e d93b c13d
00000030: 7b12 0cbe f93b 6e3e b8a8 0e3e 7732 6f3e
00000040: 0d84 353d 0dbc bcbd 0bd7 263e 94d3 1dbe
00000050: f609 23be efd9 a03d 5713 3fbe bc8a b53d
00000060: 4d86 0dbe 7844 62bd 9d8c f6bd 2b76 5a3e
00000070: bd1a 33be aec3 1a3e 166d 153e 0726 83be
00000080: cea3 e23c 7679 8f3e 7086 29be db63 823d
00000090: 0422 cabd 0a2f 823e 5d7e 5ebe 357c 07be
000000a0: 3d7f 943d 0c1c 433e b12d 1ebe 2f0d 4b3d
000000b0: 19b6 8dbe 2fcc 34be a6db 153e 315d 7e3e
000000c0: e310 b1bc c70a 6f3e 8a60 253e b7fe ca3d
000000d0: 19b3 a4bd bd29 cbbd 89a0 713d 9c05 66be
000000e0: c9ac 433e c29c ac3c 910d 6fbe d5ab 7cbe
000000f0: d45c 3c3d e75a 143e 1c6d 573e 443a d4bd
00000100: a808 3cbe cf74 6e3e 5a9e f3bd 4935 9cbd
00000110: 5d50 983c 27d0 afbd e26d 18be 9552 ccbd
00000120: 931d 593d 1dc1 893e 1f7f 39be 2c6f babd
00000130: 07c4 163e 920e 723e 1113 e6bd 74de 193e
00000140: 8cb6 3fbe 1f07 d6bd e20c 373e 5b4a 03be
00000150: 0576 aa3d 76df 1e3e 7615 253e 5ab0 1ebe
00000160: fa67 813d d8cf f3bd 38d4 213e 5342 573e
00000170: c9b7 463e ffd2 63be 7148 e6bd 652f 60be
00000180: bb7e 843d 7fc8 12be e2ff 40be b7e4 abbd
0.06251954 -0.21694142 0.055385288 -0.0769085 -0.22859019 0.10801226 -0.13629043 -0.24109825
-0.14042597 0.046702784 0.22393279 0.09435243 -0.13678925 0.23265065 0.13931549 0.23359095
0.044315387 -0.09215555 0.1629297 -0.15412742 -0.15921769 0.078540675 -0.18659721 0.08864352
-0.13820763 -0.05524108 -0.120385386 0.2133414 -0.17490669 0.15113708 0.14592394 -0.2561495
0.027665999 0.28022355 -0.1655519 0.06366702 -0.09869769 0.25426513 -0.21727891 -0.13230975
0.07250831 0.19053668 -0.15447117 0.04957312 -0.27677992 -0.17656015 0.1463457 0.24840237
-0.021614498 0.23343955 0.16150108 0.09911864 -0.08041973 -0.0992007 0.05899099 -0.22463077
0.19108881 0.021070842 -0.23345019 -0.24674924 0.045986965 0.14487801 0.21037716 -0.10362676
-0.18362677 0.23286746 -0.118954375 -0.07627351 0.018593008 -0.08584624 -0.14885667 -0.09976689
0.05300672 0.26905146 -0.18114899 -0.091032356 0.14723216 0.2363837 -0.112341054 0.15026265
-0.1872198 -0.10450577 0.17876008 -0.12821333 0.08323292 0.15514931 0.16121468 -0.1549696
0.0631866 -0.119048774 0.15803611 0.21021394 0.19406046 -0.22248457 -0.11244286 -0.2189308
0.064694844 -0.14334296 -0.18847612 -0.08393233

Conv1.bias f4 [24]
00000000: 204c 54bc c179 17bc aae3 03bc 7300 d1bc
00000010: 89a5 abbd 35da fcba b429 37bd 51b6 183c
00000020: c040 84bb 9ebd 833b 41e5 6ebd 7557 78bc
00000030: e81b 2cbb fc00 80bd 792e 21bd 8262 a83b
00000040: ea0d 2abd 6f7e bebc 15ae 453c d1c8 6dbc
00000050: eb43 b13a 4bad afbc 283d 1bbd c280 143c
-0.012957603 -0.009245337 -0.008049885 -0.02551291 -0.08381183 -0.0019291105 -0.044717506 0.009320811
-0.004036039 0.004020407 -0.058324102 -0.01515757 -0.002626175 -0.06250188 -0.03935096 0.005138696
-0.041517176 -0.023253648 0.01206543 -0.01451321 0.001352427 -0.021444937 -0.03790012 0.009063901

Conv4.bias f4 [64]
00000000: bb41 0e3d e652 f4bc affb 0d3d b356 093d
00000010: 5880 d53c 3a74 323d 7d3c 963c 7d02 3b3d
00000020: 2979 fcbc 4df4 163d 26fb 1bbc 0687 4dbc
00000030: 749c 5a3d 827c 7abb e5b0 323d 3efa 8fbb
00000040: e940 083d efcb c33d d4b8 333d 6fc1 513b
00000050: 9d4a dc3b 635d 193d c76f f0bc 4746 07ba
00000060: 8fb2 29bc ee1e eb3c ceff b23b 61cf cc3c
00000070: a416 1f3a 354e a23c ff71 37bc 192d b1bc
00000080: 9635 003b f0a6 f8bc f35b bd3d 4295 c5bc
00000090: cecd f5bb a10c 2dbd dea5 18ba 4c18 143d
000000a0: 75e5 033c 48e7 753d a0aa 3d3d 5a08 a7bc
000000b0: 27e4 4cbc 53a2 dc3c 6593 2abc 78c6 cdbb
000000c0: 165d a3bc d79e 773d 028f 36bd 0714 ccbc
000000d0: 1d31 ca3c cd49 4ebc 4e74 abbc 79a5 3239
000000e0: 5d5c 763d e68b a8bc e5b5 8c3b e1ea 27bd
000000f0: f127 33bd 58e1 80bc c657 06bd fe70 413d
0.034730654 -0.029824685 0.034663852 0.03352995 0.026062176 0.043567874 0.01833939 0.04565667
-0.030819492 0.036854077 -0.009520328 -0.012544399 0.05337186 -0.0038221185 0.04362573 -0.004393845
0.03326503 0.095603816 0.043877438 0.0032006165 0.006722762 0.037442576 -0.029350175 -0.00051603134
-0.010357513 0.028701272 0.005462623 0.02500123 0.00060687424 0.019812683 -0.011196612 -0.02162795
0.001956319 -0.03035304 0.092460535 -0.024119023 -0.0075013405 -0.042248372 -0.0005823056 0.036155984
0.008050312 0.06003502 0.0463053 -0.020389725 -0.012505568 0.026932871 -0.010411118 -0.006279763
-0.019941848 0.060454216 -0.044569977 -0.024911894 0.024681622 -0.012590838 -0.020929482 0.00017037046
0.06014668 -0.020574521 0.0042941445 -0.040995482 -0.043739263 -0.015732452 -0.03279855 0.0472269

Conv3.kern f4 [3, 3, 36, 48]
00000000: 61ac 253e cfd4 3fbe ad73 0dbc a9aa b7bd
00000010: 32b2 dfbc 1d17 36bc a405 65bd 4bee 4dbc
00000020: a8b6 e73d d78d d1bd 7703 883d 7bf6 203d
00000030: eac0 e43d 2fc0 6dbd e215 eebd 8b10 61bd
00000040: 222b febd 1d15 103d 7d84 173d dd99 703d
00000050: 359b d43c 271c f4bd d47c 9b3c 0510 c03c
00000060: 641a 50be b95a 9dbd 5652 0cbe d24f d53b
00000070: 3da8 30be 428e c13c 6f6e 64bc 5de2 dc3d
00000080: 9176 38bd 02c4 1bbe a39e f1bc 8c18 eb3d
00000090: 2f05 9a3d 73be 90bd 02cc a03b 8e12 f43d
000000a0: 3ef9 0b3d 902f 763c 652c cf3d ba87 cd3c
000000b0: c007 1cbe 5030 f9bd d62f 4cbd b0f3 a83d
000000c0: 25d7 a1bb b351 b7bc ccb0 1c3e 1e23 143e
000000d0: d810 07bd 3a11 11bc c2ce 133e 9bda ee3d
000000e0: 6254 133e ea5d 51bd e4d9 db3d b561 873d
000000f0: 6a0f 033d ff15 223e 0bc8 d8bc eb17 78bd
00000100: 6a1f 34be 60e5 bdbd dfd3 1b3c 2af4 173d
00000110: eb7a f3bd 7f34 0bbe 37b0 203d fbbc 1abd
00000120: 0e13 243e b448 cb3d bc31 3b3e d4f1 ce3d
00000130: ec4a 06bc 3cfe e0bd 2bc0 cfbb bc64 fbbc
00000140: c16e a03d 1de6 80bd bd66 003e 3c89 be3c
00000150: 850f af3d 81ce 43bc 79eb 193e a5eb 8dbb
00000160: bdc2 c13c 05ce 80bd 223e ddbd 765f 143d
00000170: 8a87 1bbe fd33 ebbb b1b6 debd a939 013d
00000180: 285d e0bc 723a 223b c905 1f3c 9f19 36bb
00000190: 8482 05be 2d59 7dbd da29 61bc f60e a13d
000001a0: bfaf bbbd 6642 18be c8c8 7e3c 4f66 393e
000001b0: 21f7 13be 2b20 81bd 072c 13be c3fb 643d
000001c0: 2cd2 5bbd 3c82 54bd 2f99 dfbd 1c5d 713d
000001d0: 75cc 9b3c c7d0 0b3d b779 ffbd 5e8a 25bd
000001e0: 8224 2d3e c378 2e3c 7c8c 61bd 7148 403e
000001f0: 0783 0c3d 20f2 04bc 7201 78bd bf5a e23c
00000200: afc7 0abd 1dda 6cbd 913f 173e 5921 6abd
00000210: fb93 bcbd bf99 ef3d e5ff 72bc 3ed5 ed3d
00000220: f046 0fbc c6a7 b6bd 502f 8bbd 7e12 85b9
00000230: 34f2 1abd c936 18be 7a63 bcbc 7dd4 1ebd
00000240: ec5e ec3d 41cf 173d 8fb3 433d 7015 a83c
00000250: f62f d6bd 47d8 d43c 79e8 ca3d bee8 84bd
00000260: 3b11 d6bb a37c bcbd c456 d73d 0c20 ecbd
00000270: eb8f 2ebe 1def bcbd d999 d0bd 0681 57bd
00000280: f1ac cbbc ecfc b93d aa98 233e 1dcb 09bd
00000290: d5f4 08be cfc0 b5bc 4118 9ebd 831e 093e
000002a0: 4e95 903c e120 833d 53d9 20be 8b33 c0bd
000002b0: 2e52 c6bc b705 1cbe 2816 c53b 9134 283d
000002c0: 3d87 2abe 4a29 0cbd 5b4f 4c3d a73f a8bd
000002d0: 2deb cdbd bb42 3cbe 8cfc 1f3c e616 8bbd
000002e0: 14ba 653d ba93 9e3d 361d 15be 13ba 34bd
000002f0: eafd f73d b2b0 ddbc 07fc 1abd 7659 28be
00000300: 1f29 96bd 7931 dd3c 5404 1c3e 6ff7 aa3d
00000310: 0725 9d3d f4d5 1ebd 5ac6 9dbc bfab 01bd
00000320: d619 15be ae65 e83d d7d7 ff3d 3298 17bd
00000330: 8c80 84bd e93d d6bb b0d1 4f3e a773 973d
00000340: 93a1 7cbd 80e0 15be 0643 883d 4c42 24bd
00000350: 4e5f 02be bafb fbbd 9727 82bd 9d25 38be
00000360: 4231 063e 708c 51bc 31a6 433d abe0 723e
00000370: a514 a53d c5f5 8b3d a724 9ebc 2192 65be
00000380: 7703 24be 5079 ab3d b47b 543d 1121 5ebd
00000390: eefc 263d 9c01 663e dde3 29be 1976 43bc
000003a0: 6564 85bc 7f4a da3d 7033 04be eb75 a13d
000003b0: feae 5d3d 513a 45bd 10dd f33c 8c56 073a
000003c0: 7fad 853e 6542 31bb 123c 353e 2b64 163e
000003d0: fd65 0cbe 6001 b2bc 2a72 413e a784 0d3e
000003e0: 9b05 ccbc a68c fd3d 4ea2 ea3d 75ac a8bd
000003f0: 8b85 433d cb89 d23d 4473 79bc 610e f1bd
0.16179039 -0.18733524 -0.008633536 -0.08968098 -0.02730665 -0.011113909 -0.055913582 -0.0125690205
0.11314136 -0.10232132 0.06641286 0.039297562 0.11169608 -0.05804461 -0.116252676 -0.054947417
-0.12410571 0.035176385 0.036991585 0.058740485 0.025952915 -0.11919432 0.018980421 0.023445139
-0.20322567 -0.076833196 -0.13703284 0.0065097595 -0.17251678 0.023627404 -0.013942345 0.10785363
-0.04503495 -0.1521149 -0.02949459 0.11479291 0.0752052 -0.07067575 0.004907132 0.119176015
0.034173243 0.015025988 0.101158895 0.025089134 -0.15237331 -0.12167418 -0.049850307 0.08249605
-0.0049389773 -0.022377824 0.15301818 0.14466521 -0.032975048 -0.008854205 0.1443434 0.116627894
0.14387658 -0.051114954 0.10734919 0.06610433 0.031997122 0.15828703 -0.026462575 -0.060569685
-0.17590109 -0.092722654 0.009510963 0.037098087 -0.11888679 -0.13594244 0.03923055 -0.037777882
0.16022894 0.099259764 0.18280691 0.10104719 -0.008196574 -0.10985991 -0.006340047 -0.030687682
0.07833625 -0.062938906 0.12539192 0.023258798 0.08547882 -0.01195109 0.15031232 -0.0043310695
0.023652429 -0.06289295 -0.108028665 0.03622385 -0.15188423 -0.0071778283 -0.10874689 0.03154913
-0.02738817 0.0024754074 0.009705969 -0.0027786267 -0.13038069 -0.061852623 -0.013742888 0.07864182
-0.0916438 -0.14869079 0.0155508 0.18105434 -0.14449741 -0.06304964 -0.14372264 0.05590416
-0.053667232 -0.051882014 -0.10917889 0.058926687 0.019018391 0.034134652 -0.12474387 -0.04041516
0.16908458 0.010648909 -0.055065617 0.18777634 0.034304645 -0.008114368 -0.060548253 0.027631162
-0.03388184 -0.057825197 0.14770342 -0.05716071 -0.092079125 0.116992466 -0.014831518 0.11612938
-0.00874494 -0.08918719 -0.067961335 -0.00025381515 -0.03782864 -0.14864649 -0.022996653 -0.038776863
0.115415424 0.037062887 0.047778662 0.020518035 -0.104583666 0.025982035 0.09907622 -0.064897045
-0.0065328158 -0.0920346 0.10514596 -0.1152955 -0.17047088 -0.09225295 -0.10185594 -0.05261328
-0.024862738 0.09081444 0.15976205 -0.03364097 -0.13374646 -0.022186665 -0.0771947 0.13390546
0.017649319 0.064027555 -0.15707903 -0.09384831 -0.024209108 -0.15236555 0.006014604 0.041065756
-0.16653152 -0.034219064 0.049880367 -0.08215266 -0.10054622 -0.1838483 0.009764802 -0.06791477
0.05608566 0.0774302 -0.14561924 -0.044122767 0.12108977 -0.027061794 -0.03783801 -0.16440377
-0.07332062 0.02700113 0.15236026 0.083479755 0.07673078 -0.03877826 -0.01925962 -0.03165793
-0.14560637 0.11347519 0.1249234 -0.03701038 -0.06469831 -0.006538142 0.20294833 0.07395106
-0.061677527 -0.14636421 0.06653409 -0.040102288 -0.12731668 -0.123038724 -0.063552074 -0.17983098
0.13104728 -0.012789831 0.047765914 0.23718517 0.08060578 0.06833986 -0.019304587 -0.22419025
-0.16016947 0.08372748 0.051875785 -0.054230753 0.040768556 0.22461551 -0.16590829 -0.011930012
-0.016283223 0.1065874 -0.12910247 0.07883819 0.054121964 -0.048151318 0.029768497 0.0005162738
0.2610893 -0.002704763 0.17698696 0.14686649 -0.1371078 -0.021729171 0.18891206 0.13820134
-0.024905017 0.12380342 0.114567384 -0.082360186 0.04773478 0.10280188 -0.015225235 -0.11770321
