model.npz (npz, 557226 bytes, 13 tensors)

Conv7.kern f4 [1, 1, 100, 1]
000000 b6 bf fa 3d 69 a7 b7 bb ca e9 89 3c 9b 6f 3e be
       0.12243597 -0.0056046736 0.016835112 -0.18597262
000010 26 4d 61 be f3 0f 00 3d d1 77 f4 bd c6 ad 23 be
       -0.22002086 0.03126521 -0.11936916 -0.15984258
000020 07 ff 18 be dd ec a9 3d 0c 36 6e 3e 95 af f0 3d
       -0.14941035 0.08297131 0.23262805 0.117522396
000030 8d 80 0c be df e0 81 3e cc 60 ec 3d a2 d7 80 3e
       -0.13720913 0.25366876 0.115419 0.25164515
000040 d3 af 2d 3d 6c 8f cd bd cf 78 84 3d 58 1d 5e be
       0.042404007 -0.10037121 0.06468355 -0.21690881
000050 a7 ea 1b be 71 7b fd 3d 61 66 7f be c9 b6 bb 3d
       -0.15226232 0.1237706 -0.24941398 0.09165723
000060 aa 3e d9 bd 66 26 d3 bc ba b4 c5 bd 73 9e 7a 3e
       -0.10607655 -0.025775146 -0.096536115 0.24474506
000070 1a 80 41 bd 50 fb 24 3e 76 62 2a 3e ef 5c 82 be
       -0.047241308 0.16111493 0.16639122 -0.25461528
000080 9b b8 f3 3a 80 b0 2d 3e 29 4a 0a be af 7f 3d 3e
       0.0018594445 0.1696186 -0.13504852 0.18505739
000090 b0 f2 2d be 53 1e 98 3e f4 21 4b be 5e fc 2d be
       -0.16987109 0.29710636 -0.19837171 -0.16990802
0000a0 77 d4 55 3d 33 b5 5c 3e bb f4 00 be 61 2b 92 3d
       0.052204575 0.21553497 -0.12593357 0.0713718
0000b0 09 ba a5 be 44 3a 72 be b2 c9 2f 3e d0 21 1e 3e
       -0.32368496 -0.23655039 0.17166784 0.15442586
0000c0 72 8e a1 bd be 69 85 3d 01 27 38 3e e9 cc d3 3d
       -0.078884974 0.06514309 0.17983629 0.10341818
0000d0 b3 0f d7 bd d9 c7 e9 bd 78 5b a4 3d 97 02 30 be
       -0.10501041 -0.11415071 0.08025259 -0.17188488
0000e0 1a 13 31 3e 98 a8 ef 3c 8d 16 6f be 6e a1 7a be
       0.17292443 0.029255196 -0.23348446 -0.24475643
0000f0 6b a8 b1 3d c4 7b a0 3c 9c 37 83 3e 07 29 e9 bd
       0.08674701 0.019590266 0.25628364 -0.113847785
000100 22 c7 f1 bd 6f 1a 37 3e b1 e8 d2 bd 0a e9 70 bd
       -0.1180556 0.17881177 -0.102982886 -0.058815993
000110 f1 09 81 3d 89 57 c9 bd b1 a2 0f bd 15 3e 29 be
       0.06300724 -0.09831149 -0.035067264 -0.16527589
000120 fd 5e eb 3d ef bb 89 3e 4e 62 de bd cd 11 c9 bc
       0.11492727 0.26901194 -0.10858594 -0.02454462
000130 96 c1 03 3e 9b 0c 19 3e 60 cb f9 bd a9 ff 68 3e
       0.12866816 0.14946215 -0.12196994 0.22753777
000140 d9 36 3b be a1 ce 0f be 71 c8 22 3e 12 15 f3 bd
       -0.18282641 -0.14043666 0.15896775 -0.11869253
000150 23 fa 0a 3e 37 c7 16 3e ec 33 17 3e 0d 25 33 be
       0.13571982 0.14724432 0.147659 -0.17494603
000160 2e 47 e3 3d 6a d7 0e be 38 19 f7 3d 5b 9b 6d 3e
       0.11097561 -0.13949361 0.12065357 0.23203795
000170 86 b9 61 3e 5f 0d 53 be 45 9d f7 bd 7a b8 51 be
       0.22043428 -0.2061057 -0.12090544 -0.20480528
000180 ba a4 14 3e 9e cc 5f be 7d be 4d be f3 1c 80 bd
       0.14515963 -0.21855399 -0.20092197 -0.062555216

Conv1.bias f4 [24]
000000 0e 3f 11 bd aa 08 89 bc 91 b0 06 bc 5f 87 1b bc
       -0.035460524 -0.016727764 -0.008220808 -0.009492724
000010 ec 14 2a bd 04 70 27 3c 57 dc 4e bd b5 47 2d 3c
       -0.04152386 0.010219578 -0.0505031 0.010576178
000020 01 2b 6d bb c0 e8 7d 3c 4e 18 36 bd 17 25 94 bc
       -0.0036188962 0.015497386 -0.044456773 -0.018084092
000030 43 83 b0 bc 67 9b 1a 3d 35 f9 0d bd 67 52 b1 3b
       -0.021546965 0.03774586 -0.03466149 0.0054114345
000040 9b 5c 27 3c d7 09 0a bc b7 e5 1b 3c bc cc 08 bd
       0.01021495 -0.008425198 0.0095152175 -0.033398375
000050 1e da 0f bd 4d 91 1d bd 81 9a 4a bc 8f d5 7f bc
       -0.035120122 -0.038468648 -0.012365938 -0.015614881

Conv6.kern f4 [1, 1, 128, 100]
000000 90 9c 54 bd 25 6e c1 bd 57 ed db ba a9 8e 98 bd
       -0.051907122 -0.094448365 -0.0016779107 -0.07449085
000010 45 29 38 bc bc 08 d7 3d 00 7d 88 3d be e1 d9 3c
       -0.011240308 0.10499713 0.06664467 0.0265969
000020 01 20 09 3e fc 42 2f 3e eb 7a 7d bd 25 fd 29 bd
       0.13391115 0.17115396 -0.0618848 -0.041501183
000030 49 43 f5 3d 7e b6 0b 3e d1 59 07 3e 62 26 95 bd
       0.11975724 0.13643834 0.13217856 -0.072827116
000040 3e 1f 23 3e d1 56 af bd 36 59 ac 3d 24 9e d8 bd
       0.15929887 -0.08561481 0.08415453 -0.10577038
000050 60 e8 75 3d 3e ca ab 3d d8 2b 16 bd 29 0d fc 3c
       0.060036063 0.08388184 -0.036662906 0.030767994
000060 10 c6 6c 3c 2c 51 c0 bd ad 00 be 3c a1 e2 f4 bd
       0.014451519 -0.09390482 0.023193682 -0.119572885
000070 74 4b 80 3d 55 89 85 3d 86 20 e6 bd 6b aa 00 be
       0.062643915 0.06520335 -0.11236672 -0.1256501
000080 77 bc 1f be 03 cd fb 3c b0 e5 c2 bd 26 63 a8 bd
       -0.15599237 0.030737406 -0.09516466 -0.08222036
000090 73 77 b9 3a 73 cb 43 3d d1 89 28 bd 82 1f 86 3d
       0.0014149979 0.047801446 -0.041147057 0.065489784
0000a0 d8 36 9c bd bf f1 f1 bd 7f dd c5 bd be 47 0f 3c
       -0.07627648 -0.118136875 -0.09661388 0.008745132
0000b0 2b 99 6c bd 9e 3b fd bd d7 98 19 bd 8c 37 26 3d
       -0.05776326 -0.12364887 -0.037499275 0.040580317
0000c0 41 79 ea ba b4 0d 46 be dc 1b 50 3d 2a 54 45 bd
       -0.001788892 -0.19341165 0.05080782 -0.04817597
0000d0 fd 9b 96 bd 04 54 16 bd e0 43 ad bc fd 70 cd bb
       -0.07353971 -0.036701217 -0.02115053 -0.006269573
0000e0 d3 10 17 bd a4 cc 45 3e be fe 8d bd b5 cc ac bb
       -0.03688128 0.19316345 -0.06933354 -0.0052734264
0000f0 b1 16 03 3e df 93 a3 bd 10 92 18 bd a6 72 57 3c
       0.12801625 -0.079871885 -0.03724867 0.013149893
000100 96 a7 24 3e 4b e3 28 bc 21 a1 ef bc ea fe a4 3c
       0.16079554 -0.010308097 -0.029251637 0.020141084
000110 d3 b2 2a be 94 8d 24 be e8 2e 60 bd 0b 8b 6a bd
       -0.16669779 -0.16069633 -0.054732233 -0.057261508
000120 f0 55 45 3d 64 da ab 3d 7f 5f e6 3d 5f 55 c9 bd
       0.04817766 0.08391264 0.11248683 -0.09830736
000130 ff e3 12 3e 64 0a 5f 3d 20 66 73 3c 23 bb c6 bc
       0.14344786 0.05445327 0.0148558915 -0.024259156
000140 9e e5 b1 bc 89 63 4d bd e6 ad 8d bb c4 d1 8a 3c
       -0.021715935 -0.050143752 -0.004323709 0.016945727
000150 86 da 32 3e 3d 73 da 3d d5 b4 05 bd ab 61 f9 bc
       0.17466173 0.10666511 -0.032643158 -0.03044208
000160 6e 07 1d 3d 03 f3 87 bc 90 5b 05 3d 62 f5 8d bd
       0.038337164 -0.01659537 0.032558024 -0.06931569
000170 49 19 20 3d 04 50 1d 3e 9a ea 30 bd cc 6a 2d bc
       0.039086614 0.15362555 -0.043192483 -0.010584544
000180 28 ca 20 3c 42 45 34 3d 2b 8d 99 3d 83 2d 9a 3b
       0.009813823 0.044011362 0.07497629 0.0047051325
000190 8c 62 47 3e 70 a8 16 be 0d 1a e5 3d b9 28 90 be
       0.19471186 -0.14712691 0.111866094 -0.2815607
0001a0 51 2b b2 be b3 f9 b2 3d 68 d0 37 be 40 f7 10 3d
       -0.34798673 0.087390326 -0.17950594 0.035392046
0001b0 7c 31 f6 bd 19 90 64 3e b1 cc 70 3e 0f 1f 4a 3e
       -0.12021157 0.22320594 0.23515584 0.1973841
0001c0 1c 9d df bd f8 b6 3f 3e bf d3 1c 3e 83 c8 a8 3e
       -0.10918638 0.18722141 0.1531515 0.32965478
0001d0 a0 02 db bd 25 2b 91 be 00 39 a0 3d 0b dc 1f be
       -0.1069386 -0.2835323 0.07823372 -0.15611283
0001e0 5c 5d e0 bd a4 8a 6d 3e 5e bc a4 bd 14 62 b8 3e
       -0.10955307 0.23197418 -0.08043741 0.36012328
0001f0 52 f0 c9 bd 8e fb 03 be ab ab 6a be 1a e0 32 3d
       -0.098602906 -0.12888929 -0.22917049 0.04367075
000200 2c e2 dd 3d 3d a5 53 3e 5a ab 86 3e 5d ff 59 be
       0.108341545 0.20668502 0.26302606 -0.2128882
000210 4e 0d 8d bb 2c 9b 53 bc 59 89 9d be f3 b2 6c 3e
       -0.0043045646 -0.012915414 -0.3076885 0.23115139
000220 3b 82 87 be 58 a0 33 3e 58 da 2a be 9a 0e 4c be
       -0.26466545 0.17541635 -0.16684854 -0.19927445
000230 a6 08 6f 3e 83 bd 87 3e 22 51 c4 be e0 75 d4 3d
       0.23343143 0.26511773 -0.3834315 0.10374045
000240 b9 f1 30 be 7e a9 d4 bd 0c 46 93 3c 86 4b 2b 3e
       -0.1727971 -0.103838906 0.017977737 0.16728029
000250 0d 8a 97 bc 8f 8b 36 be 10 b1 02 3d 05 54 44 3e
       -0.018498445 -0.17826675 0.03190714 0.19172676
000260 a0 78 e2 bd d9 f0 b3 39 e9 02 6b 3e e5 46 15 be
       -0.11058164 0.00034320986 0.22950329 -0.14577825
000270 c1 fd 57 3d b2 73 36 bd 77 3b bb be dc cc aa be
       0.052732233 -0.04454393 -0.36568806 -0.3335942
000280 01 02 15 3e 93 1a b6 bc 77 97 52 3e cf 32 df bd
       0.14551546 -0.022229468 0.20565592 -0.10898363
000290 ca 37 f3 bd 9f 9b 5e 3e ae e7 0a be b3 6d 60 be
       -0.11875875 0.21739052 -0.13564941 -0.21916847
0002a0 97 36 67 3e 8a aa 3b be a7 61 cf bd 4e cf 88 be
       0.22579418 -0.18326774 -0.101260476 -0.2672066
0002b0 82 f0 76 3e 57 ff cb 3e 2e 03 16 bd f9 9f 20 3c
       0.24115184 0.39843246 -0.036624126 0.009803765
0002c0 a3 2a 8b 3e df 7a 16 3d 85 cf 2b be 05 9a a2 3e
       0.27180967 0.036738273 -0.16778381 0.31758133
0002d0 fd 2c 28 bd 90 af ef bc 81 bf 54 3e 57 bc 99 be
       -0.04105853 -0.02925852 0.20776178 -0.30026504
0002e0 15 23 5b be 73 3f 15 3e 28 28 1a 3e d5 4a b7 bd
       -0.21400101 0.14574985 0.15054381 -0.0894982
0002f0 c8 f9 82 3d c3 f1 37 be a3 79 4d 3e 2c 8e 04 3e
       0.06395298 -0.17963319 0.20065932 0.1294486
000300 9e b3 26 3e de 44 ae bd de 5f 9b be 46 ad 71 be
       0.16279456 -0.08509229 -0.30346578 -0.23601255
000310 a1 3c 83 3e 22 9f 64 be 71 6d a2 be 2a 32 58 be
       0.25632194 -0.2232633 -0.31724122 -0.21112886
000320 fb dd aa bb 2e 44 d5 bc 3c e2 1b be cb d5 2e be
       -0.0052144504 -0.026033487 -0.1522302 -0.17073743
000330 98 6c e2 bd 26 e2 d4 bd 87 fc ea bd 8d b3 de bc
       -0.11055869 -0.10394697 -0.11473947 -0.027185226
000340 bb 4a f4 3d cd 9d 99 bd b4 5c 09 bd 5b f1 0d be
       0.11928316 -0.07500801 -0.033535674 -0.13861601
000350 63 e1 c6 3d 24 d5 f4 bb ba 10 10 bb 0b e6 e9 bd
       0.09710958 -0.0074716974 -0.0021982626 -0.1142083
000360 03 71 41 bc db 28 4e 3d c3 9d ef bc 8f ec e9 3c
       -0.011806729 0.05033193 -0.029250031 0.028555183
000370 8b a4 00 bd d8 e9 e5 bc b6 3e a8 bd 6a 55 14 3e
       -0.03140692 -0.028065607 -0.08215086 0.14485708
000380 97 7a b8 3d 47 f1 2e bd e1 1e a6 bc d9 1f 19 3e
       0.09007757 -0.04271057 -0.020278396 0.14953555
000390 57 07 a8 bc ad 97 d9 bc ae ec 93 bd 04 97 8c bd
       -0.020511312 -0.026561582 -0.072228774 -0.068647414
0003a0 62 58 a6 3c 5e fb a6 bd da f1 7c bd cb a3 be bd
       0.020305816 -0.08153413 -0.061754085 -0.09308585
0003b0 81 0a ed bd 72 9f b3 bb d6 bb 1d 3e f2 a3 95 3c
       -0.11574269 -0.005481654 0.15403685 0.018266652
0003c0 01 f1 9f bc ee 9e a3 3d 0a 6c b3 3d 8c b7 c2 3d
       -0.0195241 0.07989298 0.08760841 0.09507665
0003d0 8b 6d aa bc 30 f6 f6 bd ea 4c d2 3d b4 80 01 be
       -0.020804187 -0.12058675 0.102685764 -0.12646753
0003e0 1d a0 47 3d ed 13 3a 3e 34 89 38 be 2e 28 22 bc
       0.04873668 0.18171664 -0.18021089 -0.009897275
0003f0 8d 16 08 be b7 24 a4 bc 69 68 26 bd e3 d9 3d 3c
       -0.13289852 -0.020037038 -0.040626917 0.011587593

Conv1.kern f4 [3, 3, 3, 24]
000000 a8 a1 05 bc 53 81 e0 bd ce 35 5f bd ee 18 b8 3d
       -0.008156218 -0.10962167 -0.05449467 0.0898913
000010 0f 79 86 3d c7 28 58 3c 26 1f f8 bd 93 fe 20 bd
       0.06566059 0.013193316 -0.12115316 -0.03930528
000020 b3 63 22 bd 2c 8a b3 bd 71 e4 ed 3d 4e 6c 0d be
       -0.03964586 -0.087665886 0.11615837 -0.13810846
000030 30 f6 3c bd 1b fc a3 3c 2b fb 10 bd e5 e3 15 be
       -0.04613322 0.020017674 -0.035395782 -0.14637716
000040 3b a4 f6 bd c5 d0 78 3e 7c 88 e2 bc b6 03 95 bd
       -0.12043043 0.2429839 -0.027652971 -0.072760984
000050 bc 5e b6 bd d9 99 6e bd 89 20 3b bd a5 1d 5b 3d
       -0.08904788 -0.05825219 -0.045685325 0.053495068
000060 e1 47 a8 3d 3e 9b ba bd 33 19 bd 3e 07 dd e3 3e
       0.08216835 -0.09111641 0.36933288 0.44504568
000070 d5 5c 56 3e 64 11 02 3e 3b 00 86 bd 50 de f7 3d
       0.2093385 0.12701946 -0.06543013 0.121029496
000080 11 2e 82 be dc 2f 22 3e 62 a5 3c be e3 cf 02 3d
       -0.2542577 0.1583857 -0.18422464 0.031936537
000090 38 38 97 3e f8 cc 53 bd 2f 8c c2 3c 43 db 68 3c
       0.2953508 -0.051709145 0.023748485 0.014212432
0000a0 7d d1 c2 3d 89 14 27 be e1 43 8b bc 6c 92 03 3e
       0.09512613 -0.16316427 -0.01700014 0.12848824
0000b0 7c e5 5d 3e 5c 00 a4 bb a4 ac de bd e2 4a 3e 3e
       0.21669573 -0.0050049257 -0.10872772 0.18583253
0000c0 4e e4 2b 3e 43 b1 63 3e 39 81 5e 3e b2 62 ad 3e
       0.1678631 0.22235589 0.21728982 0.3386436
0000d0 b2 3e 2d bd 02 a6 96 3e 05 6c dd 3d 5d e1 c4 3d
       -0.04229612 0.2942353 0.10811619 0.09613297
0000e0 d6 8f 9b 3d f5 ab e4 3d 1e 12 b3 bd b1 d6 aa bd
       0.07595794 0.11165611 -0.0874369 -0.083417304
0000f0 fd a8 e6 3d cb 26 9a 3d 9e 3f 4f bc 7f b6 38 be
       0.11262701 0.075269304 -0.012649445 -0.18038367
000100 d7 97 0e 3e 2b f4 57 3d fd 61 86 be d8 2a 12 be
       0.1392511 0.05272309 -0.26246634 -0.14274156
000110 2f 98 56 be 2b 14 7f 3e b6 39 c4 bd 4d b9 f9 3c
       -0.20956491 0.24910037 -0.0958132 0.030483866
000120 3c 6c 08 be 62 5f 72 3a 9b fc 21 be 6b f6 38 bd
       -0.13322538 0.00092457805 -0.15819018 -0.045156877
000130 8e 36 d4 3b 55 90 df bd e7 37 96 3d ca ea e9 bd
       0.00647623 -0.10916201 0.07334881 -0.114217356
000140 1a f8 7b 3d aa 9b 5e bd 25 3b f3 39 fc a9 e3 bd
       0.061515905 -0.05434767 0.00046392638 -0.11116406
000150 1b 2b 00 be af 9c 03 3e f8 64 8e bd 45 1e e1 3d
       -0.12516443 0.12852739 -0.06952852 0.109921016
000160 ee 3e f0 3d 66 a5 f8 3d 02 f5 0d 3d d7 41 c6 bc
       0.11730753 0.12140922 0.034657486 -0.024201317
000170 fe 2d 09 3d 73 b2 c9 3c 60 4b 03 3c de 97 02 be
       0.033491127 0.024621224 0.008013576 -0.12753245
000180 ac 69 9a 3e ed 85 34 bd 16 9f 3d 3e f0 e8 36 bd
       0.30158746 -0.044073034 0.18517718 -0.04465574
000190 12 01 50 3e dc 09 6f 3e af 99 fb bd 78 72 a0 3d
       0.20312908 0.23343605 -0.12285172 0.07834333
0001a0 ff ad 46 be 6e 8a 46 be 0f b4 0b bb 1a 33 58 3d
       -0.19402312 -0.19388744 -0.002131704 0.05278311
0001b0 11 80 4b 3e 7c 87 39 bd 9d 29 12 be 84 6f 09 bd
       0.19873072 -0.045295224 -0.14273687 -0.033553615
0001c0 21 e7 b1 3e ef e0 dd bd 8c 17 5c bd 27 49 15 be
       0.3474665 -0.10833918 -0.053733394 -0.14578687
0001d0 60 b0 1b 3e 3f 86 ae bd ae 73 3b be d4 44 c0 3e
       0.15204 -0.08521699 -0.18305847 0.37552512
0001e0 fe a2 59 3e a6 05 70 3d 86 8f 3b 3e 36 8d d8 3e
       0.21253583 0.058599137 0.18316469 0.42295235
0001f0 27 16 3b bd 8c 7f df bb d0 34 bd bd fa 6f b5 3d
       -0.045675423 -0.0068206247 -0.09238589 0.088592485
000200 46 ea 1f 3d 99 b9 26 bd 2c 1c 72 bd 40 55 78 bc
       0.03904178 -0.040704343 -0.059108898 -0.015157044
000210 82 f7 a7 3d 2c b1 37 3e c2 1d 59 bd 1f 55 53 be
       0.08201505 0.1793868 -0.053006895 -0.2063794
000220 83 15 94 3e 61 61 c9 bd e2 a2 81 bd 65 8c 13 3e
       0.28922662 -0.09833027 -0.063298956 0.14409025
000230 1f 7c 5c be 84 16 8a 3d a6 d2 e4 3b f0 c5 20 3d
       -0.21531723 0.06742576 0.006983119 0.039251268
000240 e4 5d 22 3e 34 66 95 3c 93 04 ad 3c e9 53 8f ba
       0.15856129 0.01823721 0.021120345 -0.0010935041
000250 b7 01 52 3e a0 2c 2e 3d 55 21 1c be 1d ac 9a bb
       0.20508467 0.042523026 -0.1524709 -0.0047202245
000260 b1 90 1f 3d c8 d2 07 3e 7c 9a c4 3c 4d c5 a5 bd
       0.038956348 0.13264 0.023999445 -0.08094273
000270 20 e0 43 bc e0 cb 6c 3d df 20 09 be 0a f3 3e bc
       -0.011955291 0.057811618 -0.13391446 -0.011654625
000280 9a 08 49 3d ff 9c b9 bd bd 20 ba 3d 08 80 7b bd
       0.04908047 -0.09063148 0.090882756 -0.061401397
000290 e8 92 17 be ab 3e dd bd d9 e4 31 bc f8 ce 58 3d
       -0.14802134 -0.108029686 -0.010857784 0.052931756
0002a0 3a 43 16 3e 6a da 90 bd 2e 38 af 3d 79 4e 6a bd
       0.14674082 -0.07072909 0.08555637 -0.057203744
0002b0 54 75 98 3e 39 7c f3 3b dc d1 25 be 6f 36 84 3d
       0.29777014 0.00743058 -0.16193336 0.06455695
0002c0 67 26 46 be 37 df fb bd 3d 2a 23 3e c0 20 8a ba
       -0.19350587 -0.12298434 0.15934081 -0.0010538325
0002d0 5d db 3c 3e 16 5a 17 be 47 ac 4d bd 50 b2 f4 bd
       0.18443055 -0.14780459 -0.050213125 -0.11948073
0002e0 0c b9 8e 3d 6a 54 7e bd 7d 3d 3c be 6c ee ce bc
       0.06968889 -0.062092222 -0.18382831 -0.025260173
0002f0 8c 30 86 3e 5a 00 01 3e b9 60 9f be 99 4e 59 3e
       0.26208913 0.1259779 -0.3112848 0.21221389
000300 35 a5 46 3e 51 31 26 3e ad 5c a1 3c 7b 69 2b 3e
       0.19398959 0.1622975 0.019697512 0.16739456
000310 22 da 34 3d 24 64 75 3e 6c 2f 90 bd 6b 28 54 3e
       0.04415334 0.23963982 -0.07040295 0.20718543
000320 36 b2 c0 3d 46 e1 73 3d 27 ce 5d be a3 e2 6d 3d
       0.09408991 0.05954101 -0.21660672 0.058077466
000330 de 89 ea 3c 5c 23 2a 3d 67 59 25 bd 35 03 90 bd
       0.028630193 0.041537628 -0.040368464 -0.07031862
000340 a3 72 40 3e af ff c4 bd a5 5a 86 be f3 8b ed 3d
       0.1879373 -0.0961908 -0.2624103 0.11598959
000350 fb 04 8f bc 3f 26 ab bd e8 c6 7d be df a9 25 3d
       -0.01745843 -0.08356904 -0.24782908 0.040445205
000360 9a 53 d0 3d 10 a2 aa bc 96 ed 33 bc a6 1a 3f bd
       0.10172196 -0.02082923 -0.010981938 -0.046656273
000370 43 3b d0 bd 16 c7 85 3d 8d 23 12 bd 4c db 04 3e
       -0.10167553 0.06532113 -0.035678435 0.1297428
000380 90 a2 22 3e 5f 22 a7 3d 5f cf 62 3d 24 f3 a2 bd
       0.15882325 0.08160853 0.055373546 -0.07956532
000390 a4 31 2d bd 07 b5 d7 3d 9f 82 3c 3d 96 b4 a8 bc
       -0.04228367 0.10532575 0.046023007 -0.020593923
0003a0 2d 1c 4e bd 3f 73 de 3d 86 de f0 bd 20 71 b6 bd
       -0.05031984 0.10861825 -0.11761193 -0.08908296
0003b0 96 5e 4e 3b 92 67 e4 bd 16 21 46 bd be 8f 04 3c
       0.0031489483 -0.11152567 -0.048371397 0.008090911
0003c0 14 85 4b 3d 8a 05 a9 bc 7a 7b 8c 3e ab c2 7a 3e
       0.04968746 -0.020632524 0.27437955 0.24488322
0003d0 ba 33 bf 3e fb 4d 59 3e 77 12 35 be dc 6c 6a 3c
       0.37344152 0.21221153 -0.17682825 0.014308181
0003e0 9a 7d dd bd a3 24 56 3d 91 59 1d be 24 e5 a2 bd
       -0.10814972 0.052281033 -0.15366198 -0.07953861
0003f0 36 ac 31 3e 8b 96 a9 bd 9e 3e 90 be 70 44 f4 bd
       0.1735085 -0.08280667 -0.28172773 -0.11927116

Conv3.bias f4 [48]
000000 b6 79 49 3d d8 0c 24 3d e0 af 1c 3b f8 ce 68 bc
       0.04918834 0.04005131 0.002390854 -0.014209501
000010 30 8b 33 3d e9 aa c5 39 de 64 96 bb 7c c4 0a 3d
       0.04383391 0.00037702106 -0.004589661 0.03387879
000020 64 ed ab 3c 04 27 95 3b 27 1a f5 bb 8c 55 d4 bc
       0.02098722 0.00455177 -0.0074799242 -0.025919698
000030 75 70 02 3d 25 c7 92 b9 9e ac ce bc a2 6b 63 bc
       0.03184553 -0.00027995664 -0.025228795 -0.013880642
000040 20 fe 97 bc 36 10 01 bd 0b e1 16 bd e7 40 8c bc
       -0.018553793 -0.0315096 -0.03683571 -0.017120792
000050 55 ef 12 3d 31 e9 17 bd fe d2 8e bc 7a 5d b9 bd
       0.035872776 -0.037087623 -0.017434593 -0.09051032
000060 8e d4 ba bc 1f 0c 87 bb 4e be b9 3d d4 ec 77 bc
       -0.022806432 -0.004121318 0.09069501 -0.015132148
000070 6e 57 b5 3c 0e 23 a6 bc f0 50 a2 bc cc 29 1b 3c
       0.022136416 -0.020280387 -0.019813985 0.009470414
000080 6a 79 e8 3c a8 39 6d 3c b2 cb b7 3b 27 33 03 3d
       0.028378207 0.014479078 0.005608999 0.032031205
000090 a0 01 b3 3c 96 27 87 bc 87 b7 82 bc 63 a5 e9 bc
       0.02185136 -0.016498368 -0.015956653 -0.028521245
0000a0 98 f8 88 3c 16 4f b0 ba 67 9d e0 3c c6 7a 05 bd
       0.016720101 -0.0013451304 0.027418805 -0.03258779
0000b0 7a 5a 1e 3d 66 13 b8 3c 7a 03 f1 ba e4 a7 73 3c
       0.038660504 0.022470187 -0.0018387877 0.014871571

Conv2.bias f4 [36]
000000 23 b1 45 3c 4a 73 33 bd 4d 5d c1 bc be 06 6b 3c
       0.0120661585 -0.04381112 -0.02360406 0.014344869
000010 7b 8c ac bc f2 69 28 3d 95 bd a1 bc 93 d6 a9 bb
       -0.02106308 0.041116662 -0.01974372 -0.00518305
000020 cf 6d d7 3c 63 ca 85 bc 2b 9d e3 3c c5 85 36 bc
       0.026297478 -0.016331857 0.027784904 -0.011140292
000030 bc e4 fd 3c 78 06 7a 3d d0 ad c7 bc 9c 31 11 bd
       0.030992858 0.061041325 -0.024374872 -0.0354477
000040 64 53 32 3d 2f fa 1f bb 11 e6 8e bc 87 47 92 3c
       0.04353656 -0.0024410596 -0.017443689 0.017856373
000050 54 04 52 bc 47 c0 85 bc 4d 68 d8 3c 80 53 0c bd
       -0.012818415 -0.016327037 0.026416922 -0.03425932
000060 64 da 3b 3d 6d 4a f5 3c 2e 3b 1d bd a9 7c d3 bb
       0.04586257 0.029942716 -0.038386516 -0.0064540696
000070 dc 1a e6 bb d6 fc 67 bd cc 1d f2 bc 60 9c 24 3c
       -0.007022245 -0.056637608 -0.029555224 0.010047048
000080 b6 64 83 bc 58 3e 07 bd 8a 65 4e bc 7a 4e 04 3c
       -0.016039234 -0.03301844 -0.012597451 0.008075351

Conv2.kern f4 [3, 3, 24, 36]
000000 a0 02 9d 3d 08 62 6f bc 96 be 41 3e 51 f5 10 3d
       0.07666516 -0.014610775 0.18920359 0.035390202
000010 de f1 15 3e 54 30 31 bd 09 27 13 3e f4 f9 a8 bd
       0.14643046 -0.04325898 0.1437036 -0.082508
000020 92 20 f7 bd c5 ca b2 3c d4 df 7d 3d 14 c8 38 3d
       -0.12066759 0.021825204 0.061981037 0.045112684
000030 76 c7 f0 3c 84 41 2a bd fa 86 4f 3e cf e3 87 bd
       0.029391985 -0.041566387 0.20266333 -0.06635248
000040 53 66 1f be 14 7f f0 bd 0f fb 71 bd 9b 15 1b bd
       -0.15566377 -0.11742988 -0.05907732 -0.0378624
000050 b7 1b e8 bc f4 c4 82 bb c2 68 0e bd bd 38 90 3d
       -0.028333528 -0.003990764 -0.034767874 0.07042072
000060 a6 cd 78 3d 02 ca b3 bd 3c a2 01 be 41 1d e5 3d
       0.060742997 -0.08778764 -0.12659544 0.1118722
000070 e3 e3 dd 3c a5 29 a2 3d 26 7b c0 3d 73 29 92 3d
       0.027086204 0.07918099 0.09398489 0.07136812
000080 5d 6d cd 3d 31 3a f8 3c 45 7e d1 bd 40 15 c7 3d
       0.10030625 0.030301185 -0.10229162 0.0972085
000090 52 41 f1 3d 1f ad 2b be 4b 04 7e 3c 70 f4 c7 3d
       0.11780037 -0.16765259 0.015503953 0.0976342
0000a0 d1 2e dd bd a9 af 03 be 6d bb 42 be 5d f6 cf ba
       -0.10799945 -0.12859978 -0.1901681 -0.0015866269
0000b0 39 69 1b bd 36 87 71 bc b5 7c 01 3e 09 dd 40 3c
       -0.037942145 -0.014741709 0.12645228 0.011771449
0000c0 a5 96 30 bd 57 df 36 be 2a 95 15 bc 8d b5 8e 3d
       -0.043112416 -0.17858635 -0.009129802 0.06968222
0000d0 01 c1 fd bc 4c 40 23 be ae 50 b0 bd 12 46 29 3e
       -0.03097582 -0.15942496 -0.086091384 0.16530636
0000e0 11 64 99 bd 73 14 12 3c 04 02 1c 3b c7 da a3 3d
       -0.07489789 0.008916008 0.0023804912 0.08000713
0000f0 27 7c 43 3e 97 25 9e 3d 57 23 b8 3d d4 21 2e 3d
       0.19090329 0.077220134 0.089911155 0.04251273
000100 5e f2 13 be da 4f c9 bd fa cf 7a 3d 5b 25 57 be
       -0.14447924 -0.098296836 0.0612335 -0.21010344
000110 17 1f 2b bd 95 79 df bc f6 c3 d1 3d 4e d7 3c 3d
       -0.041777696 -0.027279655 0.10242455 0.046103768
000120 80 2f 0c 3e fd d1 28 3c e0 7c f9 3d 81 81 85 3d
       0.13689995 0.010303971 0.12182021 0.065188415
000130 ce 3a 07 3c 75 12 6c 3c e8 fd 6f bd 5c ad 27 be
       0.008253766 0.014408697 -0.058591753 -0.16374725
000140 0d 3b e5 3d f5 a9 85 bc 3f 95 ee bc 6b bd 6c 3e
       0.11192904 -0.016316393 -0.0291239 0.23119132
000150 2c cc 05 3d 24 5e bd bc 4e 1f 61 3d 42 87 09 3e
       0.032665417 -0.023116179 0.054961495 0.13430503
000160 96 44 ea 3d f0 48 0b be db 64 05 bd 8d 01 8b bd
       0.11438863 -0.13602042 -0.032566886 -0.06787405
000170 05 b1 c6 bd c2 b4 3a bd fd 19 a5 bd 33 16 ec 3d
       -0.097017325 -0.04558254 -0.080615975 0.11527672
000180 dd 33 b8 bd dd 77 5f 3c cf 63 e6 bd 44 f0 1a 3b
       -0.08994267 0.0136394175 -0.11249506 0.0023641745
000190 57 80 64 3e de a1 87 3e df 41 9c 3c d9 fd 4b 3e
       0.22314583 0.26490682 0.019074379 0.19921054
0001a0 7c 47 2d 3e 4c dd 03 be e2 7e d5 3d f4 5e 95 3d
       0.169218 -0.12877387 0.104245916 0.072935015
0001b0 67 09 af 3c c0 2b 3e be 56 12 86 bd 9d 7d 46 3d
       0.021366788 -0.18571377 -0.06546466 0.048459638
0001c0 4a 63 43 3e 5b 2b 97 3d c8 29 be bd 77 ab 5e bd
       0.19080845 0.07381316 -0.09285313 -0.05436274
0001d0 95 d9 dd 3c 81 4b 7f be 7e 08 e0 3b 4c 82 c6 bc
       0.02708129 -0.24931146 0.00683695 -0.024232052
0001e0 24 e6 5c be 89 40 38 bd 19 50 89 3b 6f 9e da bb
       -0.21572167 -0.04498342 0.0041904566 -0.006671719
0001f0 06 a2 d3 bd 1e cb ce 3e e2 e5 d4 3d 75 33 7c 3d
       -0.10333638 0.4038934 0.10395409 0.06157251
000200 8f 87 66 bd 33 a0 1e 3e aa 89 4b be e2 b2 66 bc
       -0.056281622 0.15490799 -0.19876733 -0.014080735
000210 c6 58 13 bc 2c a2 f4 3b 66 b4 ca 3d 9a fe 7f 3d
       -0.008993333 0.0074656215 0.098976895 0.062498666
000220 58 14 80 3e d8 39 f2 3e 2a 25 3d 3e 6a 26 82 3d
       0.2501552 0.47309756 0.18471208 0.06354983
000230 b2 02 de 3c 86 fa 88 bd d0 c4 5b 3e f6 fb 24 be
       0.027100895 -0.066884086 0.21461797 -0.1611174
000240 a4 db 43 be 47 bf a0 bd 25 bf 5e 3b c1 a8 86 be
       -0.19126755 -0.07848983 0.0033988443 -0.26300624
000250 55 17 ca bd 8f c6 cd 3c 97 60 a4 bd af bc 53 3d
       -0.098677315 0.025119094 -0.080262356 0.051693615
000260 62 1a 10 be 8a 93 be bd 7c f1 33 3d 35 cb 2a be
       -0.14072564 -0.093054846 0.04393147 -0.1667908
000270 b1 07 ab bd 53 6e 4a be 5b fc f6 bc ec 0e 54 bd
       -0.083510764 -0.19768648 -0.03014963 -0.051772043
000280 ca bf 72 3b 21 5f bd bd 51 ac 4d bd 7e c8 da bd
       0.0037040585 -0.0924666 -0.05021316 -0.10682772
000290 44 43 95 bc 9f 16 20 3e 66 ee 81 bc 4b 32 db bd
       -0.018220551 0.1563363 -0.015860748 -0.10702952
0002a0 5f 7e a5 bd a9 c1 0e 3d 74 a1 0c bd ca d5 33 bd
       -0.08080744 0.034852657 -0.03433366 -0.043905057
0002b0 57 d2 26 3e 4f bd 6f bd 77 91 31 3e 54 1d 1c 3e
       0.16291176 -0.058530148 0.17340647 0.15245563
0002c0 c3 7f fe 3d 9d 81 a0 bd 7d e2 24 bd 1d 29 c8 bd
       0.12426712 -0.07837222 -0.04025506 -0.09773467
0002d0 4a 40 c9 bd 8d c2 9c bc 96 01 04 3e 7c d2 89 bd
       -0.09826715 -0.019135738 0.1289123 -0.067296
0002e0 91 42 a4 ba db 75 d2 3d 9a 86 18 be c4 f8 a8 3c
       -0.0012532045 0.102763854 -0.14895096 0.020626433
0002f0 5d e5 c9 3d 90 20 13 be 68 aa 7f bd 65 48 8f bd
       0.09858201 -0.1436789 -0.06241837 -0.0699623
000300 83 36 02 3e 9e b4 34 3d a9 97 a6 3d 38 5d 18 be
       0.12716107 0.044117562 0.08134396 -0.1487931
000310 65 25 47 3d 75 f8 10 3d cd 08 9a bc 94 19 d8 3c
       0.048619647 0.035393197 -0.018803025 0.026379384
000320 dd 91 ca bc ee df cc bd 17 1a 23 bd c4 a1 de 3c
       -0.024727756 -0.10003649 -0.039819803 0.027176745
000330 a7 e9 10 bd a2 ee 2c bd 06 b6 09 3e 2f c3 8f 3d
       -0.03537908 -0.042219765 0.13448343 0.0701965
000340 84 10 40 3d 4c 16 da bc 8b ff 66 bc 13 b9 e4 3c
       0.04689075 -0.02662196 -0.014099012 0.027920282
000350 64 4c bf 3d b1 09 2c 3d 99 df 16 bd f6 fd 33 bd
       0.09340742 0.04200143 -0.036834333 -0.043943368
000360 7e e5 0a be 3b c1 a3 bb 81 56 93 3c 73 2e 8f 3d
       -0.13564107 -0.0049974 0.017985584 0.06991281
000370 b6 a9 f9 bd b0 5f 26 be d1 b2 9c 3c 07 cc bc bd
       -0.12190573 -0.1624744 0.019128235 -0.09218603
000380 d0 16 44 be ee 01 0c be cb b8 6c bd c3 97 83 3d
       -0.19149327 -0.13672611 -0.05779342 0.064254306
000390 f6 aa d7 bd 3b 7f 24 be e7 82 8c 3d 18 a5 89 bd
       -0.10530655 -0.1606416 0.06860905 -0.06720942
0003a0 0d 1e 8f bd 5b e5 6e bd 48 fc 24 3e 0b 05 09 be
       -0.069881536 -0.0583242 0.16111863 -0.1338083
0003b0 25 4d 1c 3d e3 0b 2c 3d a2 0a 50 be 20 fb 17 3e
       0.03815951 0.042003524 -0.20316556 0.1484189
0003c0 3b 5e e8 3c d4 ad af 3d e9 01 a6 bd 27 89 5d bd
       0.028365245 0.08578077 -0.08105833 -0.054085877
0003d0 7b 53 c5 bd 4a 66 21 3d fb 19 51 3d bc 9e 1c be
       -0.09635063 0.03940419 0.051050168 -0.15294927
0003e0 49 0a 83 bd 93 39 be bc e9 ef 1e 3d 96 44 b4 3c
       -0.06398446 -0.023220813 0.038803015 0.02200536
0003f0 af e2 04 3d a8 8e f6 bd 1d 28 cc bd 1c f4 c9 3d
       0.032442745 -0.12038928 -0.099685885 0.09861013

Conv6.bias f4 [100]
000000 5f 2c 97 bb 19 8d d2 bb 8b a4 75 bc 77 ce 85 3d
       -0.0046134437 -0.0064255116 -0.014992843 0.06533521
000010 c9 8b 41 3d 21 2d e3 bc be f6 c4 3d 75 c3 80 bb
       0.04725245 -0.02773148 0.09617375 -0.0039295503
000020 74 28 70 3d f1 9d a7 bb 87 a0 8f bb ea 76 8a bc
       0.05863233 -0.0051152636 -0.00438315 -0.016902406
000030 fb df 67 3d 76 25 95 bc 6c 24 50 bc ce 43 6f bc
       0.05661009 -0.01820634 -0.012703996 -0.014603568
000040 69 27 d0 bc 94 5d a3 3d e5 89 5a bc b1 84 06 3e
       -0.025409417 0.07976833 -0.013338541 0.13136555
000050 93 fb 54 3d 46 26 4e bb 66 d0 f7 3d 71 26 65 bc
       0.051997732 -0.0031455918 0.12100296 -0.013986216
000060 89 ad 6a 3d 31 3c f2 b9 58 2c 61 3d 1e b1 a1 3b
       0.057294402 -0.00046202683 0.05497393 0.004934444
000070 3e 69 ad 3b f0 17 17 bb 03 fe d4 bb 4f d8 5b 3d
       0.005292087 -0.002305504 -0.006500007 0.053673085
000080 7e fc 71 bd fd 7f 46 bc fe e2 9f 3d c3 fc 86 3d
       -0.059078686 -0.012115476 0.07806967 0.06591179
000090 02 0b aa 3d 7e b1 45 bc 0c 7f 56 3d 46 f8 a0 3d
       0.08302881 -0.012066243 0.052367255 0.078598544
0000a0 6a 08 11 bd de 5a be 3c b5 76 60 3d 7e cf 9d bc
       -0.035408415 0.023236688 0.054800708 -0.019263979
0000b0 e2 fd b3 3d 43 9e ce 3d 33 0b 87 bc 80 db de bc
       0.08788659 0.1008878 -0.016484832 -0.027204275
0000c0 7d fd 59 bc a3 7c 21 bd 35 aa a9 3d 43 2c f4 bb
       -0.013305065 -0.039425503 0.082844175 -0.0074515655
0000d0 c5 da 5b 3d f2 f3 e3 bb 7d 3f 1e 3c f3 7d 6c 3d
       0.05367543 -0.006956571 0.0096586915 0.057737302
0000e0 cf 5f 7b bc cc 44 8e bc c1 f4 87 3d 93 0e 5d 3d
       -0.015342667 -0.01736679 0.0663848 0.053968977
0000f0 99 85 b8 bd a3 19 4c bc 97 df 29 bc 34 e0 b6 3d
       -0.09009857 -0.012457284 -0.010368249 0.08929482
000100 5e 52 67 3d 59 a1 a6 bb 16 4c eb 3d 3d fb 4f 3d
       0.056475036 -0.005085152 0.114891216 0.05077671
000110 9a 57 c5 3b 64 7f 9f 3d a7 8b b9 bc b3 a9 b3 3d
       0.006022406 0.0778797 -0.0226496 0.08772602
000120 de be 43 bb aa 17 a7 bb 34 25 2b bd 99 44 c4 bb
       -0.0029868404 -0.0050992565 -0.041783527 -0.005989623
000130 a3 0b 1e bb 46 e3 a7 bc 9f 73 a7 3d fb 65 5e 3d
       -0.0024115823 -0.020494115 0.0817635 0.054296475
000140 24 4f b5 3d ec 07 cf 3d 6c ab ef ba 0a a2 92 3d
       0.088529855 0.10108933 -0.0018285341 0.07159813
000150 62 64 84 bc a5 a4 7e bb 04 b6 07 bc 51 2e 92 3d
       -0.016161148 -0.003885546 -0.008283142 0.071377404
000160 f1 6e 02 bc 2e 03 a8 3d cb b0 31 3b 99 34 1b bc
       -0.007961021 0.082037315 0.0027113433 -0.0094729895
000170 4a 3d 30 bb ba a6 95 3d ae 7b 7d 3d 6a f1 44 3d
       -0.0026892 0.07307191 0.06188553 0.048081793
000180 db d2 22 ba a3 d9 0d 3e 1e 2b ac 3d aa 02 87 3d
       -0.00062112295 0.13852553 0.084066615 0.06592305

Conv4.kern f4 [3, 3, 48, 64]
000000 5d cc d6 3d 49 e0 a9 bd 6f 8a 7e bd d9 79 14 be
       0.10488198 -0.08294732 -0.06214374 -0.14499606
000010 1f 42 ec 3d ae 37 bb 3d 62 f5 2d be bd 6f 19 be
       0.11536049 0.091414794 -0.16988137 -0.14984031
000020 70 c8 75 bd 6f 94 97 bd 6e e9 8f 3d 21 96 f3 bd
       -0.060005605 -0.07401358 0.07026945 -0.11893869
000030 27 e5 97 bb b0 68 20 bd 05 cd 5d 3d da af 67 3e
       -0.0046354714 -0.039162338 0.0541506 0.22625676
000040 9d 29 d4 3d 8a 2e 29 bd 74 0b e6 bc 83 94 dc bb
       0.103594996 -0.04130415 -0.028081633 -0.006731571
000050 2a c2 9d 3d 7f db ae bc 08 08 3a be b7 39 0a 3e
       0.077030495 -0.021344898 -0.18167126 0.13498579
000060 a0 2b 71 3d cd 8a 49 bd 9a 98 9f 3d e9 f5 01 be
       0.058879495 -0.049204636 0.07792778 -0.12691464
000070 f9 31 98 3d 53 55 10 bd eb a7 ec bc 7f 59 bf 3d
       0.074314065 -0.03523762 -0.028888663 0.09343242
000080 b9 1a f8 3d 0b 5e a3 bd 55 cb f6 3c 96 06 ec 3d
       0.12114472 -0.07976922 0.030126253 0.11524694
000090 db f5 b8 bd b7 07 8f bd 0e 72 64 bd c3 74 41 3e
       -0.09031268 -0.06983893 -0.055772834 0.18892197
0000a0 61 7e 3d 3e 07 62 3f 3e 02 f7 04 3e 90 a5 ae bd
       0.18505241 0.18689738 0.12984851 -0.08527672
0000b0 91 a7 03 3e e9 96 0a 3d 6c c9 d3 bd d1 4d 8a bd
       0.1285689 0.033835325 -0.103411525 -0.067531236
0000c0 fd a0 f1 bd 15 fe 0b be f0 c3 0f 3c 98 3e 90 3d
       -0.11798284 -0.13671143 0.0087747425 0.07043189
0000d0 cd 73 5d bd a3 8f 9c be f8 ce b4 3d 4d db 31 3e
       -0.054065514 -0.30578336 0.08828539 0.17368813
0000e0 56 c6 35 3e 89 32 ca 3d cf 48 ab bc b4 66 a3 3d
       0.1775144 0.0987292 -0.020908741 0.079785734
0000f0 5c 9d 9f bd bb cb 31 3e 8f 4f d7 bd f2 a9 22 be
       -0.07793686 0.17362873 -0.105132215 -0.15885141
000100 95 62 d3 bc 33 90 91 bd 6e 4d 2e bd a5 a5 7c 3e
       -0.025803844 -0.07107582 -0.04255431 0.24672563
000110 30 c1 39 be f5 54 2e 3c 8a 0f 32 3d c8 2e 44 bd
       -0.18140101 0.0106403725 0.04347185 -0.047896177
000120 97 65 c2 3d 7e 15 4b bd 71 d5 be bd 88 be da bd
       0.09492033 -0.049581043 -0.093180545 -0.10680872
000130 e4 03 56 bb 64 be 8e 3a c2 e0 8a bd e6 de 73 bc
       -0.0032656128 0.0010890481 -0.067811504 -0.014884686
000140 13 35 11 bd 8b 32 13 bd 82 cb 04 be 25 94 a4 3c
       -0.035451006 -0.035936873 -0.12968257 0.020090172
000150 cc 70 93 3d 35 fb f3 3d 6e e4 a0 be 3c 8e 0e be
       0.07199249 0.11913148 -0.31424278 -0.13921446
000160 a3 fa 9d 3d f9 18 28 bd c0 86 38 37 04 a2 98 bb
       0.07713821 -0.04103944 1.0998629e-05 -0.0046579856
000170 a3 e9 ca 3c a9 d0 11 3c b2 d9 aa 3d aa 51 b6 3c
       0.02476961 0.008899846 0.08342303 0.022255737
000180 65 f1 6e 3d a7 c9 81 bd f7 c2 00 bd 8a c9 bc bd
       0.05833568 -0.0633729 -0.031435933 -0.09218128
000190 e9 c6 f8 3c 57 47 de 3d 7f e0 4b bd b4 f9 a0 bd
       0.030368285 0.10853451 -0.049774643 -0.07860127
0001a0 b4 64 88 3d 60 2e 92 bd 7d 0c 05 3c d7 be d6 bc
       0.066598326 -0.071377516 0.008120653 -0.026214046
0001b0 7c 93 8d 3e 61 4d 0c 3e 81 c2 43 be 22 a8 79 bd
       0.27651584 0.13701393 -0.19117166 -0.06095136
0001c0 31 a1 01 3e d1 f8 00 3e 3d 08 1b 3e c8 f9 26 be
       0.12659146 0.12594916 0.15139861 -0.16306221
0001d0 d5 11 0b 3e 28 32 49 bd f0 f7 8c bd ea 11 cb 3b
       0.13581021 -0.0491201 -0.06883228 0.006197204
0001e0 76 40 7f bd 50 4f f8 3d d6 40 f8 3d c1 c8 17 be
       -0.062317334 0.12124503 0.121217415 -0.14822675
0001f0 30 7c 88 bd 5a 4b 2d 3e 82 28 81 bd 8a fd 60 bd
       -0.06664312 0.16923276 -0.063065544 -0.054929294
000200 b1 eb 3a be c6 11 56 3d 12 03 28 3e 0c b0 aa bd
       -0.18253972 0.052263044 0.16407421 -0.083343595
000210 b2 9a 69 3d 05 80 24 be 0c 28 ff bd 0b c5 05 bc
       0.057032295 -0.1606446 -0.1245881 -0.0081646545
000220 f7 10 2b 3e 7b 1d 64 bc 2a f3 1b 3d 12 bd 15 be
       0.1670569 -0.013923044 0.038073696 -0.14622906
000230 fe 99 f6 bb 11 73 ae 3d ef ec 3d 3e ff 58 16 bb
       -0.0075256815 0.08518041 0.18547414 -0.002294123
000240 58 cd 52 be 46 f9 8f bd 05 2d 27 be 6f ee 66 3d
       -0.20586145 -0.07029967 -0.16325767 0.05637973
000250 69 e7 a7 bd d7 2d a3 bd d4 fa e2 3d 0d 5b 86 bd
       -0.08198435 -0.07967728 0.11082998 -0.06560335
000260 b4 52 81 3e 13 70 dd 3d df ac 2f 3e d6 fa 96 3d
       0.2525841 0.10812392 0.17155789 0.07372062
000270 38 76 a6 3c f8 91 62 3d e8 00 8b bc 97 24 82 3c
       0.020320043 0.055314988 -0.016968206 0.015886588
000280 5f ef 49 3e 64 61 35 3d 73 49 bb bd 97 18 7a 3d
       0.19720219 0.044282332 -0.09144869 0.061058607
000290 b6 51 c6 bd 61 8a 52 3e 06 26 e7 3d 7d 4a 25 3e
       -0.09683554 0.205606 0.11286549 0.16141696
0002a0 64 90 93 bc 83 3b 1f be c4 2f 19 bc 40 7e a8 bc
       -0.018013187 -0.15550046 -0.009349767 -0.020568013
0002b0 04 17 73 3d 72 49 19 be 08 b6 55 bd 4e aa 10 3c
       0.05934812 -0.14969423 -0.05217555 0.008829666
0002c0 cf f1 4c 3e 3f c4 58 bd 86 9b 4c 3e 96 e0 e4 bd
       0.20014118 -0.05292153 0.19981202 -0.11175649
0002d0 d6 60 7a bd 66 10 28 3e b3 b9 4b be 66 59 5e 3d
       -0.061127506 0.16412506 -0.19895057 0.054284476
0002e0 10 e5 c9 3d 9b 37 87 be 38 f8 d1 bd d1 14 e3 bd
       0.09858143 -0.2640961 -0.10252422 -0.11087955
0002f0 33 d0 5b 3d bb 73 f6 bc a1 06 84 bd d6 9f 14 3e
       0.05366535 -0.030084481 -0.06446577 0.14514098
000300 bd d9 25 be 77 f2 ce bd bb b7 d0 bd 37 d9 c3 3d
       -0.16196342 -0.1010484 -0.10191294 0.09562915
000310 46 c8 c1 3d 2d 6a 80 3c 2d 68 35 3d 08 47 ed 3d
       0.09462027 0.015675629 0.044288803 0.11585814
000320 ab d2 bc bc 30 75 28 3e 0d e8 84 3d f6 8a a5 3d
       -0.023049673 0.16450953 0.06489573 0.08083145
000330 66 f2 37 be c0 e4 af bc 28 68 ab bd 24 99 94 bd
       -0.17963561 -0.021471381 -0.083694756 -0.07255772
000340 68 9a 94 bd 65 e1 f7 bc ef 86 6f 3d 38 f4 66 3e
       -0.07256013 -0.030258844 0.058478292 0.225541
000350 cb 37 46 bd a8 9d da 3d 4b 66 25 bd 1f 5e a0 bd
       -0.048393052 0.10674602 -0.040380757 -0.07830452
000360 57 ee 6c bc 34 17 e7 3c 17 78 04 3e cd ff 10 3e
       -0.0144611215 0.028209306 0.12936436 0.1416008
000370 25 55 bc bd 08 92 e2 3d 2f b1 12 3d f8 dc 95 bd
       -0.091959275 0.110630095 0.035813507 -0.07317537
000380 a2 d6 70 bd 9e 70 37 bb 1c 1b f4 bd 1e 14 73 3e
       -0.05879844 -0.002799071 -0.11919233 0.23738143
000390 08 fc cb 3d c3 96 09 3d b1 27 1c 3d 24 d3 83 bd
       0.099601805 0.033591043 0.03812379 -0.06436756
0003a0 f2 49 0f bc 82 60 30 bd 01 87 09 3e 10 89 c0 bd
       -0.008745657 -0.043060787 0.13430406 -0.094011426
0003b0 6d 57 48 3e e4 7f 3e 3a c6 3e f1 3b a7 3f 7f 3c
       0.195646 0.0007266982 0.0073622195 0.015579141
0003c0 52 c9 b4 3d ff ad 88 bc 5c 4f 92 bd 9a e3 0f be
       0.08827461 -0.01668453 -0.07144043 -0.14051667
0003d0 db 6d 03 3d bf 76 83 bd b8 cd a7 b9 7f 0e 24 bd
       0.03208719 -0.064191334 -0.00032005995 -0.040052887
0003e0 68 f5 75 bd d8 4b 6f bd 88 69 05 be 87 04 d4 b8
       -0.06004849 -0.05842194 -0.13028538 -0.00010109791
0003f0 9a 48 81 bd 8c 75 eb 3d 57 f3 35 be 0d cd e6 bb
       -0.06312676 0.1149703 -0.17768608 -0.007043487

Conv4.bias f4 [64]
000000 67 d1 50 3d 60 ed 42 bb 73 6e 52 3d 8f a3 9a bc
       0.05098095 -0.0029743537 0.051374864 -0.018876819
000010 ea 27 fe 3c 47 61 8d 3c 3c c1 65 3d 83 4d e4 3c
       0.031024892 0.0172583 0.056092486 0.027868992
000020 c0 2f 63 bc 7d ce bf 3c e0 7c 23 bc 34 83 1d bc
       -0.013866365 0.023413891 -0.009978503 -0.009613801
000030 4b 74 0a 3d d4 80 07 bd 12 dc a2 bb 49 23 10 3d
       0.033802312 -0.033081844 -0.004970082 0.0351899
000040 c0 a4 bb 3c fb 1c 64 3d 13 85 72 3c 0c 61 7a 3c
       0.022905707 0.0556917 0.014802235 0.015281927
000050 f6 65 79 3d 5c 0d 1a 3d 2a 8c 1d 3b 70 34 04 bb
       0.060888253 0.037610397 0.0024039843 -0.0020172857
000060 1b f5 8a bc 94 e7 4f 3d 7a 14 0b 3c 00 66 45 bb
       -0.016962579 0.05075796 0.008488769 -0.0030120611
000070 9e f3 38 3d 8a 51 34 3c 56 42 ac 3b b9 e9 ad 3d
       0.045154206 0.011005769 0.0052569313 0.08491845
000080 bf 53 48 bc d7 4d db bc 4e 4e 2f 3d cb b6 a2 3c
       -0.012226998 -0.026770515 0.042799287 0.019862553
000090 e6 ad a6 bc 64 a1 46 bc ae 4c 8a bc 8f 23 12 3d
       -0.020346593 -0.012123439 -0.016882267 0.035678443
0000a0 2b 58 b0 3c 3d be 1b ba ba 3a ed 3c ec 4f 63 39
       0.021526417 -0.00059411285 0.028958667 0.0002167818
0000b0 64 21 a7 3c 58 01 7d 3d 8d 76 a5 bc 06 a4 27 bb
       0.020401664 0.06176886 -0.020198131 -0.0025579943
0000c0 b2 d4 30 3c fb 27 02 3d 47 7a 05 bd 41 7d 1e 3d
       0.010792898 0.03177641 -0.032587316 0.03869367
0000d0 c2 e4 07 3d e5 02 a0 bd ba 2c bc bc 11 02 15 3d
       0.033177145 -0.07813052 -0.022970546 0.036378924
0000e0 e3 77 dc 3c 52 bd b8 3a fe 66 4d 3d da 22 fd ba
       0.026912635 0.0014094508 0.05014705 -0.0019312755
0000f0 c1 87 c6 bc f7 89 1c 3d f1 6e 1b 3d 42 3a c7 3b
       -0.024234654 0.03821751 0.0379476 0.006079943

Conv3.kern f4 [3, 3, 36, 48]
000000 c3 66 0a 3e 3d 76 44 be c4 36 d7 bb 08 bf c1 bd
       0.13515763 -0.1918573 -0.006567808 -0.094602644
000010 35 f7 58 bd f8 98 3d bd 65 4d e0 bd 2c 76 6d bd
       -0.05297013 -0.04628846 -0.10952262 -0.057974026
000020 3b a3 ca 3d 9b a3 9c bd c5 d6 cc 3b 56 f1 84 3c
       0.09894415 -0.07648393 0.0062511885 0.01622836
000030 79 83 ee 3c 7a 99 59 bd 56 6b b3 bd db 19 35 bd
       0.029115425 -0.053124882 -0.08760707 -0.04421411
000040 e7 56 43 be 1a 40 ff bb 9f 6d 8c bc f3 0d 64 3d
       -0.1907612 -0.007789624 -0.017142115 0.055677366
000050 b1 9d ee 3c 1e 38 1c be 45 68 88 3c 1d 7f f8 3c
       0.029127927 -0.15255782 0.016651282 0.03033405
000060 99 9d 03 be 60 73 e8 bc 07 94 5f be f8 5d 80 bc
       -0.12853087 -0.028375328 -0.21833812 -0.015669808
000070 ec 7b 12 be 98 e8 c0 ba 48 64 68 3d fb 79 f3 3d
       -0.14305085 -0.0014717756 0.05673626 0.118885
000080 52 16 47 bb a7 f9 21 bd d3 c6 8a bd fb 63 8a 3d
       -0.0030378294 -0.039544728 -0.06776204 0.06757351
000090 0f aa cf 3d c8 e1 cc 3c 7a f8 20 bd fe 61 df 3d
       0.10139858 0.025010005 -0.039299466 0.109073624
0000a0 8c 51 a1 3d a6 14 25 3d 68 8d 8d 3d ce 75 17 bd
       0.07876882 0.040302895 0.06911737 -0.03697758
0000b0 b7 0e 2e be 8d 52 7b be ac 96 27 bd 1b fe 01 3d
       -0.16997801 -0.2454321 -0.040915176 0.031736474
0000c0 04 70 4f be 92 81 c9 bd bf 01 35 3e 4c cc 04 3e
       -0.20257574 -0.09839167 0.17676447 0.12968558
0000d0 65 22 9a bd b0 b3 71 ba e9 8b 0e 3e de 91 88 3d
       -0.075260915 -0.0009220196 0.13920559 0.06668447
0000e0 10 04 0d bc 2c 7a 30 be 6e d3 76 3e 3e a0 2b 3e
       -0.008606926 -0.17234105 0.24104092 0.16760346
0000f0 c1 ab 72 bd 92 d8 50 3e 91 6f 48 bd e8 cb b3 3c
       -0.05924583 0.20395115 -0.048934523 0.021947816
000100 1b d9 b5 bd 96 c6 82 bb 7b 61 47 3d 9e cf 7f bd
       -0.088793 -0.0039909584 0.04867695 -0.06245386
000110 47 f9 96 be ab 5e 70 bb af 77 af 3d 2e 97 71 bd
       -0.2948706 -0.003667752 0.0856775 -0.058982067
000120 79 89 49 3e e1 2a 6a 3e b4 8f d3 3d a2 b8 7f 3e
       0.19681348 0.2286792 0.103301436 0.24972776
000130 81 ef a6 bd 35 56 6c bd 03 50 d6 3d a9 7d 1f 3e
       -0.081511505 -0.0576994 0.1046448 0.1557528
000140 13 34 ae 3d dd 9a 01 3c 94 ad 65 3d a7 e7 9f bd
       0.08506026 0.007910457 0.05607374 -0.07807856
000150 55 ae 1d be 87 ea 97 bc ad e2 63 3e 3f 93 18 bd
       -0.15398534 -0.018544449 0.22254439 -0.0372498
000160 90 fa 8f 3c 3a 0d ad bd aa f4 d6 bc c9 73 75 bd
       0.017575532 -0.084497884 -0.026239712 -0.059924874
000170 b2 46 6b be 75 2a 70 3c f0 89 42 be 58 2e b3 bd
       -0.22976187 0.01465856 -0.18997931 -0.08749074
000180 73 c8 03 bc af 04 d5 3c 67 4d 38 3c a8 70 b1 bb
       -0.008043396 0.02600321 0.011248923 -0.005415041
000190 84 fb 03 be b8 ed 29 3d 49 86 b0 3c de 41 95 3d
       -0.12888914 0.041486472 0.021548407 0.07287954
0001a0 ca 44 83 bd ac f4 0e be 23 53 3b 3d ca 04 25 3e
       -0.06409605 -0.13960522 0.045733582 0.16115108
0001b0 54 7f d5 bd fc 66 01 be c2 32 08 be 5d 14 6c 3d
       -0.104246765 -0.12636942 -0.13300613 0.057636607
0001c0 bf 66 fb bd 95 db 07 bb 0e 07 0e bd 3a 40 08 3c
       -0.12275457 -0.0020730246 -0.034674697 0.008316094
0001d0 8b 2d 86 3c 55 ae 0d 3b c4 6d d3 bd 15 71 b1 bd
       0.016379138 0.0021618803 -0.103236705 -0.08664147
0001e0 79 cf 39 3e ac e5 df 3d 86 39 81 bd e1 00 44 3e
       0.18145551 0.10932478 -0.063098 0.1914096
0001f0 76 b0 ce 3c 37 6f 22 bc 30 1f 4a bd db c4 2c 3e
       0.025230628 -0.009914211 -0.04934615 0.1687197
000200 df c5 81 bd 3d f2 6f bd 12 5e ab 3d 23 d2 d7 bc
       -0.06336569 -0.058580626 0.08367552 -0.026345318
000210 ac 9e 1f be 24 a4 c9 3d 0d 94 d3 bc 6f 2e f1 3d
       -0.15587872 0.098457605 -0.025827432 0.11776435
000220 00 fd b3 bc 05 bb 58 bd e4 5c c7 bd d9 70 02 bd
       -0.021971226 -0.05291273 -0.09734514 -0.0318459
000230 a5 80 cb bd f3 2a 1e be 03 12 df 3c c2 1b fa bc
       -0.09936646 -0.15446071 0.027230268 -0.030530814
000240 d7 7e 12 3e 6f 81 4a 3c 8d fa a4 3d 94 a3 d1 3c
       0.14306198 0.012359961 0.08055601 0.025590695
000250 fc 32 5b 3c ee f2 05 bd fb b0 40 3d 66 b1 86 bd
       0.013378855 -0.03270238 0.04704378 -0.06576805
000260 0d 6d b7 3d 18 ad 33 be 5f 24 02 3d 1d 93 0e be
       0.08956347 -0.17546499 0.031772967 -0.13923307
000270 fd ce 29 be e1 c4 92 bd 37 72 b9 bd 76 fa 8b bc
       -0.16582866 -0.07166458 -0.09054988 -0.017087203
000280 f9 b8 0b be e9 39 bc 3c 17 b7 ae 3d d1 a5 eb bd
       -0.1364478 0.022976832 0.08531015 -0.11506236
000290 9a a9 00 be 5e 95 6d bd 2a 36 02 bd 26 24 90 3a
       -0.12564698 -0.058003776 -0.031789936 0.0010997101
0002a0 26 01 22 3e 46 68 d8 3d 8b c6 80 be c9 bc 88 bc
       0.1582075 0.105667636 -0.25151476 -0.016691582
0002b0 c6 62 1b 3d 46 a9 16 be a8 5f 66 3d 07 8c 76 bc
       0.037935995 -0.1471301 0.05624357 -0.015048034
0002c0 df fd 3f be 53 00 2f bc e5 33 0e 3d fb dc 0e be
       -0.18749188 -0.01068123 0.03471746 -0.13951485
0002d0 7f ab 8e 3d 76 1e ac bd 4b 35 dd bc 7a 28 1e bd
       0.06966304 -0.084042475 -0.027002951 -0.03861282
0002e0 d2 ac 17 bb 5e 8e 33 3d 36 21 c8 3d fc 54 8e bd
       -0.002314378 0.043836944 0.097719595 -0.06949803
0002f0 b4 21 da 3d de 64 be bd 2f de 32 bd 2f 4b 14 3c
       0.106509596 -0.09296583 -0.043668922 0.009051128
000300 c8 fd b2 3b ea cb 63 3d 2d 81 05 3e c7 7e 70 3d
       0.005462382 0.05561439 0.13037558 0.058714654
000310 ef 9d f1 3c 8d 41 72 bd af d2 aa 3d 6e ac ea bd
       0.029494254 -0.059144545 0.08340966 -0.114586696
000320 68 10 00 be 90 20 25 3d 48 02 02 3e 90 b8 df bc
       -0.12506258 0.040314257 0.12696183 -0.027309686
000330 90 86 36 3c cb 1b 48 bd 40 f5 8d 3e 0d 0e c1 3d
       0.011140481 -0.04885463 0.27726173 0.09426508
000340 fd 98 e5 3d 1f e2 aa bd b9 0b 96 3d 48 c8 8a bd
       0.11210821 -0.083439104 0.07326455 -0.06776482
000350 d3 21 fe bd f0 08 80 bd 80 b3 93 bd c8 b6 4b be
       -0.12408795 -0.06251705 -0.07211971 -0.19893944
000360 bd 69 18 3e 7e c9 79 3e 59 9a 90 bb 38 66 96 3e
       0.14884086 0.2439327 -0.004412931 0.29374862
000370 27 b8 4a 3d 2b 98 9f 3d d5 ee 82 bd 8b 42 f3 bd
       0.049492028 0.077926956 -0.0639321 -0.118779264
000380 22 89 85 be 2b 3a f8 3d ca ae 00 3d 5a 8e 00 bd
       -0.26081187 0.1212047 0.03141669 -0.031385757
000390 d9 36 82 3d 4c 03 60 3e a7 9f df bd 00 a2 05 bd
       0.063581176 0.21876258 -0.10919123 -0.0326252
0003a0 34 c3 4e 3e 5a bb 4b bd 18 c8 e1 bd 81 3e e8 3c
       0.20191652 -0.04973922 -0.11024493 0.028350117
0003b0 f7 10 84 3d 4f 83 4e be 13 7d 50 3d 7d 00 8a 3c
       0.06448548 -0.20167278 0.05090053 0.016845936
0003c0 62 a3 0a 3e 42 cf 67 3d a9 7b 0c 3e 42 03 0a 3e
       0.13538888 0.05659414 0.13719048 0.13477805
0003d0 7c 29 dd bc 91 bc 9a 3c 00 79 10 3e 83 2b 62 3d
       -0.02699732 0.018888744 0.14108658 0.055217277
0003e0 77 5f 50 3c 14 c8 16 3e 3d 33 8a 3d b0 52 39 be
       0.012718073 0.14724761 0.06748054 -0.18097949
0003f0 73 d2 68 3d 5a ce 20 bc fa 5c e8 bd 89 7a 33 be
       0.056841325 -0.009814823 -0.11345859 -0.17527212

Conv5.bias f4 [128]
000000 32 c9 9a bc 9e 6e 5c 3c 12 ea 35 bd 11 b6 39 3d
       -0.018894766 0.013454108 -0.04441268 0.045339648
000010 34 50 64 bc 7a ec 73 3d 21 2f b2 bc 82 b1 2b 3d
       -0.013935138 0.059551693 -0.021750988 0.04191733
000020 a8 b9 16 3d 9c 0e 8c 3d 77 8e 3c 3d 82 03 5c 3d
       0.03679815 0.06838724 0.046034303 0.053714283
000030 94 86 b9 ba 39 1f 58 3d 36 4e 0a 3c 19 ed 71 bd
       -0.0014154487 0.05276415 0.0084414985 -0.059064005
000040 ca 07 d6 3c d4 a1 f3 bb 08 3d 37 3d 40 5d 5b bc
       0.026126761 -0.007435063 0.04473594 -0.013388932
000050 f3 08 b7 3d 85 90 c6 3c 7e bb df 3c dd 27 79 bc
       0.08937254 0.024238834 0.027311083 -0.015207258
000060 3d b2 50 bc 65 f5 b1 3c 64 43 1f bd 70 47 ff 3c
       -0.012737808 0.021723459 -0.038882628 0.031161994
000070 f4 f5 75 3d 59 7e 8c bc 20 f4 e4 bc e6 d7 9a 3d
       0.060049012 -0.017150091 -0.02794844 0.075607106
000080 17 24 b5 3c e3 5d 10 bc d0 fd 86 3c 99 56 7e 3d
       0.022111936 -0.008811447 0.01647845 0.062094305
000090 e4 d8 18 bd 66 23 0a 3b 48 aa 8a 3c 3c fc 51 ba
       -0.037316218 0.0021078228 0.0169269 -0.0008010303
0000a0 79 48 8c bc 87 a9 5a 3d 0e 7c b8 ba ad fd af ba
       -0.017124401 0.05338433 -0.0014075057 -0.0013427042
0000b0 06 71 e7 3b 37 a9 ef 3c 1a 89 03 3d e7 57 0a 3e
       0.007063034 0.029255493 0.032113172 0.13510095
0000c0 2d 69 7d 3c bb c9 3e bd 3e 1b b2 bc 18 a6 07 bd
       0.01546697 -0.046579104 -0.021741506 -0.033117384
0000d0 23 d1 b2 3d 96 09 7d 3d a5 39 7b 3d df ee be 3d
       0.08731296 0.06177672 0.06133427 0.09322905
0000e0 d9 77 ac ba be b7 8b 3d ca 47 f7 3c d5 20 46 3d
       -0.0013158276 0.068221554 0.030185599 0.048371155
0000f0 0d cb e0 3a f8 a1 a8 3d 42 1c 58 3d df 7f 8d bc
       0.0017150358 0.08234018 0.052761324 -0.017272888
000100 06 2e 5d 3d a7 8a 8f 3d df 50 1e bd f7 8b 77 3c
       0.05399897 0.07008868 -0.038651343 0.015109054
000110 96 fd 03 bc 72 d3 21 3d 0a 37 75 3d 2c c8 71 3d
       -0.008056065 0.03950829 0.059866942 0.05902879
000120 b3 a4 29 3c 09 95 68 3d 45 f9 9f bc 15 ae 60 bd
       0.010354209 0.056782756 -0.01952804 -0.054853518
000130 6e 27 df 3d f4 b4 2e bc 79 92 b3 bc 3b 1c 61 3c
       0.108961925 -0.01066326 -0.02192043 0.013739641
000140 7b db 0d 3b a3 1c 8d 3a 36 b2 3a bc fc 1d 48 3d
       0.0021645713 0.0010765981 -0.011395028 0.04885672
000150 8d 7b d3 bc 3d 0f 19 bc 2c 87 99 3d a2 c0 44 3d
       -0.02581575 -0.009342012 0.07496485 0.04803527
000160 fe 80 37 bc de 19 6e 3d 49 04 7d 3d d2 5e 9b 3d
       -0.011200188 0.058130138 0.061771665 0.07586445
000170 59 fd 5b 3d 23 67 8b 3b bc 90 13 3d 22 0d 80 3d
       0.053708408 0.004254238 0.0360267 0.06252505
000180 aa 3b 0b 3d 79 2e 4e 3d 8a dc 35 3d b4 2f 44 3d
       0.033992447 0.05033729 0.044399776 0.047897056
000190 dc dc b1 bc e5 b6 02 3d 8e c5 de bc bc 4e 8e 3d
       -0.02171176 0.031912703 -0.02719381 0.06948611
0001a0 21 e8 dc 3c dd 67 1a bb 74 8f 2b 3d ed 53 94 ba
       0.026966156 -0.0023560442 0.041884854 -0.0011316516
0001b0 4b 4d a2 3d 9b c8 0e 3d a0 9a 9e bc 32 b1 81 3d
       0.07924899 0.03485928 -0.01936084 0.063326254
0001c0 de ec 58 3d 27 14 7b 3d 63 2a 09 3c 33 ed 70 3b
       0.05296027 0.061298516 0.008371922 0.0036762476
0001d0 b5 53 3a bc 02 2a 89 3d 31 1a 47 bc 6a e8 4d bc
       -0.011372496 0.066974655 -0.012152241 -0.012567619
0001e0 ff 8d 49 3d c5 7d e9 bc 11 16 97 bc 22 3b 93 bc
       0.049207684 -0.028502354 -0.01844314 -0.017972533
0001f0 d8 99 af bc f7 e0 8a bc 3a e0 09 ba f3 a9 4a bd
       -0.021435663 -0.016952975 -0.00052595476 -0.049478482
