model.npz (npz, 557226 bytes, 13 tensors)

Conv3.kern f4 [3, 3, 36, 48]
0.1372573 -0.025736965 -0.06724187 -0.082328506 0.016514713 -0.03686504 -0.10234549 -0.08334463
0.16682392 -0.18750452 0.027786795 0.033839125 0.072303556 -0.04291903 -0.08618038 -0.08958782
-0.17141078 -0.009617768 0.04554181 0.040407803 0.0760094 -0.024714176 -0.0048251846 0.02397375
-0.1683192 0.024085116 -0.09575826 0.058113303 -0.20753404 -0.01296558 0.04121627 0.05470086
0.024014767 -0.059414193 -0.05643654 0.12711707 0.089205004 0.01812808 -0.03479025 0.21364515
0.034421783 0.02498854 0.12936677 0.0078866 -0.13599333 -0.1904919 -0.07065469 -0.04174536
-0.022571675 0.025183711 0.043153442 0.13175666 0.0071195145 0.031739954 0.037930485 0.09132793
0.111276515 -0.13776246 0.09663267 0.015009506 -0.23618229 0.09568344 0.018324967 -0.15706827
-0.30413625 -0.01318561 0.052270953 -0.031409714 -0.33289284 -0.12782505 0.017693445 -0.1082202
0.07897081 -0.002135933 -0.006359991 0.07653234 -0.07081076 -0.079125404 0.022033816 0.045944452
0.11467536 0.06456764 0.14928275 0.02392658 0.11259831 -0.054665234 0.18761192 -0.015039032
0.097778685 0.041919265 0.037053343 -0.098682195 -0.24348983 -0.04525024 -0.06977088 0.09885591
-0.095110476 -0.044097707 0.009485515 0.0130500775 -0.06415943 -0.029222835 -0.016765336 0.06108783
-0.06257478 -0.1142357 0.039248917 0.152748 -0.01878962 -0.091824055 -0.1322667 0.055521313
-0.06009822 -0.036619235 -0.005081819 0.06327547 0.103957266 0.0047421916 -0.034891874 0.040799443
0.19685712 0.08413207 -0.15420748 0.16665131 -0.014313412 0.03680105 -0.087991916 0.110505484
-0.010234826 -0.079720095 0.13569072 -0.030693213 -0.10120938 0.18372427 -0.010114494 0.15429209
0.02624853 -0.055977747 -0.023472829 -0.04112089 -0.09412111 -0.10543712 -0.056386806 0.0063125915
0.09028174 0.17510654 0.1446748 0.043479227 -0.010743066 -0.07685959 0.06482374 -0.020716712
0.067477405 -0.2160595 -0.03774802 -0.13417603 -0.3585906 -0.10696761 -0.10949402 0.08182581
-0.24072076 0.08012293 -0.014423694 0.005116698 -0.18600662 -0.27896833 0.018611887 -0.040883996
0.26784262 -0.09825082 -0.12372332 -0.07027958 -0.16262817 -0.005919032 0.06571473 0.030782282
0.0059472444 0.08224333 0.13504103 -0.16499375 -0.025210623 0.08448527 -0.03791305 -0.13781895
0.19450584 0.029078111 0.060754247 -0.09278407 0.058703404 -0.028230617 -0.04413322 0.10140115
-0.041668694 0.026623182 0.09928227 0.03575775 0.09048395 -0.059105724 -0.053203136 -0.05608167
-0.17709783 0.1667708 0.10630671 -0.08829669 0.017594516 -0.034049112 0.20957522 0.037441015
-0.022613874 -0.17561026 0.0911322 -0.04599662 -0.09716001 -0.06878269 -0.07784327 -0.19691017
0.12638281 0.114008196 -0.0011694278 0.2182457 0.033293515 0.049891688 -0.061317064 -0.15598226
-0.1378747 0.06472892 0.054380048 0.018610846 0.023705896 0.1986001 -0.0670543 -0.027342483
0.16024683 0.057594292 -0.03480909 0.07573648 0.08091567 -0.1837356 0.021885246 0.042086076
0.10820037 -0.058639914 0.11944406 0.15093943 0.13284953 0.040374454 0.17701697 0.057013582
-0.016494649 0.09400334 0.010030415 -0.14553659 0.114911616 0.032167554 -0.06376079 -0.13576889
00000000: 2d8d 0c3e 54d6 d2bc 1bb6 89bd d99b a8bd
00000010: dd49 873c ccff 16bd 839a d1bd 97b0 aabd
00000020: e4d3 2a3e 2f01 40be 22a1 e33c e59a 0a3d
00000030: e313 943d ddcb 2fbd 577f b0bd d279 b7bd
00000040: 4f86 2fbe d893 1dbc 0d8a 3a3d a782 253d
00000050: d1aa 9b3d 6275 cabc 951c 9ebb 9964 c43c
00000060: de5b 2cbe 264e c53c e81c c4bd 3708 6e3d
00000070: ce83 54be 966d 54bc 64d2 283d 020e 603d
00000080: 9eba c43c 4c5c 73bd 002a 67bd fa2a 023e
00000090: 1db1 b63d 5781 943c 3980 0ebd cbc5 5a3e
000000a0: dbfd 0c3d c4b4 cc3c b978 043e cc36 013c
000000b0: d641 0bbe 4f10 43be 68b3 90bd 2ffd 2abd
000000c0: 3ce8 b8bc 124e ce3c aac1 303d 38eb 063e
000000d0: d14a e93b c101 023d ff5c 1b3d 230a bb3d
000000e0: f1e4 e33d 9a11 0dbe 59e7 c53d 6eea 753c
000000f0: c5d9 71be aef5 c33d 3e1e 963c 81d6 20be
00000100: bfb7 9bbe 7508 58bc 111a 563d 79a7 00bd
00000110: ee70 aabe 92e4 02be d8f1 903c 8da2 ddbd
00000120: 73bb a13d 02fb 0bbb 7967 d0bb fdbc 9c3d
00000130: 3b05 91bd 800c a2bd 4380 b43c 4030 3c3d
00000140: eada ea3d 0a3c 843d 94dd 183e ad01 c43c
00000150: f199 e63d a7e8 5fbd 571d 403e 4666 76bc
00000160: 3140 c83d 89b3 2b3d 3fc5 173d e419 cabd
00000170: 6655 79be 5158 39bd 09e4 8ebd f874 ca3d
00000180: 48c9 c2bd cc9f 34bd 2269 1b3c fecf 553c
00000190: 0566 83bd ba64 efbc 7557 89bc 3c37 7a3d
000001a0: 3527 80bd 68f4 e9bd 79c3 203d f969 1c3e
000001b0: b0ec 99bc 400e bcbd ec70 07be 516a 633d
000001c0: 8d29 76bd 0dfe 15bd 6385 a6bb 9296 813d
000001d0: 8ce7 d43d 6364 9b3b c8ea 0ebd 511d 273d
000001e0: ea94 493e 6f4d ac3d 91e8 1dbe a4a6 2a3e
000001f0: cd82 6abc b3bc 163d 1b35 b4bd b350 e23d
00000200: f9af 27bc 4a44 a3bd 82f2 0a3e 5570 fbbc
00000210: dd46 cfbd 3722 3c3e 43b7 25bc bffe 1d3e
00000220: 2807 d73c ec48 65bd 174a c0bc 616e 28bd
00000230: 92c2 c0bd 6bef d7bd daf5 66bd dbd9 ce3b
00000240: a2e5 b83d 214f 333e a125 143e 4617 323d
00000250: af03 30bc 9068 9dbd 4fc2 843d 18b6 a9bc
00000260: 9831 8a3d b43e 5dbe ab9d 1abd 7165 09be
00000270: 3099 b7be d611 dbbd 673e e0bd 4a94 a73d
00000280: 817f 76be 7e17 a43d 5c51 6cbc f9a9 a73b
00000290: 8578 3ebe f0d4 8ebe f577 983c fa75 27bd
000002a0: ab22 893e ba37 c9bd a762 fdbd beee 8fbd
000002b0: 0088 26be 70f4 c1bb 7295 863d 202b fc3c
000002c0: 1ae1 c23b 316f a83d 3248 0a3e 1ff4 28be
000002d0: 8286 cebc 9d06 ad3d b74a 1bbd 6920 0dbe
000002e0: 8a2c 473e 3835 ee3c 72d9 783d 9305 bebd
000002f0: fb72 703d e543 e7bc 09c5 34bd 68ab cf3d
00000300: cbac 2abd dc18 da3c 8154 cb3d b876 123d
00000310: a64f b93d d818 72bd 88eb 59bd e5b5 65bd
00000320: 2259 35be f7c5 2a3e 55b7 d93d e5d4 b4bd
00000330: 6022 903c 1577 0bbd e39a 563e c05b 193d
00000340: bb40 b9bc 2dd3 33be 85a3 ba3d f466 3cbd
00000350: d4fb c6bd f0dd 8cbd 4b6c 9fbd d2a2 49be
00000360: 7f6a 013e 217d e93d 7c47 99ba cd7b 5f3e
00000370: c85e 083d 3a5b 4c3d 9a27 7bbd d0b9 1fbe
00000380: 062f 0dbe 9990 843d 9dbd 5e3d c675 983c
00000390: de32 c23c d35d 4b3e c453 89bd 58fd dfbc
000003a0: bf17 243e fee7 6b3d fa93 0ebd ba1b 9b3d
000003b0: 1db7 a53d 2f25 3cbe b048 b33c 7362 2c3d
000003c0: 2898 dd3d 6830 70bd 169f f43d de8f 1a3e
000003d0: b509 083e af5f 253d f043 353e 1387 693d
000003e0: c91f 87bc d384 c03d 9c56 243c 8b07 15be
000003f0: c856 eb3d 20c2 033d 0495 82bd 0007 0bbe

Conv1.bias f4 [24]
-0.04117072 -0.018593494 -0.0041032406 -0.060296126 -0.019438751 0.020312848 -0.046347298 0.010945767
-0.028125966 -0.01220614 -0.055523068 -0.0036397437 -0.024123387 -0.00044695268 -0.023647165 -0.0020452829
-0.035074297 -0.027617091 0.010045534 -0.033845868 -0.016099727 -0.025512673 -0.039752062 -0.0581009
00000000: a1a2 28bd 6251 98bc 7a74 86bb 12f9 76bd
00000010: 043e 9fbc 2167 a63c aad6 3dbd e055 333c
00000020: 6d68 e6bc 43fc 47bc 286c 63bd c488 6ebb
00000030: 699e c5bc f954 eab9 b3b7 c1bc 270a 06bb
00000040: 11aa 0fbd 3d3d e2bc 0696 243c f7a1 0abd
00000050: 93e3 83bc f4ff d0bc 0fd3 22bd 36fb 6dbd

Conv4.kern f4 [3, 3, 48, 64]
0.08668538 -0.08717389 -0.013552781 -0.07161965 0.0698018 0.073365055 -0.08921401 -0.06904417
-0.022899862 -0.07747581 0.14718822 -0.030890133 0.10777725 -0.015377841 0.03280266 0.16036358
0.103440575 -0.014894862 -0.023451297 0.039523248 0.13668446 -0.031017914 -0.19698292 0.061357796
0.11790075 0.004045365 0.053307988 -0.026627494 0.032050557 -0.04945971 -0.0026284056 -0.14199007
0.18061522 -0.060696267 0.078120165 0.14686462 -0.12867472 -0.17004514 -0.09844216 0.20223875
0.075468786 0.06139322 0.19066508 -0.05144649 0.14859696 0.0049449485 0.06832671 -0.10426594
-0.010437065 -0.09492931 0.071938895 0.17827047 -0.04677587 -0.09241438 0.11791573 0.078767054
0.21235096 0.07927996 -0.09058293 0.05849491 -0.07372753 0.10238609 -0.09729834 -0.04904583
-0.06851521 -0.070582576 -0.015142375 0.26976323 -0.13099483 -0.0029701134 0.036153197 -0.0029797016
0.11533958 0.017147265 -0.06660163 -0.0609108 0.026570877 -0.0003674243 -0.03480023 -0.088424265
-0.06664783 0.111915685 -0.17691234 0.0020180482 0.062481318 0.055684157 -0.22774418 -0.2161725
0.057861187 0.0098472675 -0.014931358 -0.092007354 -0.046526372 0.023106625 0.13462734 0.068773344
0.062493216 -0.07826335 -0.015508123 -0.0466069 0.03215037 0.025189267 0.057120822 -0.012152119
0.0534038 -0.034214117 -0.03462318 0.10202869 0.20057924 0.13612194 -0.029541487 -0.009456462
0.006255552 0.07751169 0.17512387 -0.18506052 0.19551201 -0.16168135 0.048655827 0.008055864
-0.048585407 0.01864915 0.16485886 -0.19915818 -0.06860032 0.20037691 -0.027557282 -0.116755165
-0.23478326 0.056929428 0.109995075 0.017412717 -0.08682166 -0.24425095 -0.058485437 0.14867602
0.10437355 0.07822825 -0.032703612 -0.04218761 -0.019388225 0.04963221 0.12135659 0.019400144
-0.15238196 -0.08269474 -0.14721319 0.059097998 -0.08069583 -0.089978814 0.046800744 0.082299605
0.21446157 0.11853226 0.17538889 0.016719664 0.2395542 0.09976031 -0.0053263535 0.167824
0.1873197 0.06342867 -0.07493196 0.06824908 -0.05000331 0.23408869 0.12792476 0.22811502
0.019704368 -0.16322187 0.071781464 0.08138622 -0.022321142 -0.17148617 -0.0148180965 -0.011911184
0.16962291 0.054161996 0.11667864 -0.13275181 -0.12752561 0.15582529 -0.21007246 0.054953665
0.05386013 -0.24170437 -0.16186394 -0.06168847 0.006549232 0.007434888 -0.13598643 -0.028103782
-0.16947496 -0.109949425 -0.096238256 0.06485049 -0.008207352 -0.073059045 -0.017180687 0.078445785
-0.0398178 0.18476991 0.09029441 0.099238776 -0.121041276 -0.07603461 -0.1138795 -0.14403686
-0.08777175 -0.042080287 0.059920136 0.13974564 -0.09904726 0.11903424 -0.13577387 -0.08403368
-0.06502149 -0.020973418 0.107118644 0.11902766 -0.052750006 0.15200497 0.014397748 0.060340445
-0.05449408 -0.0012283927 -0.124765016 0.18875115 0.04736409 0.010606111 0.055730574 -0.09109004
0.11157682 0.00048131504 0.12692653 -0.09118227 0.1311696 0.012453686 0.03412145 0.055659518
0.021887193 0.007940721 -0.099867664 -0.101097174 -0.019824237 0.03042109 0.008523105 -0.060071133
-0.11509869 -0.16211501 -0.10181593 0.033114813 -0.08133673 0.18081512 -0.22536306 -0.025451284
00000000: 1b88 b13d 3988 b2bd 7c0c 5ebc 53ad 92bd
00000010: 3ff4 8e3d 6b40 963d d6b5 b6bd 0867 8dbd
00000020: 7e98 bbbc a3ab 9ebd 82b8 163e 4e0d fdbc
00000030: 52ba dc3d 57f3 7bbc 155c 063d 5a36 243e
00000040: a7d8 d33d 9409 74bc ef1c c0bc 21e3 213d
00000050: 03f7 0b3e 4819 febc e4b5 49be 5052 7b3d
00000060: f375 f13d fb8e 843b 7a59 5a3d e721 dabc
00000070: 7247 033d 4496 4abd 5441 2cbb d865 11be
00000080: 32f3 383e a69c 78bd 77fd 9f3d ae63 163e
00000090: 4ec3 03be 5020 2ebe 0b9c c9bd ad17 4f3e
000000a0: 618f 9a3d 7577 7b3d b53d 433e 8eb9 52bd
000000b0: cd29 183e 3c09 a23b e0ee 8b3d 6289 d5bd
000000c0: 3900 2bbc 4c6a c2bd b354 933d 898c 363e
000000d0: 0e98 3fbd c043 bdbd cd7d f13d 9f50 a13d
000000e0: 8872 593e 885d a23d 8b83 b9bd 5c98 6f3d
000000f0: 76fe 96bd ccaf d13d 5a44 c7bd 48e4 48bd
00000100: b451 8cbd 998d 90bd b917 78bc 681e 8a3e
00000110: 8223 06be 3ca6 42bb 6015 143d 1947 43bb
00000120: 2837 ec3d 6c78 8c3c 6f66 88bd 9a7d 79bd
00000130: 2bab d93c dba2 c0b9 b08a 0ebd c817 b5bd
00000140: a87e 88bd 0d34 e53d 8228 35be 3b41 043b
00000150: 69ec 7f3d 1215 643d c535 69be 535c 5dbe
00000160: daff 6c3d 6f56 213c a8a2 74bc 5a6e bcbd
00000170: 7092 3ebd 1b4a bd3c c0db 093e 0ad9 8c3d
00000180: e3f8 7f3d 8948 a0bd c815 7ebc e0e6 3ebd
00000190: 1bb0 033d b959 ce3c 86f7 693d ae19 47bc
000001a0: f1bd 5a3d 1a24 0cbd 09d1 0dbd 6bf4 d03d
000001b0: a564 4d3e 8d63 0b3e fd00 f2bc 47ef 1abc
000001c0: 60fb cc3b 73be 9e3d ac53 333e 8180 3dbe
000001d0: 4d34 483e cc8f 25be 554b 473d befc 033c
000001e0: 7e01 47bd 1ac6 983c c3d0 283e 1ff0 4bbe
000001f0: 537e 8cbd 9b2f 4d3e cfbf e1bc 551d efbd
00000200: 066b 70be d52e 693d 1945 e13d 1da5 8e3c
00000210: 8ecf b1bd ec1c 7abe 6d8e 6fbd 873e 183e
00000220: cdc1 d53d 2236 a03d 39f4 05bd eacc 2cbd
00000230: 0ed4 9ebc 254b 4b3d ce89 f83d 0ded 9e3c
00000240: 040a 1cbe dc5b a9bd 0ebf 16be be10 723d
00000250: db43 a5bd d046 b8bd 23b2 3f3d b28c a83d
00000260: d09b 5b3e 0bc1 f23d 2599 333e adf7 883c
00000270: b24d 753e 224f cc3d b188 aebb 0eda 2b3e
00000280: bcd0 3f3e e4e6 813d ed75 99bd 2cc6 8b3d
00000290: 45d0 4cbd f2b4 6f3e b5fe 023e fc96 693e
000002a0: 0e6b a13c a223 27be 2902 933d d2ad a63d
000002b0: d4da b6bc 129a 2fbe 9ac7 72bc 2027 43bc
000002c0: a1b1 2d3e f8d8 5d3d 36f5 ee3d 17f0 07be
000002d0: 1396 02be aa90 1f3e 3c1d 57be 1817 613d
000002e0: 719c 5c3d 5a81 77be a9bf 25be 0dad 7cbd
000002f0: f19a d63b 5ca0 f33b 0740 0bbe e739 e6bc
00000300: d88a 2dbe 2a2d e1bd 9018 c5bd 55d0 843d
00000310: 2178 06bc fb9f 95bd 83be 8cbc 2fa8 a03d
00000320: fd17 23bd 5334 3d3e 47ec b83d b33d cb3d
00000330: 7de4 f7bd 09b8 9bbd a839 e9bd 667e 13be
00000340: adc1 b3bd 615c 2cbd d16e 753d 7b19 0f3e
00000350: 4ad9 cabd 39c8 f33d 4e08 0bbe da19 acbd
00000360: fd29 85bd 72d0 abbc 0561 db3d c6c4 f33d
00000370: 6410 58bd 31a7 1b3e 88e4 6b3c 8b27 773d
00000380: 2f35 5fbd 0502 a1ba cd84 ffbd fb47 413e
00000390: d900 423d 41c5 2d3c be45 643d 6a8d babd
000003a0: 6382 e43d 0359 fc39 07f9 013e c5bd babd
000003b0: 5351 063e 8c0a 4c3c efc2 0b3d 3cfb 633d
000003c0: c54c b33c cc19 023c 6b87 ccbd 090c cfbd
000003d0: 7066 a2bc a635 f93c 7ea4 0b3c 260d 76bd
000003e0: ddb8 ebbd 7a01 26be df84 d0bd 66a3 073d
000003f0: df93 a6bd 9927 393e 93c5 66be 367f d0bc

Conv6.bias f4 [100]
-0.011450929 -0.0019736364 0.02142364 0.035232544 0.063808754 -0.012699629 0.09461935 0.08399386
0.051430374 -0.023531819 -0.00094036193 -0.017794278 0.05709983 -0.0151476795 -0.0035199232 0.014430386
0.002893091 0.0858691 0.009553656 0.06564506 0.06316527 -0.007379095 0.0043223933 -0.011487332
0.06367186 -0.0112597 0.07706413 -0.00027165216 -0.018244851 -0.0062237964 -0.007996301 0.058541454
-0.0184858 -0.0017183893 0.07969378 -0.011088825 0.00042383114 -0.021809695 0.0715359 0.057000134
-0.012475774 0.015473547 0.08466397 -0.022985721 0.07184347 0.07298347 -0.01639293 -0.013544315
-0.007540315 -0.027925782 -0.003596819 -0.0055374606 0.05547709 -0.0131044295 0.038708866 0.0735463
-0.0021811426 -0.005841847 0.06762763 0.067467615 -0.014027694 0.014572497 -0.012393375 0.0962508
0.0028050162 -0.017682118 0.085816815 0.07904812 -0.016548665 0.07627376 0.058808237 -0.008093894
-0.010258607 -0.0143424515 0.054556385 -0.010736975 0.0065813833 -0.016583297 0.07991717 0.019381639
0.008333006 0.08853911 0.021643901 0.0751332 0.019993622 0.0024835786 -0.01329191 0.054147586
-0.008756181 0.07329365 0.035041038 -0.018077223 -0.012116983 0.07731251 0.06258239 0.054001562
-0.01812979 0.09271213 0.06833575 0.07383212
00000000: ad9c 3bbc 2058 01bb a180 af3c 0050 103d
00000010: 2aae 823d 1b12 50bc cac7 c13d f904 ac3d
00000020: a8a8 523d cdc5 c0bc 9f82 76ba 4ec5 91bc
00000030: 83e1 693d f92d 78bc 83ae 66bb 6d6d 6c3c
00000040: 039a 3d3b 24dc af3d f086 1c3c eb70 863d
00000050: cb5c 813d 56cc f1bb dda2 8d3b 5d35 3cbc
00000060: 6466 823d 9b7a 38bc ccd3 9d3d 896c 8eb9
00000070: 3a76 95bc fdf0 cbbb eb02 03bc 2ac9 6f3d
00000080: 886f 97bc 943b e1ba 7e36 a33d e7ad 35bc
00000090: a735 de39 3faa b2bc 6a81 923d f978 693d
000000a0: 3067 4cbc c384 7d3c 4e64 ad3d 8d4c bcbc
000000b0: ab22 933d 5c78 953d 774a 86bc f9e8 5dbc
000000c0: bf14 f7bb 9cc4 e4bc 9cb8 6bbb 9673 b5bb
000000d0: f23b 633d f6b3 56bc 308d 1e3d 719f 963d
000000e0: 80f1 0ebb f76c bfbb 5b80 8a3d 762c 8a3d
000000f0: 6ad4 65bc 7cc1 6e3c 950d 4bbc 241f c53d
00000100: 5dd4 373b 17da 90bc bac0 af3d fbe3 a13d
00000110: 1191 87bc 6b35 9c3d e8e0 703d 419c 04bc
00000120: b713 28bc 9afc 6abc 8476 5f3d 23ea 2fbc
00000130: a5a8 d73b b2d9 87bc 9dab a33d 3ec6 9e3c
00000140: 2987 083c fe53 b53d 8d4e b13c 6fdf 993d
00000150: aac9 a33c 89c3 223b 50c6 59bc dcc9 5d3d
00000160: 1676 0fbc fb1a 963d 3187 0f3d af16 94bc
00000170: 4f86 46bc 0556 9e3d 322b 803d be30 5d3d
00000180: ed84 94bc dbdf bd3d 9df3 8b3d 4b35 973d

Conv3.bias f4 [48]
0.05603392 0.05434198 0.009097269 -0.02104215 0.0300193 0.014630726 -0.0036971804 0.022547167
0.03449121 0.002646037 -0.017123204 -0.021947367 0.03225216 -0.0001456701 -0.029926602 -0.015382331
0.01762379 -0.033580672 0.06860346 -0.011546965 0.04119709 -0.022374326 -0.036394343 -0.015351191
-0.011219431 0.05828988 -0.031204628 -0.027453113 0.028998248 -0.027182769 -0.013958071 0.015570231
0.0060936497 -0.005497079 -0.027036462 0.012610917 0.011689475 -0.009834839 -0.004508224 -0.011385915
0.042776417 0.01202419 -0.019514604 0.011452247 0.049984597 -0.026365459 0.02114616 0.039369505
00000000: d383 653d b295 5e3d b60c 153c 9660 acbc
00000010: 09eb f53c b6b5 6f3c 654c 72bb d6b4 b83c
00000020: a846 0d3d 2269 2d3b f645 8cbc f7ca b3bc
00000030: d71a 043d 05bf 18b9 a228 f5bc 2c06 7cbc
00000040: c45f 903c e38b 09bd f97f 8c3d 7b2f 3dbc
00000050: 48be 283d 5d4a b7bc 3c12 15bd 9083 7bbc
00000060: b4d1 37bc 5fc1 6e3d d9a0 ffbc 5ae5 e0bc
00000070: bc8d ed3c 66ae debc 65b0 64bc 481a 7f3c
00000080: 3dad c73b d720 b4bb 927b ddbc 059e 4e3c
00000090: 3685 3f3c 4e22 21bc b9b9 93bb fd8b 3abc
000000a0: 5336 2f3d 1c01 453c 17dd 9fbc 35a2 3b3c
000000b0: a6bc 4c3d 60fc d7bc b63a ad3c eb41 213d

Conv6.kern f4 [1, 1, 128, 100]
0.12996465 -0.0891374 -0.03068414 -0.18771048 -0.17501971 0.28399652 -0.17940275 -0.11837534
-0.054303072 0.33296943 0.1058969 0.13524972 -0.056269657 0.3123676 0.32778394 -0.08863727
0.3871981 -0.23749338 0.2614765 -0.26416412 -0.14564982 0.2641294 -0.02467256 0.20313855
-0.17899744 -0.100976825 -0.16751078 0.067581154 0.012182943 0.24606188 0.038352754 -0.3103622
-0.14289492 0.22644845 -0.29273942 0.12718463 0.0017471903 0.22687861 -0.2138655 -0.089934625
0.10055104 0.028378733 -0.32435274 0.1798775 -0.20770413 -0.28754756 0.13395481 0.23406993
-0.008960024 -0.17470351 0.23408255 0.12593515 -0.259775 -0.03919963 -0.25145918 -0.17617165
0.12961246 0.18930586 -0.21297324 -0.16951087 0.12909864 0.11822669 0.13689694 -0.1479641
0.13942061 0.18520482 -0.19896995 -0.15754421 -0.22334303 -0.33397675 0.17413247 -0.04422418
0.16600627 0.24756533 0.08672824 -0.09830736 0.30565917 0.25896388 -0.17719105 0.17698458
-0.091323175 -0.24966888 0.207742 -0.11997311 0.3929641 0.2764899 0.15799104 -0.20491858
0.20294139 -0.18290891 0.23841864 0.105839215 0.218484 -0.010777212 -0.20340902 -0.16870235
0.17558256 -0.22958805 -0.14183435 -0.2015646 0.14177117 -0.1676136 0.06930878 -0.27645752
-0.30083942 0.18880302 -0.1739559 -0.08569375 -0.062109176 0.1722505 0.17035301 0.14313686
-0.0380447 0.12024935 0.111344844 0.32388398 0.11959877 -0.25656626 0.16543855 -0.11952294
-0.04032484 0.18590339 0.009745322 0.31753808 -0.057977352 -0.06555755 -0.20366314 -0.009866206
0.06610603 0.15941077 0.2186748 -0.15824978 -0.015959417 0.09186861 -0.26325563 0.08386799
-0.1443249 0.1208977 -0.11848312 -0.13297002 0.20425165 0.19173098 -0.39351556 0.06771789
-0.15521678 -0.04089953 -0.034705173 0.22742933 0.015783696 -0.14996828 0.06305909 0.14130288
-0.049753156 -0.0009054139 -0.2358124 -0.11076132 -0.07518048 -0.03954842 -0.29642257 -0.29181212
0.08571766 0.14508264 0.15167607 -0.06677193 0.036934182 0.29326722 -0.19835795 -0.15353045
0.2086464 -0.17131971 0.28995115 -0.086705714 0.13499376 0.3682104 -0.0108068865 -0.004923676
0.21302909 0.2603912 -0.16801998 0.13358493 0.10285048 -0.020513806 0.24977736 -0.23997228
0.037218206 0.12626018 0.104348704 -0.02839156 -0.013948183 -0.14165296 0.13212053 0.06001818
0.11012783 -0.06687881 -0.26697728 -0.16207978 0.1827727 -0.19342834 -0.26241076 -0.1618326
0.002223213 -0.022095503 -0.17642228 -0.19523071 -0.11030266 -0.0623063 -0.1297345 -0.02593365
0.10353508 -0.068378806 -0.019512987 -0.12720795 0.088238485 0.0040948424 0.014582755 -0.1431217
0.034501735 0.04264919 -0.00026707028 0.03677727 -0.039575104 -0.014199944 -0.11364025 0.15734519
0.07829764 -0.03909379 -0.017696021 0.15991035 -0.050467256 -0.0137295965 -0.06443471 -0.08088985
0.035687324 -0.047465805 -0.076188274 -0.09290486 -0.1149636 0.006468621 0.14879131 0.009911088
0.0069153546 0.08617366 0.06815938 0.1121875 -0.030185528 -0.11317621 0.11127638 -0.08694063
0.009499778 0.17790228 -0.15892023 0.0062138108 -0.14336276 -0.023540026 -0.08809579 -0.0032812196
00000000: 7415 053e ab8d b6bd 4e5d fbbc 2d37 40be
00000010: 5e38 33be fe67 913e 5bb5 37be c56e f2bd
00000020: e66c 5ebd f87a aa3e 79e0 d83d e77e 0a3e
00000030: 037b 66bd a5ee 9f3e 4cd3 a73e 7587 b5bd
00000040: d43e c63e 7731 73be 3fe0 853e 8540 87be
00000050: 3a25 15be f83b 873e 1c1e cabc 8d03 503e
00000060: 1b4b 37be f0cc cebd f287 2bbe fd67 8a3d
00000070: f79a 473c a5f7 7b3e c717 1d3d cbe7 9ebe
00000080: 0c53 12be 1ae2 673e f1e1 95be b03c 023e
00000090: fa01 e53a de52 683e 8fff 5abe a52f b8bd
000000a0: b4ed cd3d 847a e83c 9011 a6be cf31 383e
000000b0: 64b0 54be 6f39 93be 732b 093e 07b0 6f3e
000000c0: 11cd 12bc 7ae5 32be 56b3 6f3e 25f5 003e
000000d0: 3b01 85be cb8f 20bd 42bf 80be 5766 34be
000000e0: 21b9 043e 65d9 413e a815 5abe 4294 2dbe
000000f0: 6f32 043e d620 f23d b62e 0c3e e783 17be
00000100: 47c4 0e3e 55a6 3d3e c7be 4bbe 4553 21be
00000110: 09b4 64be 00ff aabe c84f 323e 6a24 35bd
00000120: 8cfd 293e c481 7d3e 939e b13d 5f55 c9bd
00000130: 5c7f 9c3e ea96 843e 9271 35be 723b 353e
00000140: a507 bbbd 33a9 7fbe 52ba 543e 76b4 f5bd
00000150: 9732 c93e 1690 8d3e 67c8 213e 2dd6 51be
00000160: decf 4f3e 794c 3bbe 0424 743e 3bc2 d83d
00000170: 45ba 5f3e e792 30bc 744a 50be 4fc0 2cbe
00000180: eacb 333e 2119 6bbe 063d 11be f366 4ebe
00000190: 762c 113e e6a2 2bbe c3f1 8d3d d78b 8dbe
000001a0: a007 9abe 9455 413e 7f21 32be 3480 afbd
000001b0: 3166 7ebd 6f62 303e 0571 2e3e 7892 123e
000001c0: c2d4 1bbd 4b45 f63d c408 e43d 1fd4 a53e
000001d0: 33f0 f43d a75c 83be b968 293e 71c8 f4bd
000001e0: a92b 25bd 755d 3e3e d8aa 1f3c 5a94 a23e
000001f0: a979 6dbd 0943 86bd 128d 50be dea5 21bc
00000200: 9962 873d 943c 233e 49ec 5f3e 3b0c 22be
00000210: 53bd 82bc 9c25 bc3d 71c9 86be fbc2 ab3d
00000220: e8c9 13be 3799 f73d 47a7 f2bd 4b29 08be
00000230: 5827 513e 2055 443e df7a c9be adaf 8a3d
00000240: 26f1 1ebe 4486 27bd 0327 0ebd 3ce3 683e
00000250: cf4c 813c 4991 19be 2025 813d b4b1 103e
00000260: f7c9 4bbd 4c59 6dba ce78 71be d5d6 e2bd
00000270: 39f8 99bd 86fd 21bd b3c4 97be 6668 95be
00000280: be8c af3d 8b90 143e f950 1b3e b9bf 88bd
00000290: 4c48 173d 1f27 963e 591e 4bbe 1637 1dbe
000002a0: 67a7 553e 6f6e 2fbe 7a74 943e c492 b1bd
000002b0: ce3b 0a3e 1386 bc3e 5e0f 31bc ca56 a1bb
000002c0: 4c24 5a3e ff51 853e 6e0d 2cbe 7dca 083e
000002d0: 46a3 d23d 920c a8bc a3c5 7f3e 4bbb 75be
000002e0: 1e72 183d 594a 013e c6b4 d53d 6b95 e8bc
000002f0: eb86 64bc 790d 11be 9b4a 073e a0d5 753d
00000300: b38a e13d c2f7 88bd 3fb1 88be 3ef8 25be
00000310: c428 3b3e 1412 46be b45a 86be 72b7 25be
00000320: 53b3 113b a101 b5bc 0ba8 34be 8fea 47be
00000330: 5ce6 e1bd e434 7fbd 1fd9 04be ce72 d4bc
00000340: 330a d43d 300a 8cbd b3d9 9fbc cd42 02be
00000350: 61b6 b43d 072e 863b 82ec 6e3c 7f8e 12be
00000360: b151 0d3d ebb0 2e3d 9105 8cb9 c3a3 163d
00000370: 8119 22bd e2a6 68bc 38bc e8bd 191f 213e
00000380: 835a a03d cf20 20bd 3ff7 90bc 8abf 233e
00000390: c1b6 4ebd 1af2 60bc 58f6 83bd 94a9 a5bd
000003a0: df2c 123d 816b 42bd 9908 9cbd e744 bebd
000003b0: 0972 ebbd baf6 d33b c05c 183e 1e62 223c
000003c0: 339a e23b d17b b03d 2597 8b3d 8fc2 e53d
000003d0: a447 f7bc eec8 e7bd dfe4 e33d ee0d b2bd
000003e0: f5a4 1b3c 042c 363e fcbb 22be 399d cb3b
000003f0: b0cd 12be 03d7 c0bc 916b b4bd bb09 57bb

Conv2.kern f4 [3, 3, 24, 36]
0.077251874 -0.018072631 0.18850888 -0.014340494 0.17202942 -0.04129776 0.1449393 -0.085068695
-0.15902574 0.032822806 0.06565868 0.05336289 0.020891322 -0.07809454 0.21340561 -0.02896586
-0.16439165 -0.1264517 -0.06926619 -0.024408618 -0.054673877 -0.04054749 -0.0049254424 0.05855851
0.020472676 -0.073757336 -0.103133105 0.1355905 0.011889807 0.063580036 0.122660264 0.074915536
0.10751913 0.056367826 -0.11818482 0.07695639 0.11966093 -0.23281662 -0.023402119 0.1103957
-0.19163066 -0.11551261 -0.1952837 -0.004147412 -0.08014793 -0.010244334 0.0951387 -0.011962512
-0.04474562 -0.17324015 -0.019805364 0.15072297 -0.01512069 -0.16934347 -0.03922851 0.12096095
-0.07266414 0.062221054 -0.044403557 0.11639976 0.13621241 0.070802145 0.060167357 0.023760961
-0.16606587 -0.12184044 0.0057434877 -0.18908447 -0.10685027 -0.053852476 0.17784552 0.061556585
0.039993208 0.055689976 0.17334211 0.20713173 0.084928565 -0.14012599 0.003993298 -0.13235876
-0.044770345 0.013375147 -0.1406549 0.23948216 0.03798271 0.18286318 0.07450796 -0.113151625
0.23354545 -0.16070549 0.03458254 -0.037111614 -0.15978102 0.024640698 -0.04082849 0.05203976
-0.0044308463 -0.0046949936 -0.16324373 0.07526178 0.34853154 0.31096846 -0.044071604 0.114871405
0.19761252 -0.124939844 0.13093767 -0.03901724 -0.08012908 -0.06704195 -0.005246527 0.31895834
0.09444159 0.05324238 -0.027658321 -0.021919176 0.26002043 -0.08052822 0.06493481 -0.012694381
-0.1421745 0.21096408 -0.1194069 -0.14954564 -0.0882629 0.36219406 0.09709539 0.1384485
-0.12268047 0.13322382 -0.14856656 0.01455033 0.01699025 -0.0049196887 0.016619794 0.22338116
0.22436456 0.2543648 0.20225216 -0.06934953 0.041682277 -0.019270979 0.04770098 -0.06845152
-0.05513315 -0.025153026 -0.016408423 0.0020845244 -0.06761923 0.084835306 -0.11582895 0.0075725727
-0.14115357 -0.074876204 0.050014745 -0.13734157 -0.10278923 -0.12033896 -0.02050338 -0.1385637
0.109726556 -0.02205352 -0.030487046 -0.1402179 0.088140436 0.14041595 0.0027154582 -0.10034957
-0.00093080994 -0.016856173 -0.08131738 0.03038018 0.15620652 -0.061367918 0.09677752 0.21504913
0.18448277 0.034319483 -0.0675362 0.10994699 -0.10626605 0.009134046 0.13292678 -0.15487802
0.020970041 0.12122545 -0.1522329 -0.0024900336 0.08027014 -0.15925814 -0.057220463 -0.054804265
0.12916817 -0.0051284158 0.10909073 -0.057083353 0.035974108 0.03080764 -0.019688629 0.027338795
-0.040228117 -0.07791157 -0.01317735 -0.017890373 0.05171077 -0.043061823 0.16336623 0.082446225
-0.034468453 -0.0642142 0.033589855 -0.004841446 0.124550566 0.071636505 -0.064758316 -0.06199872
-0.13372119 -0.03417922 0.022928983 0.08473057 -0.0833814 -0.17500456 0.041746583 -0.08636702
-0.26631916 -0.13989528 -0.09758748 0.057511102 -0.083910316 -0.09984036 0.07372415 -0.08894674
-0.07422742 -0.06987472 0.1548033 -0.13568032 -0.013412218 0.031368814 -0.16682848 0.15385725
-0.058865007 0.07307544 -0.08786436 -0.048074428 -0.07051539 0.02212838 0.026976505 -0.14652796
-0.06865637 -0.05789498 0.037513923 0.0063977665 0.01975362 -0.098617375 -0.091044724 0.016095333
00000000: 3b36 9e3d 0e0d 94bc 7908 413e 64f4 6abc
00000010: 7b28 303e d727 29bd f86a 143e 7f38 aebd
00000020: a5d7 22be 3571 063d 0f78 863d 0c93 5a3d
00000030: 4724 ab3c 08f0 9fbd 0087 5a3e d049 edbc
00000040: 4956 28be 8e7c 01be 6fdb 8dbd 95f4 c7bc
00000050: b7f1 5fbd 2015 26bd 9b65 a1bb 0cdb 6f3d
00000060: 50b6 a73c 160e 97bd 7337 d3bd 3cd8 0a3e
00000070: 77cd 423c 4036 823d 4e35 fb3d 516d 993d
00000080: fd32 dc3d f3e1 663d e20a f2bd 509b 9d3d
00000090: ca10 f53d 7b67 6ebe cdb5 bfbc 2417 e23d
000000a0: d43a 44be e091 ecbd 73f8 47be 03e7 87bb
000000b0: 9924 a4bd dad7 27bc 14d8 c23d 69fe 43bc
000000c0: 2f47 37bd de65 31be dc3e a2bc 1f57 1a3e
000000d0: c5bc 77bc 6068 2dbe 13ae 20bd 60ba f73d
000000e0: f0d0 94bd 81db 7e3d 81e0 35bd ff62 ee3d
000000f0: 447b 0b3e b700 913d 0c72 763d 59a6 c23c
00000100: 2c0d 2abe 7b87 f9bd de33 bc3b 5c9f 41be
00000110: 50d4 dabd 6a94 5cbd 231d 363e c222 7c3d
00000120: ebcf 233d 2c1b 643d 9880 313e 571a 543e
00000130: 07ef ad3d 307d 0fbe 36da 823b 0e89 07be
00000140: 1c61 37bd 6f23 5b3c d707 10be d03a 753e
00000150: c293 1b3d 7c40 3b3e a197 983d 0abc e7bd
00000160: 8a26 6f3e fb8f 24be 6ca6 0d3d 5902 18bd
00000170: a39d 23be 4adb c93c c63b 27bd a527 553d
00000180: a230 91bb 76d8 99bb 5d29 27be d922 9a3d
00000190: ba72 b23e 4237 9f3e 6d84 34bd b341 eb3d
000001a0: f05a 4a3e 76e0 ffbd 8614 063e 8bd0 1fbd
000001b0: b71a a4bd 4a4d 89bd 0feb abbb 824e a33e
000001c0: 986a c13d af14 5a3d b493 e2bc d88f b3bc
000001d0: 6621 853e fbeb a4bd 8bfc 843d 18fc 4fbc
000001e0: 3196 11be f806 583e 9b8b f4bd 7e22 19be
000001f0: 2ec3 b4bd 8071 b93e f3d9 c63d 72c5 0d3e
00000200: e63f fbbd d36b 083e d521 18be 8264 6e3c
00000210: 232f 8b3c 5735 a1bb 3c26 883c 08be 643e
00000220: d3bf 653e 1a3c 823e 311b 4f3e 2007 8ebd
00000230: 09bb 2a3d 2cde 9dbc 1a62 433d 4f30 8cbd
00000240: 4cd3 61bd b80d cebc f56a 86bc 849c 083b
00000250: f37b 8abd 22be ad3d bb37 edbd 5823 f83b
00000260: 908a 10be b258 99bd 43dc 4c3d 45a3 0cbe
00000270: 2983 d2bd 4674 f6bd b4f6 a7bc a4e3 0dbe
00000280: 51b8 e03d 95a9 b4bc f8bf f9bc 4895 0fbe
00000290: f982 b43d 33c9 0f3e d4f5 313b 1384 cdbd
000002a0: 9901 74ba f515 8abc ba89 a6bd dbdf f83c
000002b0: 9af4 1f3e ed5c 7bbd 4b33 c63d d735 5c3e
000002c0: 0de9 3c3e 9692 0c3d 6b50 8abd e32b e13d
000002d0: 04a2 d9bd f7a6 153c f51d 083e 5898 1ebe
000002e0: 5dc9 ab3c 0c45 f83d f1e2 1bbe d52f 23bb
000002f0: ac64 a43d 9114 23be 0160 6abd 707a 60bd
00000300: a944 043e 450c a8bb f66a df3d 3cd0 69bd
00000310: 9659 133d 4e60 fc3c 0c4a a1bc 9cf5 df3c
00000320: 3dc6 24bd 1a90 9fbd d0e5 57bc d58e 92bc
00000330: acce 533d 9861 30bd 7a49 273e 91d9 a83d
00000340: cb2e 0dbd bc82 83bd 8495 093d fea4 9ebb
00000350: 5e14 ff3d 29b6 923d 02a0 84bd 5ff2 7dbd
00000360: 35ee 08be 83ff 0bbd 90d5 bb3c 3987 ad3d
00000370: dec3 aabd 6534 33be 77fe 2a3d 31e1 b0bd
00000380: fc5a 88be b540 0fbe f2db c7bd c390 6b3d
00000390: 2cd9 abbd 1a79 ccbd b0fc 963d b529 b6bd
000003a0: 8c04 98bd 7a1a 8fbd c284 1e3e c8ef 0abe
000003b0: ebbe 5bbc 967c 003d 16d5 2abe c18c 1d3e
000003c0: 6f1c 71bd 94a8 953d 3bf2 b3bd b1e9 44bd
000003d0: 5f6a 90bd 9446 b53c d5fd dc3c 6d0b 16be
000003e0: b69b 8cbd 4923 6dbd 33a8 193d 5ba4 d13b
000003f0: 58d2 a13c e8f7 c9bd a875 babd 5cda 833c

Conv7.kern f4 [1, 1, 100, 1]
0.06613948 -0.0055143223 -0.13141952 -0.1522584 -0.24512188 0.19183113 -0.14173086 -0.30329436
-0.14611465 0.06972741 0.23116343 0.10604475 -0.1474351 0.26091513 0.13495667 0.32452375
0.22488604 -0.08266692 0.13937612 -0.13727099 -0.15156929 0.09844141 -0.0641191 0.10010745
-0.12675853 -0.024447395 -0.15236504 0.2280777 -0.01536981 0.16861984 0.15397327 -0.26209888
0.023482697 0.25730065 -0.12506899 0.083070405 -0.058596216 0.2672023 -0.2305806 -0.11868413
0.081529826 0.1887317 -0.16162254 0.0760688 -0.2811533 -0.17579593 0.16741173 0.27253205
-0.014464172 0.0426559 0.13465855 0.11642689 -0.09911126 -0.111184195 -0.09441155 -0.19868748
0.18734711 0.04477138 -0.22650051 -0.2672475 0.056325402 0.13346751 0.21685109 -0.13384052
-0.040849656 0.21656181 -0.10073951 -0.097518444 0.08189717 -0.11829216 0.13713804 -0.045472655
0.023177719 0.2665701 -0.20685425 -0.033433657 0.15952256 0.25098288 -0.12157327 0.14874746
-0.06905761 -0.12756772 0.24144654 -0.12075513 0.16027044 0.16684131 0.1596036 -0.14680243
0.06999888 -0.12109269 0.19070825 0.21560341 0.2093261 -0.20485725 -0.090065934 -0.21592844
0.085887626 -0.119916454 -0.19318824 -0.08777386
00000000: 2374 873d 7db1 b4bb d792 06be a0e9 1bbe
00000010: 3b01 7bbe 616f 443e e521 11be 6649 9bbe
00000020: 149f 15be 3fcd 8e3d 1bb6 6c3e fd2d d93d
00000030: 3af9 16be ab96 853e 1532 0a3e fa27 a63e
00000040: 8748 663e 464d a9bd 9db8 0e3e c490 0cbe
00000050: fb34 1bbe a69b c93d e050 83bd 2205 cd3d
00000060: fdcc 01be e745 c8bc 9505 1cbe 338d 693e
00000070: a8d1 7bbc aeaa 2c3e 2bab 1d3e d331 86be
00000080: c95e c03c e9bc 833e 1612 00be d120 aa3d
00000090: 9602 70bd bdce 883e 521d 6cbe aa10 f3bd
000000a0: 1cf9 a63d e242 413e 6180 25be f6c9 9b3d
000000b0: 53f3 8fbe d903 34be fb6d 2b3e 5289 8b3e
000000c0: 22fb 6cbc f4b7 2e3d eee3 093e 3971 ee3d
000000d0: d8fa cabd 8ab4 e3bd d85a c1bd bb74 4bbe
000000e0: ecd7 3f3e 3262 373d c0ef 67be aad4 88be
000000f0: 77b5 663d b5ab 083e 360e 5e3e 7d0d 09be
00000100: f851 27bd 61c2 5d3e 8450 cebd c0b7 c7bd
00000110: b4b9 a73d 2943 f2bd ea6d 0c3e 8941 3abd
00000120: 33df bd3c e07b 883e 9ad1 53be bbf1 08bd
00000130: e259 233e d480 803e 68fb f8bd 4151 183e
00000140: 146e 8dbd 1da1 02be c33d 773e 774e f7bd
00000150: ef1d 243e 73d8 2a3e 206f 233e 6053 16be
00000160: 935b 8f3d 72ff f7bd 0649 433e 24c7 5c3e
00000170: 9559 563e 19c6 51be 7d74 b8bd 581c 5dbe
00000180: dae5 af3d c296 f5bd 23d3 45be c8c2 b3bd

Conv5.kern f4 [3, 3, 64, 128]
-0.109120466 0.024267854 -0.06395394 -0.04250256 0.03873466 -0.07528415 0.09711702 -0.0005331145
-0.00081707106 0.12167764 -0.065862246 0.08892316 -0.15486386 0.07670767 -0.047676336 -0.030436615
0.010287737 0.009078841 -0.14719963 -0.10054257 0.028892599 0.09757523 -0.048942227 0.061996374
-0.07413195 0.07925368 -0.17559409 -0.03541711 0.043038055 0.063954584 -0.13204396 -0.121405624
-0.14433716 -0.0830208 -0.07145007 0.121086955 -0.21326415 0.12301905 0.01681718 -0.15349796
0.00990832 -0.040387742 0.0029475065 -0.076953374 0.025953148 -0.037334546 -0.050700977 0.071661435
0.040909924 0.15149431 -0.008407243 0.066912584 -0.022178296 -0.108690225 0.07489475 0.13176244
-0.07958202 -0.24926136 0.041858524 0.053800702 -0.11632111 0.08039481 0.056454387 0.124894366
0.1902392 0.026353773 0.07169761 -0.018053286 -0.027966471 0.031205975 -0.019760456 0.05878979
0.07606286 -0.0029215938 -0.115626566 0.03429305 0.023410391 -0.10917069 -0.05521108 -0.058640912
0.054787006 -0.033079796 -0.13647702 0.10288461 0.107690535 -0.27142644 -0.025294004 -0.004287805
-0.086190194 -0.03704696 -0.1384156 0.11851616 0.04461786 -0.13309497 0.021489 -0.17610784
0.01694925 -0.010587181 -0.035467673 0.050456375 0.055793673 -0.20903401 0.03803855 0.115296416
0.070403144 0.05036031 0.15680057 -0.035030674 -0.10196259 0.19950135 -0.12804188 -0.021803945
0.13491482 -0.17658238 -0.181431 0.08077966 0.02169977 0.044380173 0.08364712 0.06865535
-0.012163261 -0.0188204 -0.19168316 -0.14664032 -0.047674812 0.05395763 -0.010731394 0.08145888
-0.20265572 -0.007146184 0.0016752655 -0.011447515 -0.07268557 0.07683812 -0.049098816 -0.14489058
-0.0108592445 0.07401998 -0.18184935 -0.08635456 0.04426916 0.034110185 -0.07575789 0.002562169
-0.055470884 -0.16153422 -0.10146642 0.096295916 0.09457997 -0.08742387 0.14607187 0.048111454
-0.072584614 0.15060778 0.15701163 -0.027989145 -0.027055725 0.1255389 -0.041009434 -0.016807884
0.13287495 -0.035259277 -0.015427801 0.03769719 -0.031828545 -0.12011996 -0.058029063 0.05811634
0.017109215 0.13817593 -0.045462865 0.14710529 0.060501922 0.034049228 -0.021052603 -0.059545543
-0.15299395 -0.05746868 0.14195935 -0.015042195 0.054577183 -0.061442796 -0.24091779 0.12371943
0.022619305 0.07600511 -0.14203596 0.12037708 0.04770284 -0.08495033 -0.26436895 0.03011607
0.047132645 -0.06479492 0.019991523 0.061942145 0.21750222 -0.16920657 -0.09774399 -0.11698196
-0.029051518 -0.089705765 0.13428897 -0.03523391 0.073244214 0.03158135 0.075406104 0.12521368
0.015532208 0.049749646 0.16064183 -0.16470674 -0.06549891 0.13900313 -0.006559183 -0.06862905
-0.02345238 -0.021153983 0.11038379 -0.21093795 -0.005058545 0.07213988 -0.120797925 0.008738577
-0.14157873 -0.041819807 0.04925236 -0.028747557 -0.06605708 0.09033296 -0.08453871 0.07040865
-0.09622605 0.0777867 -0.17463122 0.016924718 0.054748457 -0.08000591 0.026958432 -0.18472917
-0.064777136 0.13405612 0.020815676 -0.015998531 -0.07737404 0.1442168 0.025543094 0.102974884
0.039219495 -0.048204165 -0.12443576 0.015383628 -0.0080061555 -0.05385753 0.10432088 0.22513345
00000000: 8d7a dfbd 61cd c63c 49fa 82bd 2a17 2ebd
00000010: 3ca8 1e3d 942e 9abd 4ae5 c63d b5c0 0bba
00000020: b630 56ba 2032 f93d c9e2 86bd 591d b63d
00000030: a294 1ebe e918 9d3d 4348 43bd 3556 f9bc
00000040: e58d 283c 6bbf 143c 80bb 16be 43e9 cdbd
00000050: 2cb0 ec3c 86d5 c73d a577 48bd e9ef 7d3d
00000060: 7ed2 97bd c14f a23d f0ce 33be 8811 11bd
00000070: ac48 303d 9ffa 823d 8836 07be 83a3 f8bd
00000080: 1fcd 13be cf06 aabd 6a54 92bd 70fc f73d
00000090: eb61 5abe 69f1 fb3d 2fc4 893c 922e 1dbe
000000a0: 8256 223c 9e6d 25bd f42a 413b bb99 9dbd
000000b0: b29b d43c 1cec 18bd d4ab 4fbd 3bc3 923d
000000c0: 2a91 273d 5321 1b3e 88be 09bc 7709 893d
000000d0: 42af b5bc fb98 debd 6b62 993d bcec 063e
000000e0: e6fb a2bd 5f3e 7fbe d873 2b3d 205e 5c3d
000000f0: c339 eebd 09a6 a43d b73c 673d 9ec8 ff3d
00000100: 11ce 423e dee3 d73c 32d6 923d 7ce4 93bc
00000110: f119 e5bc aca3 ff3c aee0 a1bc 90cd 703d
00000120: d8c6 9b3d 3678 3fbb 9fcd ecbd df76 0c3d
00000130: 26c7 bf3c e294 dfbd 0325 62bd 7431 70bd
00000140: 5768 603d ae7e 07bd a2c0 0bbe 2bb5 d23d
00000150: db8c dc3d 68f8 8abe 5f35 cfbc b780 8cbb
00000160: 7c84 b0bd 8ebe 17bd d2bc 0dbe 9ab8 f23d
00000170: 38c1 363d 0c4a 08be b309 b03c 9d55 34be
00000180: 27d9 8a3c db75 2dbc 8d46 11bd 58ab 4e3d
00000190: e887 643d 030d 56be 50ce 1b3d 8720 ec3d
000001a0: 862f 903d 9d46 4e3d 5490 203e 537c 0fbd
000001b0: c3d1 d0bd 154a 4c3e 691d 03be 309e b2bc
000001c0: 1c27 0a3e 03d2 34be 0cc9 39be ce6f a53d
000001d0: b7c3 b13c fcc7 353d 2e4f ab3d 2d9b 8c3d
000001e0: 6a48 47bc 3d2d 9abc 9748 44be e128 16be
000001f0: aa46 43bd ad02 5d3d bbd2 2fbc ead3 a63d
00000200: fb84 4fbe 892a eabb 9594 db3a 5c8e 3bbc
00000210: 2cdc 94bd 4e5d 9d3d d71b 49bd 325e 14be
00000220: f9ea 31bc ca97 973d b736 3abe a9da b0bd
00000230: 9453 353d 1fb7 0b3d f426 9bbd 10ea 273b
00000240: 7035 63bd 3a69 25be a0cd cfbd cb36 c53d
00000250: 25b3 c13d 490b b3bd dd93 153e 8410 453d
00000260: 3ea7 94bd ed38 1a3e a8c7 203e 7e49 e5bc
00000270: f8a3 ddbc 458d 003e 82f9 27bd b0b0 89bc
00000280: 5f10 083e 086c 10bd e3c4 7cbc 5e68 1a3d
00000290: a65e 02bd 7401 f6bd e2af 6dbd 660b 6e3d
000002a0: a028 8c3c fe7d 0d3e 4537 3abd c5a2 163e
000002b0: ddd0 773d 3477 0b3d 8276 acbc 07e6 73bd
000002c0: 72aa 1cbe 4764 6bbd cb5d 113e 8a73 76bc
000002d0: 538c 5f3d 71ab 7bbd 27b3 76be 9d60 fd3d
000002e0: 1f4c b93c 91a8 9b3d e071 11be 4288 f63d
000002f0: 0e64 433d 70fa adbd 5e5b 87be fab5 f63c
00000300: 290e 413d 33b3 84bd 43c5 a33c 0cb7 7d3d
00000310: e7b8 5e3e 7d44 2dbe 002e c8bd 3d94 efbd
00000320: 73fd edbc a8b7 b7bd 0c83 093e 6f51 10bd
00000330: 1001 963d 725b 013d 846e 9a3d 0438 003e
00000340: cd7a 7e3c 49c6 4b3d 4b7f 243e e2a8 28be
00000350: 4b24 86bd d656 0e3e 6aee d6bb 638d 8cbd
00000360: 351f c0bc 1e4b adbc e610 e23d 1e00 58be
00000370: 27c2 a5bb 13be 933d e764 f7bd 402c 0f3c
00000380: 04fa 10be 3f4b 2bbd d8bc 493d ff7f ebbc
00000390: ef48 87bd 7d00 b93d a222 adbd 6932 903d
000003a0: 2a12 c5bd a24e 9f3d 87d2 32be b5a5 8a3c
000003b0: eb3f 603d 23da a3bd eed7 dc3c a529 3dbe
000003c0: e0a9 84bd 0246 093e a385 aa3c 5a0f 83bc
000003d0: 4876 9ebd 92ad 133e c03f d13c 7fe4 d23d
000003e0: 9fa4 203d bb71 45bd 2dd8 febd 9d0b 7c3c
000003f0: 402c 03bc b799 5cbd 2fa6 d53d 6289 663e

Conv4.bias f4 [64]
0.044109054 -0.0212671 0.046695087 0.025746975 0.020041194 0.0061372374 0.04200403 0.054327656
-0.02132362 0.033240654 -0.017903263 0.013184895 0.022123493 -0.024259223 0.015718859 -0.048967455
0.022549568 -0.00074722373 0.024868123 -0.004065467 0.039061073 0.041331664 -0.0065409467 -0.01663902
-0.01376985 0.057885483 -0.013377582 0.015253112 0.054669283 0.011999051 0.0075742346 -0.0053513176
-0.016014287 -0.017458217 0.056976605 -0.011142934 -0.008705952 -0.026607051 -0.007845413 0.040945835
-0.044220854 -0.0068479404 0.048943475 -0.018677296 0.015963035 0.050632898 -0.024682932 -0.032914996
0.02432185 0.038659733 -0.013101196 -0.024717093 0.03674415 -0.024139194 -0.031109441 -0.038060877
0.05379237 -0.025159338 0.04108981 -0.018157164 -0.017547956 0.044813935 0.052219406 0.047897756
00000000: b2ab 343d 5738 aebc 5943 3f3d 52eb d23c
00000010: 6e2d a43c e11a c93b 6b0c 2c3d ad86 5e3d
00000020: dfae aebc 5a27 083d dda9 92bc 7505 583c
00000030: 543c b53c 47bb c6bc d6c4 803c 1992 48bd
00000040: dfb9 b83c 56e1 43ba 3cb8 cb3c 9c37 85bb
00000050: 81fe 1f3d 644b 293d 7055 d6bb 8e4e 88bc
00000060: f09a 61bc 5419 6d3d a52d 5bbc 30e8 793c
00000070: e6ec 5f3d ab97 443c 4931 f83b 1b5a afbb
00000080: 6530 83bc 8904 8fbc 4d60 693d da90 36bc
00000090: 69a3 0ebc 08f7 d9bc 0c8a 00bc d2b6 273d
000000a0: ed20 35bd b064 e0bb f478 483d 2101 99bc
000000b0: e9c4 823c 7164 4f3d dc33 cabc e0d1 06bd
000000c0: 9e3e c73c ab59 1e3d 66a6 56bc 807b cabc
000000d0: 0981 163d 8fbf c5bc 3ad9 febc b9e5 1bbd
000000e0: 6355 5c3d f51a cebc ca4d 283d 55be 94bc
000000f0: bbc0 8fbc d18e 373d 04e4 553d 7030 443d

Conv5.bias f4 [128]
-0.0069046007 0.0042271134 -0.048672955 0.05149619 -0.026001835 0.017369708 0.055753466 0.04465297
0.006209872 0.05331577 0.054989785 0.06417094 -0.007189949 0.06258581 -0.030699354 -0.01080883
0.05950208 0.027885586 -0.018870857 -0.008870682 -0.00513438 -0.02467925 5.43293e-05 -0.019451525
0.05359392 -0.010984062 -0.021621207 -0.03259783 0.07095938 -0.009533389 -0.015570114 0.08372594
-0.035486653 -4.9507544e-05 0.057043977 0.077132136 -0.03008068 0.13383211 0.023205062 -0.0048448713
-0.015997503 0.003114285 0.056694254 -0.0028786315 -0.007507817 0.004303667 0.044818074 0.06162255
0.004038084 0.005515666 -0.042093996 -0.028740231 0.009942477 -0.03038769 0.0587787 0.085371844
-0.012050072 -0.0022826125 0.059179638 0.051017303 -0.011727299 0.018575748 0.06671477 0.056048714
0.06502854 -0.016714795 -0.013422871 -0.016276026 -0.01943735 0.0408703 0.070776515 0.06859002
0.11271869 0.049135286 -0.018487602 -0.025465807 0.090428285 -0.010660647 -0.020677973 0.025020927
-0.0121180285 0.0007025319 -0.030023271 0.06391916 0.019532682 0.0037679363 -0.029460058 0.04559591
-0.0053672423 0.057803664 0.06826375 0.04976751 0.054536216 0.020907309 0.08967509 0.028159313
0.06396648 0.043032024 -0.024125163 0.051279534 0.06957756 0.042737886 0.07259551 0.050149456
0.061531495 -0.019163122 -0.04306673 -0.008945095 -0.00053188833 0.049311195 -0.013161775 0.054383766
0.05686575 -0.0305842 -0.0028076412 0.029733658 -0.022384137 0.04150629 0.0035445301 -0.02522187
0.05065628 -0.03467471 -0.019719042 -0.020986103 -0.015093474 -0.030675447 -0.014217673 -0.05410903
00000000: fd3f e2bb 9983 8a3b 4b5d 47bd abed 523d
00000010: cd01 d5bc eb4a 8e3c bf5d 643d 08e6 363d
00000020: 2f7c cb3b a361 5a3d f83c 613d 0e6c 833d
00000030: aa99 ebbb fd2c 803d 367d fbbc 8517 31bc
00000040: 74b8 733d 5070 e43c 0e97 9abc 5656 11bc
00000050: 4d3e a8bb 232c cabc a4df 6338 ce58 9fbc
00000060: 4c85 5b3d 7ff6 33bc f51e b1bc 4d85 05bd
00000070: 2753 913d ee31 1cbc cb19 7fbc 8178 ab3d
00000080: 745a 11bd 52a6 4fb8 f2a6 693d 74f7 9d3d
00000090: c26b f6bc 490b 093e 8b18 be3c bac1 9ebb
000000a0: 320d 83bc 0819 4c3b 3c38 683d 6ca7 3cbb
000000b0: 2204 f6bb c705 8d3b 2893 373d ed67 7c3d
000000c0: e751 843b c3bc b43b c16a 2cbd a270 ebbc
000000d0: c5e5 223c 9bef f8bc efc1 703d 6fd7 ae3d
000000e0: aa6d 45bc e297 15bb 5966 723d 85f7 503d
000000f0: db23 40bc 2b2c 983c c1a1 883d 5693 653d
00000100: af2d 853d 77ed 88bc 9aeb 5bbc 4d55 85bc
00000110: 143b 9fbc 9e67 273d 47f3 903d ed78 8c3d
00000120: 0ed9 e63d 1542 493d 5073 97bc ab9d d0bc
00000130: 7732 b93d ffa9 2ebc da64 a9bc b0f8 cc3c
00000140: b28a 46bc 1e2a 383a 5df3 f5bc 0ce8 823d
00000150: 0103 a03c 7bef 763b 3856 f1bc c7c2 3a3d
00000160: b1df afbb 89c3 6c3d ddcd 8b3d 04d9 4b3d
00000170: 5e61 5f3d ce45 ab3c 93a7 b73d 5cae e63c
00000180: dc00 833d 5942 303d 22a2 c5bc 7d0a 523d
00000190: ae7e 8e3d ec0d 2f3d f4ac 943d 8469 4d3d
000001a0: 7308 7c3d fbfb 9cbc bd66 30bd 738e 12bc
000001b0: 6c6e 0bba 89fa 493d 7ca4 57bc 83c1 5e3d
000001c0: 10ec 683d b78b fabc 6700 38bb 0094 f33c
000001d0: f05e b7bc 8002 2a3d 594b 683b 189e cebc
000001e0: f67c 4f3d 1207 0ebd d489 a1bc 0ceb abbc
000001f0: 9e4a 77bc 134b fbbc 3ef1 68bc 6ea1 5dbd

Conv2.bias f4 [36]
0.004682696 -0.028932583 -0.0026010687 -0.03850585 0.02048916 0.07349693 -0.019645307 -0.004623269
0.027094426 -0.01996615 0.027733043 -0.022751395 -0.00047454567 0.015572193 -0.028798286 0.01261426
0.051494285 0.051938634 -0.025217671 0.013274744 -0.013919781 -0.014875569 0.019544693 -0.03381742
-0.026230905 0.018729875 -0.047428887 -0.022714175 -0.05880012 -0.05171091 0.0062827086 -0.02358735
-0.02270625 0.014308939 -0.02081082 -0.018398171
00000000: 4d71 993b 0604 edbc b176 2abb 4fb8 1dbd
00000010: e2d8 a73c 8f85 963d 32ef a0bc cb7e 97bb
00000020: 21f5 dd3c 0d90 a3bc 6830 e33c 2261 babc
00000030: 71cc f8b9 8322 7f3c 62ea ebbc 0bac 4e3c
00000040: aceb 523d 9bbd 543d 4a95 cebc 507e 593c
00000050: cb0f 64bc a9b8 73bc 311c a03c 2384 0abd
00000060: 32e2 d6bc 656f 993c cb44 42bd 1413 babc
00000070: 65d8 70bd d2ce 53bd 2edf cd3b 423a c1bc
00000080: 7502 babc 0a70 6a3c 747b aabc c3b7 96bc

Conv1.kern f4 [3, 3, 3, 24]
-0.016261952 -0.104367614 -0.04619032 0.09912002 0.046324704 0.015411322 -0.12181273 -0.046153463
-0.03974495 -0.062644206 0.10239657 -0.12930223 -0.03004098 0.029582724 -0.020442713 -0.15910041
-0.1382073 0.24402492 -0.041113652 -0.07520273 -0.06397997 -0.06441272 -0.045266643 0.08978151
0.051394477 -0.1570776 0.352844 0.34331554 -0.0026745172 0.14566341 -0.12325563 0.11494507
-0.07388978 0.32609394 -0.20034094 0.17489856 0.10336349 -0.026696324 0.21955027 0.10012402
0.006718006 -0.15871707 -0.037692327 0.093964264 0.21675552 0.1354711 -0.18350549 0.09142568
0.17568697 0.23907787 0.2560118 0.13720782 -0.2434943 0.28244403 0.11327416 0.09736395
-0.023440199 0.25111207 -0.018136393 -0.010348812 0.18879898 0.07898955 -0.09036317 -0.25671297
0.12628807 0.044213083 -0.23482274 -0.2027969 -0.24186732 0.26895493 -0.060265075 -0.052879255
-0.14021483 0.0018320176 -0.14864168 -0.065925404 -0.018683879 -0.108787976 0.07287644 -0.11557749
0.07027499 -0.043858845 -0.009452532 -0.0973741 -0.106625386 0.15049517 -0.046205994 0.11467449
0.111076124 0.121516086 0.020187339 -0.02063673 0.055264402 0.023205766 0.0035689198 -0.13417238
0.2685137 -0.09723854 0.17393532 -0.032235935 -0.04921206 0.25508225 -0.16233453 0.07139761
-0.019669197 -0.051411238 -0.009772963 0.24739274 0.034457006 0.0037766749 0.07559232 0.043000977
0.2665842 -0.112904824 -0.06967528 -0.15506446 0.15337564 0.03988597 -0.25722903 0.27594456
0.2173607 0.08037176 0.21115406 0.22960278 -0.237509 0.009069425 -0.095849 0.09159704
-0.050637547 0.066369064 0.028581869 0.08814533 0.13412328 0.20644417 -0.110939845 -0.268132
0.27656746 -0.05398697 -0.026763106 0.089818686 -0.25467575 0.091034904 0.031159338 -0.054106146
0.15732017 0.023244355 0.019244047 -0.015964596 0.17778331 0.04597178 -0.15477347 -0.0026856377
0.02378084 0.10888425 0.019198196 -0.060415775 0.018271714 0.0659387 -0.10487902 0.009837202
0.05042924 -0.09631117 0.07693409 -0.049690586 -0.13766603 -0.10418623 -0.01701005 0.02808761
0.11042934 -0.11518744 0.0736973 -0.045815106 0.023461565 0.022902593 -0.19025737 0.072301134
-0.004430944 -0.023913333 0.1555081 0.18365127 0.034527354 -0.1008051 0.18377365 -0.06162073
-0.012624785 -0.06429266 -0.19284394 -0.028161919 0.28956193 0.21827918 -0.37292898 0.099116005
0.19326816 0.18216771 0.048739485 0.02527527 -0.13661459 0.25997707 -0.081065334 0.21126051
0.016125116 0.19825783 -0.12770554 0.18016653 0.06426899 0.08953253 -0.077981725 -0.119107
0.16259198 -0.025979294 -0.238399 0.081597954 -0.059733815 -0.076694116 -0.22109662 -0.060958177
0.08853035 -0.027719652 -0.009310012 -0.037132155 -0.08274677 0.06438171 -0.035755917 0.12418195
0.17492084 0.07369456 0.0534872 -0.08568225 -0.030438332 0.13919093 0.051252555 -0.026064975
-0.079214565 0.10704296 -0.12029603 -0.10380914 0.010419719 -0.10856599 -0.054350145 0.05044851
0.03584528 -0.09437451 0.26429084 0.26432577 0.16506734 0.23291923 -0.24793442 -0.0030391694
0.057002902 0.23569725 -0.13595825 0.105350144 0.011914266 -0.09082134 -0.074217595 -0.03133477
00000000: c937 85bc b0be d5bd 1032 3dbd 70ff ca3d
00000010: f9be 3d3d c57f 7c3c f478 f9bd 6a0b 3dbd
00000020: 9acb 22bd 9b4b 80bd 4bb5 d13d ce67 04be
00000030: 8018 f6bc 7857 f23c 7a77 a7bc 38eb 22be
00000040: 3786 0dbe abe1 793e ca66 28bd e403 9abd
00000050: ee07 83bd d1ea 83bd 8469 39bd 5edf b73d
00000060: 0483 523d f3d8 20be f8a7 b43e 0ec7 af3e
00000070: f446 2fbb ca28 153e 736d fcbd 5268 eb3d
00000080: 8653 97bd c9f5 a63e 2d26 4dbe 9c18 333e
00000090: 3db0 d33d 40b2 dabc c9d1 603e d20d cd3d
000000a0: b822 dc3b ba86 22be 4563 1abd 5670 c03d
000000b0: 29f5 5d3e f0b8 0a3e dde8 3bbe 633d bb3d
000000c0: 49e7 333e d4d0 743e fb13 833e 3580 0c3e
000000d0: 9256 79be 819c 903e 48fc e73d c066 c73d
000000e0: a905 c0bc c391 803e c692 94bc 108e 29bc
000000f0: 8554 413e 46c5 a13d 5310 b9bd e26f 83be
00000100: a951 013e c718 353d 5f75 70be fea9 4fbe
00000110: 11ac 77be 76b4 893e 83d8 76bd eb97 58bd
00000120: 7a94 0fbe 4f20 f03a 8635 18be e603 87bd
00000130: ef0e 99bc 3bcc debd 3e40 953d e4b3 ecbd
00000140: 55ec 8f3d 55a5 33bd cbde 1abc 126c c7bd
00000150: 695e dabd 681b 1a3e 7f42 3dbd 76da ea3d
00000160: e17b e33d 6ddd f83d eb5f a53c 5c0e a9bc
00000170: ed5c 623d 051a be3c 8ae4 693b 7c64 09be
00000180: a17a 893e 0025 c7bd 1a1c 323e d409 04bd
00000190: 9692 49bd 249a 823e 063b 26be e938 923d
000001a0: 4c21 a1bc 9794 52bd c71e 20bc 8654 7d3e
000001b0: ca22 0d3d 1782 773b 25d0 9a3d cb21 303d
000001c0: b97d 883e a53a e7bd eab1 8ebd 38c9 1ebe
000001d0: 810e 1d3e 795f 233d 86b3 83be 9b48 8d3e
000001e0: ce93 5e3e f399 a43d c538 583e fe1c 6b3e
000001f0: 8f35 73be ed97 143c 7b4c c4bd 3b97 bb3d
00000200: 5169 4fbd 81ec 873d 8624 ea3c 8a85 b43d
00000210: 9d57 093e 1a66 533e 6e34 e3bd 9948 89be
00000220: 409a 8d3e 7121 5dbd 4d3e dbbc dcf2 b73d
00000230: dc64 82be 8270 ba3d de41 ff3c 689e 5dbd
00000240: 8a18 213e f26a be3c b1a5 9d3c 2fc8 82bc
00000250: d40c 363e e84c 3c3d f07c 1ebe 8601 30bb
00000260: 09d0 c23c b5fe de3d 8945 9d3c 8876 77bd
00000270: 90ae 953c df0a 873d d0ca d6bd 372c 213c
00000280: e48e 4e3d ca3e c5bd 9f8f 9d3d 5b88 4bbd
00000290: 53f8 0cbe 975f d5bd a958 8bbc fd17 e63c
000002a0: c728 e23d 64e7 ebbd 9cee 963d 9fa8 3bbd
000002b0: 7832 c03c 389e bb3c d4d2 42be 9e12 943d
000002c0: 7431 91bb e5e5 c3bc 843d 1f3e 140f 3c3e
000002d0: 8e6c 0d3d e772 cebd 292f 3c3e 0566 7cbd
000002e0: 30d8 4ebc dfab 83bd e278 45be d3b3 e6bc
000002f0: 7641 943e 9484 5f3e 8cf0 bebe 55fd ca3d
00000300: 17e8 453e 2c8a 3a3e 0ea3 473d 150e cf3c
00000310: b2e4 0bbe b71b 853e 9505 a6bd ad54 583e
00000320: d218 843c 1a04 4b3e 3ec5 02be 937d 383e
00000330: 769f 833d d55c b73d e2b4 9fbd 5fee f3bd
00000340: 837e 263e 87d2 d4bc de1e 74be d41c a73d
00000350: 72ab 74bd ce11 9dbd 2767 62be 48af 79bd
00000360: 664f b53d 5314 e3bc 0589 18bc e317 18bd
00000370: 2377 a9bd 8fda 833d cc74 12bd 1b53 fe3d
00000380: 731e 333e 2ced 963d 6515 5b3d 2d7a afbd
00000390: cf59 f9bc 1188 0e3e 33ee 513d 3786 d5bc
000003a0: 3f3b a2bd 5739 db3d c45d f6bd e399 d4bd
000003b0: 78b7 2a3c d957 debd 429e 5ebd 19a3 4e3d
000003c0: 80d2 123d 6c47 c1bd 2151 873e b555 873e
000003d0: 6a07 293e 6182 6e3e 85e2 7dbe cd2c 47bb
000003e0: e07b 693d 9f5a 713e a438 0bbe d1c1 d73d
000003f0: 0e34 433c 8a00 babd 65ff 97bd e358 00bd
