model.npz (npz, 557226 bytes, 13 tensors)

Conv2.kern f4 [3, 3, 24, 36]
000000 d4 4d 9c 3d 36 67 c3 bb 7d 34 4d 3e fd 13 23 3d
       0.07632032 -0.0059632314 0.20039554 0.039813984
000010 d3 e6 c9 3d 5d ec 00 bd 65 1b 14 3e e7 67 b2 3c
       0.09858479 -0.031475414 0.14463575 0.02177806
000020 ea 2f 1a be 35 a0 02 3d e4 47 c1 3d 49 aa 22 3c
       -0.1505734 0.031891067 0.0943754 0.009928294
000030 87 6b 58 bc 0f 26 8e bd ad 2c 10 3e e2 8e e7 bc
       -0.01320923 -0.06940853 0.14079542 -0.028266374
000040 f5 cb ed bd 45 05 d4 bd 9b e0 c4 bc 76 e7 92 3c
       -0.11611167 -0.103525676 -0.024032881 0.017932635
000050 57 ac a3 bc 3d 91 da bc cf 41 37 3c bf 04 b8 3c
       -0.019979639 -0.026680583 0.011185124 0.0224632
000060 06 76 cc 3d d6 3f bc bd 01 41 c2 bd f7 55 c5 3d
       0.09983449 -0.09191863 -0.09485055 0.09635537
000070 8d d8 c3 bc 49 8e 1c 3c 35 d4 13 3e 9e 12 4d bc
       -0.02390697 0.009555408 0.1443642 -0.012516646
000080 44 14 f8 3d 84 e0 eb 3b 7a a8 a0 bd f2 8c 93 3d
       0.1211324 0.007198395 -0.07844634 0.072046176
000090 c0 b8 f6 3d 08 1d 29 be 37 58 1f 3d 9b a1 2b 3e
       0.12046957 -0.16514981 0.038902488 0.16760866
0000a0 7b ee fc bc b5 53 91 bc 01 fe 1c be c3 26 63 bd
       -0.030875435 -0.01774011 -0.1533127 -0.055456888
0000b0 61 07 66 3c cf b3 84 bc 6e 18 83 3d 8b f2 03 3c
       0.014039845 -0.01619902 0.06401144 0.008053432
0000c0 4f d5 a3 bc dd ee 32 be 78 37 be bb 7a da 82 3d
       -0.019999174 -0.17473932 -0.0058049522 0.06389327
0000d0 09 ac 75 3c df 50 e4 bd 8e 5c 8e bd 81 ae 28 3e
       0.01499463 -0.111482374 -0.06951247 0.16472818
0000e0 33 1d e9 bd d6 be 89 3d a0 2c be bc e5 d2 dc 3d
       -0.113825224 0.06725852 -0.023214638 0.107824124
0000f0 7c 3b 00 3e f6 01 0e 3e 28 58 a6 3d 8d 0b 0e 3e
       0.12522691 0.13867936 0.08122283 0.13871594
000100 52 21 9f bd da 7a a1 bd ae 34 65 3d d5 5d 30 be
       -0.07770027 -0.0788476 0.055958442 -0.17223294
000110 7b ed e3 3b c8 f2 8a 3c 21 e8 c8 3d 1c c1 00 3e
       0.0069558 0.01696147 0.098099 0.12573665
000120 02 fe f0 3d 9a 46 a2 3d ac 3c 85 bc 7b f0 f9 3d
       0.11767198 0.079236224 -0.016264282 0.12204071
000130 44 88 85 3e 12 b7 46 3c 8a cd b3 bc 60 bf 01 bc
       0.26080525 0.012128608 -0.021948595 -0.0079191625
000140 88 ce 1d bc 45 4d 23 3e 48 7c a0 bd d0 5f 05 3e
       -0.00963176 0.15947445 -0.07836205 0.13024831
000150 16 3f 13 be 93 77 b1 bd 99 72 1b 3d b4 91 04 3e
       -0.14379534 -0.08665385 0.037951086 0.12946206
000160 60 9d 9f 3d 59 69 2d be 2a 2e cb bd a8 66 dc 3c
       0.07793689 -0.16934718 -0.099209145 0.026904419
000170 8f 91 f8 bc 94 36 45 bd a2 3d f2 bd ea 86 e6 bd
       -0.030342845 -0.048147753 -0.11828162 -0.112562016
000180 1b 36 aa bd ab fa dc bd c3 ff 5b bd 5f 34 98 bc
       -0.08311101 -0.107899986 -0.05371071 -0.01857966
000190 2f 23 41 3d 8c a9 2a 3e 21 11 c2 bd b0 ed dc 3d
       0.047152694 0.1666624 -0.09475923 0.10787523
0001a0 24 79 18 3e 77 f2 c4 bd 34 38 b2 3d 4c 35 5a bd
       0.14889961 -0.09616559 0.08702126 -0.053273484
0001b0 3b dd a1 3b 5b 35 4c be 27 e2 0c be 53 85 29 3e
       0.004939703 -0.19942228 -0.13758145 0.16554765
0001c0 51 29 3a 3c 65 e3 14 bd 59 57 85 bd b2 80 11 bd
       0.01136239 -0.036349673 -0.06510801 -0.035523124
0001d0 df a8 be bc 38 2e c3 bd 19 9e a2 3d 08 13 3a be
       -0.023273883 -0.095303 0.07940311 -0.18171322
0001e0 35 f6 fd bd 23 0e a1 bc fc 00 be bd 88 7d b1 bd
       -0.12400476 -0.019660061 -0.092775315 -0.08666521
0001f0 a1 f6 94 bd 93 b8 00 3e c9 10 46 3d b3 46 55 3e
       -0.07273603 0.1257041 0.04835585 0.20827751
000200 2d 96 a0 bc 62 f2 fa 3c a2 68 2b bd f9 d0 24 bc
       -0.01960286 0.030633155 -0.041847833 -0.010059589
000210 66 20 4b bd 51 81 68 bd c0 fc 20 3d 20 7a 58 3d
       -0.049591444 -0.05676395 0.03930354 0.052850842
000220 d0 2a 1d be eb 08 3d 3e 7d 71 91 3d ff 73 d5 3d
       -0.15348363 0.18460433 0.07101724 0.10422515
000230 9c 37 6a bd 90 83 91 3b e8 a5 ad 3d 1a f4 b3 bd
       -0.05718194 0.0044407323 0.0847891 -0.08786793
000240 23 69 8b bc 9a 48 09 bd 7e 34 14 be 31 dd 00 be
       -0.017017907 -0.033516504 -0.14473149 -0.12584378
000250 95 12 94 bd 79 8f 96 3d ad 98 27 be 50 c0 b2 3d
       -0.07230107 0.07351584 -0.16366835 0.08728087
000260 04 30 65 be d7 98 f4 bd 3d 81 14 3b 83 72 1d be
       -0.22381598 -0.119432144 0.002266004 -0.15375714
000270 e4 5f c7 bd e0 9a da 3c e9 70 b1 3c 3e 62 88 bd
       -0.097350866 0.026685178 0.021660285 -0.06659363
000280 af 7a 40 3d 5d f8 2d be 63 78 e8 bc 85 37 b4 bd
       0.046992 -0.16989274 -0.028377717 -0.08799652
000290 4e 29 e6 3d 9e d9 36 3e 4c d9 08 3d 26 91 ea bd
       0.11238347 0.17856452 0.033410355 -0.11453466
0002a0 4f a7 5b 3d 66 1e e9 3d 83 75 a3 bd 77 a5 28 bc
       0.053626355 0.11382751 -0.07981398 -0.010293356
0002b0 48 e9 4c 3e d8 ab 4a bd c4 fa f5 3d 73 61 1f 3e
       0.20010865 -0.04948029 0.1201072 0.15564518
0002c0 6e ef f1 3d 4a 16 5e bd f4 0b dc bd ba 80 f7 3d
       0.11813246 -0.054220475 -0.107444674 0.120850995
0002d0 a6 6c 07 be 1e 1a 02 3d 4a a0 eb 3d f1 59 47 bd
       -0.1322504 0.03176319 0.11505182 -0.04866976
0002e0 1a 07 b2 bc e7 69 08 3e 33 5c 02 be 2c 2c 44 3d
       -0.021731902 0.13321649 -0.12730484 0.047893688
0002f0 6c f3 8e bc 73 24 fe bd 44 0a 00 bd 11 f0 f4 bc
       -0.017450057 -0.12409296 -0.03125979 -0.029899629
000300 60 bb d2 3d 77 98 01 be d6 5b b3 3d 25 f7 dc bd
       0.10289645 -0.12655817 0.08757751 -0.107893266
000310 64 fd e5 3d 72 75 02 bc 6f 6c 99 bd ec 14 aa 3c
       0.11229971 -0.007962571 -0.07491385 0.02076193
000320 e0 07 c1 bc 9d e6 6c bd 18 d4 76 bb 9c 40 19 3d
       -0.023563325 -0.057837117 -0.0037663039 0.037415132
000330 35 fc 20 3d 9a 71 e2 bd 9e 99 45 3e 4a ff b9 3d
       0.039303023 -0.11056824 0.19296882 0.09081896
000340 f8 a3 7a 3b b8 3f 56 bd 43 87 1c 3d 76 cd 92 bd
       0.0038244706 -0.05230686 0.038214933 -0.07168095
000350 64 a4 b3 3d 77 cf 54 bb 19 26 92 bd ba a8 e3 bb
       0.087715894 -0.0032472291 -0.07136173 -0.006947604
000360 8b 44 cc bd f3 54 83 3c 0c a2 2d 3d 76 90 02 3e
       -0.09974011 0.016031718 0.042390868 0.1275042
000370 48 9e 8d bd b9 e6 18 be b7 74 0d 3d a2 8b a0 bc
       -0.069149554 -0.14931764 0.034535136 -0.019597832
000380 1f 76 2a be 73 ad 1f be a7 82 f3 bd 8e c3 81 3d
       -0.16646622 -0.1559351 -0.11890154 0.06336127
000390 f6 34 bb bd 64 b5 20 be 60 a8 e7 3c 97 b1 6e bd
       -0.09140961 -0.15694195 0.02827853 -0.05827483
0003a0 16 3c 2b bd 9e 1e e5 bc a6 7b 0f 3e ba 48 a9 bd
       -0.04180535 -0.027968701 0.14012012 -0.082658246
0003b0 82 4d d5 3c d9 63 f6 3c 99 1a 2a be bd c9 f8 3d
       0.026037935 0.030076908 -0.16611709 0.121478535
0003c0 66 24 49 be 3f 8d 4b 3d 96 6a 4e bd 18 5b 19 3c
       -0.19642791 0.04969525 -0.050394617 0.009360097
0003d0 d1 18 e7 bd 87 37 db b9 cf 2a 6d 3d f1 15 be bc
       -0.1128403 -0.00041812306 0.057902154 -0.023203822
0003e0 cf bb 37 bd 1b f8 cf 3c 64 c0 03 3d b5 66 59 3d
       -0.044856843 0.02538686 0.0321659 0.053076465
0003f0 89 be 99 3b e1 8e b6 bd 06 be b6 bd 82 36 f7 3d
       0.004691903 -0.08913971 -0.08922963 0.120709434

Conv6.kern f4 [1, 1, 128, 100]
000000 3a c9 fe 3d 5a 52 99 be 1b 8d ea bc 47 16 93 be
       0.12440725 -0.29945642 -0.028631737 -0.28727934
000010 3b b2 d7 bd 36 47 7e 3e 0f 2d 19 be 17 42 1f be
       -0.10532042 0.24831852 -0.14958595 -0.15552555
000020 c7 aa 7e 3b 54 36 91 3e 3b 80 45 3d 13 17 94 3d
       0.0038859115 0.28361762 0.048217993 0.072309636
000030 09 c7 af 3c ea 6f 7c 3e c8 99 7b 3e d4 36 9d 3c
       0.021457212 0.24652067 0.24570382 0.019191183
000040 36 93 17 3e 28 4f 18 3d bb 1c 67 3e 4e 94 63 be
       0.1480225 0.037184864 0.22569554 -0.22224542
000050 19 03 25 bd 57 25 22 3e 2e a6 c0 bd 10 0e 15 3e
       -0.040286157 0.15834557 -0.09406696 0.14556146
000060 51 87 e1 bd 8b e8 8f be 45 ef 12 be a1 1b 0b bc
       -0.11012138 -0.28107104 -0.14349087 -0.008490474
000070 a4 cd 04 be 84 68 4e 3d ea 74 f3 b9 e7 2e 8e be
       -0.1296907 0.050392643 -0.0004643568 -0.2777016
000080 c3 16 32 be 1b 36 15 3c eb 06 6d be e8 41 85 3d
       -0.17391495 0.009107138 -0.2314717 0.06506711
000090 a0 22 53 be 5b 83 25 3e 7e 9d 53 bd 37 db a8 bc
       -0.20618677 0.1616339 -0.051663868 -0.020612342
0000a0 fe 3e 2b 3d 3e 3a 14 be 5e ca f7 bd 13 d2 02 3e
       0.04180812 -0.14475343 -0.12099145 0.1277545
0000b0 9e 73 89 be 2d ce ac be 3b 53 97 3d 47 6f 1d 3e
       -0.2684602 -0.3375105 0.07388922 0.1537448
0000c0 dc ab 29 be fc aa 9b bd d5 85 26 3d a9 53 54 3d
       -0.16569465 -0.07600972 0.040654976 0.051837597
0000d0 c6 33 59 be 45 8e c4 bd a9 0d 6c be 2a 7a aa bd
       -0.21211156 -0.09597448 -0.23052086 -0.08324082
0000e0 01 86 64 3d d6 01 83 3e 6a 6c 5e be aa 80 e3 bd
       0.05579186 0.25587338 -0.21721044 -0.11108525
0000f0 fe 80 f8 3d 96 56 5c 3d 5b 02 a8 3d 5c f5 27 3c
       0.12133978 0.053793512 0.08203574 0.010251369
000100 a0 17 57 3c 8b e0 ac 3d 27 ad 4d be 30 e7 24 be
       0.013128191 0.08441266 -0.20085584 -0.16103816
000110 ef 6a 44 bd 0c fa a4 be 5b 46 8a bd 64 f3 02 be
       -0.047953542 -0.3222202 -0.067517005 -0.12788159
000120 57 f6 22 3e f0 c5 8f 3d b4 97 94 bd 5f 55 c9 bd
       0.15914284 0.070201755 -0.072554976 -0.09830736
000130 50 b5 85 3e 10 90 2f 3e 66 18 d2 bd 6f 97 03 bd
       0.26114893 0.17144799 -0.1025856 -0.03212684
000140 32 51 e4 bd 00 cd 84 be ca 85 df 3d c9 27 8d bd
       -0.11148299 -0.25937653 0.1091419 -0.06892354
000150 e3 3b 4f 3e 8e 6c 84 3d 8c 34 d4 3d 35 9c 15 be
       0.20237689 0.06466018 0.10361585 -0.1461037
000160 0c fb 23 3e fc 05 08 be 3e af ef 3d 4c 17 26 3d
       0.16013736 -0.13283533 0.11703347 0.04054956
000170 c2 82 1a 3e 9f 7a 02 bd 79 be 1c be be 68 21 be
       0.15088943 -0.03185522 -0.15307035 -0.15762612
000180 88 b1 04 3e bf 7a 4f bd 88 6e 0b 3e f8 4e 59 be
       0.12958348 -0.05065417 0.13616383 -0.2122153
000190 de 88 e1 bc ea 83 0f be 42 7d d3 3d 9a 04 17 be
       -0.027531084 -0.14015165 0.103266254 -0.14747849
0001a0 9e c7 12 be c4 13 88 3c 4e eb 25 3d 9a de 14 3d
       -0.1433396 0.016610987 0.040507607 0.036345102
0001b0 61 e0 86 3d e9 d8 2a bc c0 38 1a 3d e9 dc 35 bc
       0.06585766 -0.010427692 0.037651777 -0.011100032
0001c0 ca 13 ad 3d c3 f5 49 bc 56 6c 87 bd ce 4e 08 3e
       0.0845104 -0.012326661 -0.0661246 0.13311312
0001d0 48 56 e1 bd 31 93 e0 bd 0f 7f 37 3d 5d 3e 1e 3c
       -0.11002785 -0.109655745 0.044798907 0.009658423
0001e0 80 9c eb 3d bb b1 05 bb 71 c1 99 3c 08 28 20 3e
       0.115044594 -0.0020400125 0.018768998 0.1564027
0001f0 d0 7f b1 3d 0e 3b 8b 3a 48 f4 15 bd 72 75 2f be
       0.086669564 0.0010622458 -0.036609918 -0.17134646
000200 1e 6e 06 3e 8e fc e6 bb e4 15 5c 3d ea 7e 11 bd
       0.13127944 -0.00704915 0.053731814 -0.035521425
000210 c0 63 00 3c 64 7d 4b bc e0 9a 07 be 2b 9b be bd
       0.007836282 -0.012420032 -0.13242674 -0.0930694
000220 54 ae fc bd c8 4f cb bc 18 f5 62 3c 41 26 04 3c
       -0.12337938 -0.024818316 0.01385238 0.008065761
000230 d2 da 30 3c 65 58 7a 3d b8 94 30 be 71 ce fb bd
       0.010794358 0.061119456 -0.17244232 -0.12295235
000240 95 3b 7f 3c 0b ff e2 3d 57 09 3d be ef ab ac 3d
       0.01557817 0.11083802 -0.18460594 0.08431231
000250 02 27 77 3d 92 9a 4d be 11 87 82 bd 50 99 a0 bc
       0.060339935 -0.20078495 -0.06373418 -0.019604355
000260 06 b2 ba 3d 7a ff a7 3c e1 4c 2d bb 89 37 32 3d
       0.091159865 0.020507563 -0.0026443528 0.043509994
000270 78 8f 17 be d8 19 a1 bc 0e 90 3c be 0d b4 32 be
       -0.14800823 -0.019665644 -0.18414328 -0.17451496
000280 fe 20 e9 3d bc fb 6f bd 26 c9 29 3b 29 38 c7 3d
       0.11383246 -0.058589682 0.0025907247 0.097275086
000290 bb 52 b2 3d 17 4e 12 3e 4a bd 1e bd 5b f4 2d bb
       0.08707186 0.14287601 -0.03875474 -0.0026543352
0002a0 c4 54 9d 3c 0c 05 77 3b 87 2c 95 3c 6c 79 96 bd
       0.019205458 0.0037692217 0.018209709 -0.07347378
0002b0 2c 24 60 3c 15 d4 4a 3e 14 f8 b0 3d 1b 99 7e 3c
       0.013680499 0.19807465 0.08641067 0.015539433
0002c0 a9 5e 84 3d f8 44 8c 3d c0 5b 05 3c da 4e 9e 3c
       0.064633675 0.06849092 0.008139551 0.019324709
0002d0 b5 8d f1 3d 08 f5 28 3e 61 90 9b 3b 57 41 b1 bd
       0.117946066 0.16499722 0.004747436 -0.08655041
0002e0 60 fc cd bd 47 1c 4b bd 66 6f 68 bd cb c9 e4 3d
       -0.10057902 -0.049587514 -0.056746863 0.111713015
0002f0 e8 6e 1d be fd 1e 67 3c 52 5f 3f bd f3 91 98 bd
       -0.15374339 0.014106509 -0.046721764 -0.074497126
000300 ca f7 21 bd c8 41 91 3d 53 88 e2 bd c2 eb 32 bd
       -0.03954295 0.07092625 -0.11061158 -0.043681867
000310 62 79 05 3c cb 79 d3 bc 0c 5e fc bd 03 14 63 3c
       0.008146616 -0.025814911 -0.123226255 0.013859752
000320 f9 cd 65 3d b3 5a ab bc 55 ad 1a be 8b 25 25 be
       0.056104634 -0.020917272 -0.15105183 -0.16127603
000330 8f d5 20 be ab 1c 0f bd 6b 97 49 be 2b 72 11 bd
       -0.15706466 -0.03493945 -0.19686668 -0.03550927
000340 11 d8 4e 3d e8 98 33 bd 8c d7 83 3b 32 95 d1 bd
       0.050499026 -0.043846995 0.004023498 -0.10233535
000350 b2 05 84 3d ec 89 eb 3c fa a7 c2 3c 15 ca 97 bd
       0.06446399 0.02875229 0.023761738 -0.07411591
000360 d8 f9 87 bc 1b 53 a3 3d 8c db 67 3d 20 f9 2b 3c
       -0.016598627 0.079748355 0.05660586 0.010496408
000370 b2 98 9d bd 7a c8 50 bb 03 d9 0c be c8 a4 39 3e
       -0.0769514 -0.0031857775 -0.13754658 0.18129265
000380 b2 f8 8a 3d 9e 35 ad bd c5 ad 66 bd 89 d1 39 3e
       0.06785716 -0.08457492 -0.056318063 0.18146338
000390 f2 42 68 bd 72 1a 24 bd 45 6c c6 bc b6 c8 d6 bd
       -0.05670447 -0.040064283 -0.024221549 -0.10487501
0003a0 64 90 3a 3d a3 bc bf bd b6 79 a8 bd 80 b8 99 bd
       0.045547858 -0.093621515 -0.082263395 -0.07505894
0003b0 f6 0a 12 be 51 80 be 3c 1a 49 0e 3e 44 10 80 bb
       -0.14261994 0.023254545 0.13895074 -0.003908189
0003c0 62 a0 27 3d ad 5c 82 3d f1 b5 29 3d 2a 91 15 3e
       0.040924437 0.06365333 0.04143328 0.14606157
0003d0 f0 0e e9 bd a8 52 27 be 2b 96 0e 3e ff 41 8d bd
       -0.11379802 -0.16340125 0.13924472 -0.068973534
0003e0 d2 5a 70 3a 45 10 8c 3e 9e 70 44 be 80 ba b2 3c
       0.0009168807 0.27356163 -0.19183585 0.021817446
0003f0 48 13 34 be 39 52 5b bd 25 c6 92 bd ac fe 49 bd
       -0.1758548 -0.05354521 -0.07166699 -0.04931514

Conv3.bias f4 [48]
000000 26 dd 69 bb 26 44 15 3c 02 07 0e 3c 82 98 73 bc
       -0.0035684793 0.009110486 0.008668663 -0.014867904
000010 6e 24 0b 3d a4 a8 e4 bc 82 01 3b bc 90 a7 5d bc
       0.03397029 -0.027912445 -0.011413934 -0.01352872
000020 b8 b0 ef ba 9f b7 86 bc b4 c1 8a bc 80 54 9e bc
       -0.0018286919 -0.01644498 -0.016938068 -0.019327402
000030 20 1d 1b bb 49 32 6b bc 9d a0 96 bc ff c0 0d bc
       -0.0023668483 -0.014355251 -0.018387133 -0.008651971
000040 31 c6 86 bc 95 f8 f2 3c 2d 47 2d 3d 7e 38 8d bc
       -0.016451927 0.029659549 0.042304207 -0.017238852
000050 e5 90 5a 3d 45 cc 63 bd 79 b7 d2 bc 1a 5f 34 bd
       0.05336084 -0.05561473 -0.025722252 -0.04403601
000060 cb c9 01 39 a8 d2 96 3a 4e e8 83 bc 35 c9 03 bd
       0.00012377572 0.0011506872 -0.016101982 -0.032174308
000070 2a 12 9c 3d 07 a8 44 bc c3 41 8d bc 02 3f 0a 3d
       0.07620652 -0.012002951 -0.017243272 0.033751495
000080 d6 64 ce bc 64 51 0a bd 0c f7 61 bd 33 2b 78 bd
       -0.025194567 -0.033769026 -0.055167243 -0.060588073
000090 c2 ed a1 3d d5 5f 0a bc 0e 6e 8e bc 6f 7b 36 bd
       0.07906677 -0.0084457 -0.017386463 -0.04455131
0000a0 da 48 fe b9 7e 4f 2c 3d 65 6f 8c bc 96 91 84 bc
       -0.00048500934 0.042067997 -0.01714296 -0.016182702
0000b0 69 42 15 bc 8e a0 15 bd e6 5c 55 3d 8c e4 83 bc
       -0.009110072 -0.03653007 0.052090548 -0.01610019

Conv6.bias f4 [100]
000000 ec db 47 3c 1d 23 66 3d bb a0 28 bd c2 96 46 3d
       0.01219843 0.05618583 -0.04116891 0.048483618
000010 53 41 65 3d bd bb 0a 3d 77 40 a1 3d 8a 34 1a 3d
       0.0559705 0.033870447 0.07873624 0.03764776
000020 2c 84 2a 3d d7 1e 2d 3d 18 e7 a1 3c 19 83 d9 ba
       0.041629955 0.04226574 0.019763514 -0.0016594856
000030 7b a0 e3 3c 78 83 a8 bb ae b4 c9 3c 7f 4a 79 3c
       0.027786484 -0.0051426254 0.024622288 0.015215515
000040 1f a8 b4 bc 29 64 0e 3d 02 4a 23 3d a5 23 ef 3c
       -0.022052823 0.03476349 0.0398655 0.029191801
000050 16 fe 4c 3d c3 73 d7 3c 7f 61 79 3d c7 a8 53 3c
       0.050047003 0.026300317 0.060883995 0.012918658
000060 a1 7d 1d 3d c1 55 6c 3d b6 8b 89 3d eb df 32 3c
       0.038449887 0.05769897 0.06716101 0.010917644
000070 b0 f0 9f 3d 70 ac 88 bb 68 8f b3 3c 1c f5 01 3d
       0.07809579 -0.004170947 0.021918967 0.031727895
000080 86 69 0b bc 45 d0 c4 bc 37 da 4c 3d 1b 58 d6 3c
       -0.0085090455 -0.024025092 0.050012793 0.026165059
000090 1f 9b 75 3d 5f 46 ac bb 2c 7e 2f 3a 8b 09 ec 3c
       0.059962388 -0.0052574123 0.0006694521 0.028813144
0000a0 34 06 04 3d 7b d8 ad bb 94 99 42 3d f9 78 f2 3c
       0.03223248 -0.0053053475 0.047509745 0.0295987
0000b0 94 50 57 3d 8b 10 61 3d ba 41 2a 3c ec 3f 3b 3c
       0.05256708 0.054947417 0.010391647 0.011428814
0000c0 06 5d 92 3a 27 12 fa 3d 0c e6 7e bc 4e 3a ba 3c
       0.0011166639 0.122104935 -0.015557777 0.02273288
0000d0 89 60 a7 3c 24 52 5e 3c 9b f5 d9 bc 47 64 80 3d
       0.020431774 0.013569389 -0.026606372 0.062691264
0000e0 d9 d2 23 3d 95 d3 3c bd 8e a1 15 3d 00 64 05 3d
       0.039996002 -0.046100218 0.036531024 0.03256607
0000f0 63 59 af bc 04 57 c6 3d 78 ef 8d 3b 6d df 36 bc
       -0.021404928 0.09684566 0.0043315254 -0.011161667
000100 7f 2f 0a 3d 05 1a 90 3c b9 52 be 3d de 91 e1 3c
       0.033736702 0.017590532 0.09293122 0.027535375
000110 01 ac 08 3d bf a8 0d 3d c1 69 d2 3d 6d 5f 69 3d
       0.03336716 0.034584757 0.10274077 0.05697577
000120 0d 6d 04 3d cf 56 d8 bc bb 13 3f 3d 83 46 c4 bb
       0.03233056 -0.026408581 0.046649676 -0.005989851
000130 24 4d 5f 3c cb 65 b9 3b 7a 57 4b 3d 08 55 0f bd
       0.013629232 0.0056578866 0.04964397 -0.0349932
000140 80 34 cc 3c c6 b8 1f 3d 80 72 de 3c 81 a5 54 3d
       0.024927378 0.038994573 0.027154207 0.05191565
000150 e8 22 98 bc 7f 75 02 bd 29 5d 55 3d b1 e3 df 3c
       -0.018571332 -0.031850334 0.052090798 0.027330251
000160 a4 08 a8 3c 77 df 3e 3d 41 63 f0 3c 50 3d 9f 3b
       0.020511933 0.04659983 0.029344203 0.004859604
000170 55 48 45 3c 3f f6 55 3d e0 7a d1 3c 27 2c ec 3c
       0.012041171 0.05223679 0.025571287 0.028829647
000180 3a 3b a0 3b 43 03 58 bc 53 50 b4 3a 43 d2 2c 3d
       0.004889873 -0.013184371 0.0013756849 0.04219271

Conv5.bias f4 [128]
000000 12 5e be bb 57 5a 0e bd e3 07 2d bc 69 c4 7a 3d
       -0.005809554 -0.034754124 -0.010560962 0.061222468
000010 a3 79 97 3c 92 5d f0 3c 6d 91 c1 3c ba 87 e9 3c
       0.018490618 0.029341493 0.023628915 0.028507102
000020 5f e9 47 3d 48 43 8b 3d 8f 47 27 3d 8c 52 e7 3c
       0.048806544 0.06799942 0.040839728 0.028237604
000030 94 2a 1e 3e 61 b5 f2 3c 76 42 e9 3b 72 3a d6 bc
       0.1544593 0.029627504 0.0071185185 -0.026150916
000040 ef 3b a9 3d 2e f5 61 bd da f0 6d 3d d1 32 24 3d
       0.082633846 -0.055165462 0.058091022 0.040087525
000050 0a f1 96 3c 12 bb ec 3b 60 19 bb 3c 56 97 16 3b
       0.018425483 0.007224449 0.022839248 0.0022978387
000060 02 22 a0 bc 8b 4c 60 3c ea d7 04 3c f4 36 00 ba
       -0.019547466 0.013690124 0.008108119 -0.0004891001
000070 df 6e b6 3d ba 9d ef 3c a7 de 47 3c dc 7c fb 3b
       0.08907866 0.029250015 0.012199081 0.0076747965
000080 f8 ee 38 3c 26 70 58 bd 4b 50 13 3d 7d db 94 3d
       0.011287443 -0.052841328 0.035965245 0.072684266
000090 45 f2 98 bb b3 13 1a 3d 06 5a 9a 3c a5 fa 46 3c
       -0.0046675527 0.037616443 0.018841755 0.012144719
0000a0 b2 0c 76 b8 09 54 21 3d 98 76 8a 3c e8 ec 57 3c
       -5.8662794e-05 0.039386783 0.016902253 0.013179041
0000b0 dc 8b 84 3d 0c f9 90 3d 71 8c 72 bd 62 38 12 3d
       0.064719886 0.07078752 -0.059215967 0.035698302
0000c0 e1 ae 06 3c e7 3a 48 3b 77 12 8e 3c eb 1c 53 3d
       0.008220405 0.0030552687 0.01734279 0.05154125
0000d0 60 c8 2c 3d 4e 4b a2 3d f7 38 15 3d 70 e4 ae 3d
       0.04218328 0.079245195 0.03643128 0.08539665
0000e0 95 24 69 bc 21 9f ed 3c 05 a8 1b 3e 6f 3a 1d 3d
       -0.014229913 0.029006543 0.15200813 0.038385805
0000f0 c5 4e 2e 3b bf c6 f9 bc 9f c6 51 3d 24 eb 98 3c
       0.0026597243 -0.030490277 0.05121481 0.018666811
000100 19 31 60 3d 52 a7 c6 3d ab 88 31 bc 2b 1f b5 3c
       0.054734323 0.096998826 -0.010835807 0.022109589
000110 4a d0 b1 bb 69 c0 38 bd c3 a5 33 3d b6 a6 c2 3d
       -0.0054264413 -0.04510537 0.043859255 0.09504454
000120 63 7b bb bb cd 26 33 3d 21 be 2e 3c 81 eb d9 3b
       -0.005721496 0.043738175 0.010665447 0.0066503887
000130 d7 33 6d bd 6e 34 7e 3a 89 f3 f2 3c 6e c9 0e 3d
       -0.057910766 0.00096971437 0.029657142 0.034860067
000140 92 03 30 3d ec fe af 3c ef 04 a7 3c fd 98 f1 3c
       0.042972155 0.02148386 0.020388095 0.029491896
000150 94 80 ab 3c 1d 27 00 bd 53 81 83 bc 59 70 fa 3c
       0.020935334 -0.0312873 -0.016052878 0.03057115
000160 d8 2d 26 bc 53 d6 8c b9 09 95 91 3d 37 77 0c 3d
       -0.010142766 -0.00026862565 0.07108504 0.03429338
000170 48 64 8c 3c 89 fd c1 3d 80 b4 ed 3c 2a dc df 3c
       0.017137662 0.09472186 0.029016733 0.027326662
000180 80 8a e3 3c 6f e9 8e 3c d0 72 c2 bb 96 e5 41 3d
       0.027776003 0.017445294 -0.005934097 0.04733809
000190 c2 8e 94 3d b8 9a e0 3c 1c ce e6 3c 57 ad 1e 3d
       0.072537914 0.027417526 0.028174452 0.03873953
0001a0 ed 56 d3 bc ea d4 1c bd 2e 0b 6e 3d 0a f9 86 bc
       -0.025798285 -0.03828899 0.05811613 -0.016476173
0001b0 3c 6b be 3b 18 c0 3b bc ad 2f fa 3b e8 cb 4d 3d
       0.005811123 -0.011459373 0.007635078 0.05024329
0001c0 a0 2e 19 3d 61 0c 66 3c ef 64 a5 bc c1 1f e4 bb
       0.03739798 0.014041037 -0.02018973 -0.006961793
0001d0 ea e3 fe ba 77 14 96 3c 3c 89 5e bd 0f 3a 50 3c
       -0.0019446586 0.018320305 -0.054330096 0.012709155
0001e0 e3 49 05 3d 3a cb 21 bc 0b dd df 39 e8 55 8e bd
       0.032541167 -0.009875113 0.00042698564 -0.06949979
0001f0 e3 4e 91 bb 1d bb 76 bc 4b c6 8e 3c bc ec 34 3c
       -0.004434453 -0.01505926 0.017428538 0.01104277

Conv7.kern f4 [1, 1, 100, 1]
000000 2b 04 cb 3d bb ed f1 bd 7e f6 90 3c 06 c2 4f be
       0.09912904 -0.118129216 0.017695662 -0.20288858
000010 63 51 74 be 11 9d 17 3e 37 e4 ff bd da f0 61 be
       -0.23859172 0.1480601 -0.124947004 -0.22064534
000020 80 17 1c be 33 88 b7 3d 33 78 62 3e b3 05 c5 3d
       -0.1524334 0.08961525 0.22116165 0.09620228
000030 c3 0b 03 be b8 77 79 3e d2 82 f1 3d 79 93 5f 3e
       -0.12797455 0.24362075 0.1179253 0.218336
000040 60 f4 b0 3c 9b 03 6b 3d 7f 95 5a 3e b4 5d fe bd
       0.021600902 0.057376485 0.2134609 -0.12420216
000050 9c 14 3b be c8 25 86 3d 4c 3a 3d be 63 36 b0 3d
       -0.1826958 0.06550175 -0.1847927 0.086041234
000060 2a 2e e4 bd 6b be 18 be f3 dd 11 be 74 b6 5d 3e
       -0.111416176 -0.14916389 -0.14244823 0.21651632
000070 c6 11 63 be a2 a2 b2 3d 0a df 2b 3e 86 42 84 be
       -0.22174749 0.08722426 0.16784301 -0.25832003
000080 81 b7 e8 3c 60 21 26 3e 7f 26 f8 bd 50 13 8e 3d
       0.028407814 0.16223669 -0.121167175 0.06937277
000090 1f b6 25 be 68 22 7f 3e 82 a2 fd bd ac c6 01 be
       -0.16182755 0.24915469 -0.123845115 -0.12673444
0000a0 6b a4 b5 3d ee 8f 04 3e 17 04 f0 bd 6c aa 8a 3d
       0.08869251 0.1294553 -0.1171953 0.06770787
0000b0 cf 70 a1 be 2b 1a 72 be fe f7 20 3e 61 d8 74 3e
       -0.3153138 -0.23642795 0.15719602 0.23910667
0000c0 61 93 23 bd d5 41 72 3e ad d0 74 3d bd 3e 88 3d
       -0.039935473 0.23657925 0.05976932 0.066525914
0000d0 a2 3b a8 bd 7e ed 8f be ae 88 13 bd b8 1b 4e be
       -0.08214499 -0.2811088 -0.03601902 -0.20127761
0000e0 6c 1c 4c 3e e9 36 b3 3d 1e 63 67 be 06 0d 6e be
       0.19932717 0.08750708 -0.22596404 -0.23247156
0000f0 c2 c7 3f 3d 75 c2 5a 3e c0 93 4f 3e a7 f9 27 3c
       0.046821363 0.21363242 0.20271206 0.010252393
000100 b3 17 07 be 69 3e 5d 3e d2 d9 c5 bd 1a a6 53 bd
       -0.13192634 0.21605839 -0.096606866 -0.05167208
000110 65 c2 e5 3d 4e b1 92 bd 44 17 24 be 45 3d 1e be
       0.112187184 -0.071627244 -0.160245 -0.1545306
000120 eb da 1d 3d f1 40 29 3e fd a2 39 be 82 b2 c6 bc
       0.038538855 0.1652868 -0.18128581 -0.024255041
000130 e7 65 1b 3e 12 16 5b 3e 51 aa d1 bd 85 6a 6f 3d
       0.15175591 0.21395138 -0.102375634 0.058451194
000140 8c 7d e9 bd 85 da 94 bd e8 18 25 3e 94 f6 09 be
       -0.11400899 -0.07268242 0.16122782 -0.13472968
000150 6a ee a7 3c 76 8e 07 3d 7a 77 03 3e 6e 02 0a be
       0.020499427 0.033094846 0.12838545 -0.1347749
000160 15 1f b2 3d 8f d4 d0 bd 47 1f 12 3e 4f f1 4e 3e
       0.08697335 -0.10196792 0.14269744 0.2020924
000170 5b 01 43 3e dc 4d 40 be 3f 86 b4 bd 85 f4 56 be
       0.19043486 -0.18779701 -0.08814668 -0.20991714
000180 90 2b 89 3d 77 00 1f 3b 76 b8 e9 bd 3b 7b 94 bd
       0.06697762 0.0024261752 -0.11412136 -0.07250067

Conv4.kern f4 [3, 3, 48, 64]
000000 19 f3 11 3d 7b 6f 3d bd 50 88 54 bd 0a 6d 9e bd
       0.035632227 -0.046248894 -0.05188781 -0.07735641
000010 44 31 72 3d b4 ef 85 3d 92 8d 38 be c3 f0 98 bd
       0.059129015 0.0653986 -0.18022755 -0.07467797
000020 f3 60 83 bd 95 f4 33 be b8 b4 2b 3d 9c 91 8a bd
       -0.06414976 -0.1757377 0.041920394 -0.06766054
000030 02 c2 c9 bd 4d 11 8b 3b c8 5a 03 bd 38 24 42 3e
       -0.09851457 0.004244006 -0.032068998 0.18959129
000040 13 de b8 3d d3 45 a0 bc 07 cc d1 bd aa 57 2b 3d
       0.09026732 -0.019564545 -0.10243993 0.04183165
000050 98 11 15 3e 2c 53 4d bd 98 87 47 be 83 4c 07 3c
       0.14557493 -0.050128147 -0.19485319 0.008257988
000060 46 ee 5c 3e 42 6b 84 3c 3b 41 9c 3d fe e5 af bc
       0.21575269 0.016164426 0.07629629 -0.021471974
000070 dd 13 99 3c 38 7c 70 3c d5 ce 4c 3c 38 1b 13 be
       0.01868623 0.014678054 0.0125004845 -0.14365852
000080 70 61 e0 3d a2 d3 8d bd 5e 09 aa 3c 44 bc 6b 3e
       0.10956085 -0.069251314 0.02075642 0.23021036
000090 3c 51 32 bd a9 13 52 bd f5 f4 9c bd dc 5d 08 3e
       -0.043534502 -0.05128828 -0.07663909 0.13317055
0000a0 69 53 f5 3a 8a 5e 74 bd 30 84 1b 3e 0c e2 c2 bc
       0.0018716875 -0.059660472 0.15187144 -0.023789428
0000b0 ff c3 f8 3d 3d 1b 02 3d 72 56 83 3d af 86 d7 bd
       0.12146758 0.031764258 0.064129725 -0.10523736
0000c0 5c 35 bd bd 7c 7e 4f be 4f 45 2d 3d 2f 22 84 3d
       -0.09238693 -0.20263094 0.042302426 0.064518325
0000d0 61 5a af bd 42 0c 45 be 25 70 cc 3d bf 18 86 3d
       -0.0856216 -0.19242957 0.09982327 0.06547689
0000e0 2f f1 d5 3d dc 35 8f 3c 32 33 50 be 35 c2 6f 3d
       0.10446393 0.017481737 -0.2033203 0.05853482
0000f0 fc 85 38 bd cc 4b c7 3d 2d 2b 06 be b8 61 a0 bd
       -0.045049652 0.09731254 -0.13102408 -0.07831138
000100 e9 23 51 bd a2 51 b1 bd 46 ab 66 bd 71 a8 40 3e
       -0.051059637 -0.08658148 -0.056315683 0.18814255
000110 31 0d f9 bd 71 be 87 3d 2b ec 4d 3c 00 57 0c bd
       -0.12160719 0.06628121 0.012568514 -0.034262657
000120 5b f1 18 bd 0f 40 a5 bd 2a b6 14 be 53 9e e4 bc
       -0.03733955 -0.08068859 -0.14522615 -0.027907526
000130 46 08 f5 bd a6 9c 93 bc a6 bd 61 3c a0 72 b4 bc
       -0.11964469 -0.018019032 0.013778126 -0.022027314
000140 8a 56 6c bd ff 9c 0c bc b3 26 3c be ab bb 8e bd
       -0.057699718 -0.008582353 -0.18374138 -0.069693886
000150 11 7c cd 3b 1d 13 01 3d 50 86 6a bd b4 82 18 be
       0.0062708934 0.03151237 -0.057256997 -0.1489361
000160 f7 05 8e 3d a7 5a 96 bd 45 2a 04 be 93 6b 95 3c
       0.069347315 -0.07341509 -0.1290675 0.018239772
000170 32 9e 3f bd 5d b5 21 3d 61 c2 25 3e ba 6c 84 3d
       -0.046781726 0.039479602 0.16187431 0.064660504
000180 fa 5a bc bd 4f 44 62 bd ae d7 66 bc 0b 05 0e be
       -0.0919704 -0.055240925 -0.014089508 -0.13869111
000190 55 fa 59 bd e9 5b fb 3c c8 2b 4c 3c 1a cb d3 bc
       -0.05321725 0.030683475 0.01246161 -0.025853682
0001a0 0e 82 66 bc f7 ab dd bd 62 53 42 bd 1b 38 93 3d
       -0.014069093 -0.10823815 -0.0474428 0.07188436
0001b0 b0 d1 85 3e 4c 31 10 3e 3e 98 8f bd bb 44 8b 3d
       0.2613654 0.14081305 -0.0701146 0.06800219
0001c0 f9 93 99 3d 98 aa 23 3e a9 cf e5 3d 79 60 0f be
       0.07498927 0.15983045 0.11221249 -0.14001645
0001d0 ef c9 90 3b ab 0b 58 be 0f 46 c6 3a 92 39 d9 3c
       0.0044186036 -0.21098201 0.001512708 0.02651671
0001e0 5b 31 4b bd 36 a8 89 bb e0 25 a2 3d 8f 76 15 be
       -0.049607616 -0.0042009605 0.0791738 -0.14596008
0001f0 96 47 aa bd cd 43 24 3e 71 04 01 be d2 af d9 bd
       -0.08314435 0.16041489 -0.1259935 -0.10629238
000200 2e ff 29 be 7d 03 91 3d 59 75 2a 3e c5 76 5a be
       -0.1660125 0.070807435 0.16646327 -0.2133437
000210 98 01 30 3d e5 bc 74 be 96 d3 18 bd 22 e7 1e bd
       0.04297027 -0.23900183 -0.03731116 -0.038794644
000220 1b 9a ad 3d 4d 5a 8f 3c 59 b1 a9 3d 2f 08 39 be
       0.08476659 0.017499113 0.082857795 -0.18069528
000230 4c 92 38 3e a8 bb 1c bc 3f 1f 3f 3e 9c d7 b0 3a
       0.18024558 -0.009566225 0.18664263 0.0013491991
000240 4b c8 31 be dc 57 9c bd 8a 41 18 be 3d 29 4f bd
       -0.17361562 -0.07633945 -0.14868751 -0.050576437
000250 a7 0f 0d bd 9e ae 6d ba 36 00 37 3e 0d 4f db 3c
       -0.034438755 -0.00090668525 0.17871174 0.026771093
000260 b9 c1 57 3e 10 4a 9f 3d c7 1c 91 3d 96 65 8a 3d
       0.21069993 0.07777798 0.07085567 0.06757657
000270 e3 79 f9 3d 4a 20 f1 3c 9e c7 cb bd 47 6e 82 3d
       0.12181451 0.029434342 -0.09950183 0.0636869
000280 4f dc 5c 3e 85 ca 2f 3c 39 c4 5c bd cd 8e 14 3b
       0.21568416 0.010729437 -0.05389807 0.0022668124
000290 c1 0d 97 bd 4a b9 c8 3d 0d 04 49 3d 80 e4 79 3e
       -0.0737567 0.09800966 0.04907613 0.24403572
0002a0 6a aa 2d 3d f7 b4 fd bc 79 ea d4 bc 91 45 22 3d
       0.042398848 -0.03097008 -0.025990712 0.039617125
0002b0 03 e8 8d bd 3a 93 eb bd cd 99 e6 bc 11 4f 45 3d
       -0.06929018 -0.115026906 -0.02814951 0.048171107
0002c0 7b 26 28 3d d9 dc 08 be 29 08 26 3e fd 44 cd bd
       0.041052323 -0.13365497 0.1621405 -0.10022924
0002d0 37 62 47 3d 04 c3 54 3d a6 eb 25 be f9 05 2a 3d
       0.04867765 0.051943794 -0.16203174 0.041509602
0002e0 53 60 12 3e 35 f8 27 be 6e 48 0d be 29 6b ba bd
       0.14294557 -0.16403277 -0.13797161 -0.091024704
0002f0 b1 f4 34 3d 8b 23 6e 3d 7b 85 b2 3c 71 b6 de 3b
       0.04417867 0.058139365 0.021792164 0.006796651
000300 b8 d3 34 be 88 22 04 be 77 7f cd bd 5d 93 e8 3c
       -0.1765889 -0.12903798 -0.100340776 0.02839058
000310 a3 da c6 3d 1e b2 66 bc 14 8e 8a bc 83 d1 32 3e
       0.097096704 -0.014080552 -0.016913451 0.17462735
000320 57 21 f8 bd 52 b3 1a 3e 9c bd 02 3d e4 32 a4 3d
       -0.12115734 0.15107468 0.031919107 0.08017519
000330 1a 59 1f be ec 36 94 bd 21 15 82 bd 56 ac ce bd
       -0.15561333 -0.07237038 -0.06351686 -0.10091464
000340 b8 5a b1 bd c6 1c 6a bd 8f 13 02 3d 1f 5e ce 3d
       -0.08659881 -0.057156347 0.031756934 0.10076546
000350 fa 41 e6 bd ba ff 1f 3e ce f0 06 3c 9a cb 04 be
       -0.11243053 0.15624896 0.008236123 -0.12968293
000360 b8 ab 0d bd 37 74 63 3c dc 22 11 bc 01 b4 1d 3e
       -0.034587592 0.013882688 -0.008858409 0.15400697
000370 4c 0c 09 be 9e 57 fd 3c 3e 5b 3d 3c 14 a8 5e 3d
       -0.13383597 0.030925568 0.011557398 0.05435951
000380 80 e0 02 be e2 c2 11 bd 0b a0 a8 bd 80 9f 23 3e
       -0.12780952 -0.035586245 -0.08233651 0.15978813
000390 96 28 dd 3d b2 09 60 bc 34 74 48 bd b6 7a a7 bd
       0.10798757 -0.013674187 -0.048938945 -0.08177702
0003a0 b2 e3 90 3d 44 03 fb bc 18 2f 07 3e 1d a1 8c bd
       0.070746794 -0.030641206 0.13201559 -0.068666674
0003b0 34 5d 27 3e e4 b9 d3 3c 00 ce 2e bc 2e ff ae 3d
       0.16344148 0.025845475 -0.010669231 0.085447654
0003c0 a7 df 8a 3c 1f 71 8c bc 87 69 e6 bd 0f 75 07 be
       0.016952349 -0.017143784 -0.112505965 -0.13228248
0003d0 62 7c 7d 3c b8 d4 43 be 9c 53 83 bb 28 a9 32 3b
       0.01547155 -0.19124115 -0.0040077697 0.002726147
0003e0 02 75 83 bc f5 a9 0d be 7f 5c 3c be dc 55 00 bd
       -0.016047005 -0.13834365 -0.1839466 -0.031331882
0003f0 25 33 c1 bd 32 97 ec 3d 1e 68 53 be 77 48 f6 bc
       -0.09433583 0.11552276 -0.20645186 -0.03006385

Conv1.kern f4 [3, 3, 3, 24]
000000 ed 1c 1e bd 13 f1 ca bd 94 6f cd bd 63 d7 f7 3d
       -0.038601805 -0.099092625 -0.100310475 0.12101629
000010 7d 79 52 3d bf 43 10 bd ea d4 e0 bd 49 43 35 bd
       0.05138539 -0.035220858 -0.1097811 -0.04425362
000020 fd 95 78 bb e2 69 22 be 77 c9 29 3e 98 e6 18 be
       -0.0037931197 -0.15860704 0.16580759 -0.14931715
000030 b6 07 84 bd 9d a4 10 be 20 93 12 bd 38 3f dd bd
       -0.06446783 -0.14125295 -0.03578484 -0.10803074
000040 a3 4b 2b be b6 a0 39 3e 57 30 0a 3d 86 65 dc bd
       -0.16728072 0.18127713 0.033737507 -0.107615516
000050 b4 fc fb bd 3e ec fc bd b2 9d a5 bb a8 57 e8 bb
       -0.12304059 -0.12349747 -0.005054199 -0.0070905276
000060 21 2a 94 3c 29 fb fe bd b3 02 19 3e 57 cf 2e 3e
       0.018086495 -0.12450249 0.14942436 0.17071281
000070 df 6e 0a be 9f 74 08 bd 3f 89 9d 3d 03 d8 29 3c
       -0.13518856 -0.033314344 0.07692193 0.010366443
000080 68 91 d0 bd 61 df 19 3e bd 34 4c be 70 3e a0 bc
       -0.10183984 0.15026619 -0.19941993 -0.019561023
000090 37 88 1e 3e ae 50 e8 bd f3 89 20 3e c4 58 1d 3d
       0.1548165 -0.113435134 0.15677623 0.03841473
0000a0 2b f1 d1 bd eb 27 10 3b 4c 0a 38 3d 43 b9 49 3e
       -0.10251077 0.002199645 0.044931695 0.19699578
0000b0 68 99 39 3d 0f 72 6d 3d de 1f 5a 3d 27 ef 82 3d
       0.045312315 0.057970103 0.053253047 0.06393271
0000c0 62 20 fb 3d 1d 20 06 3e be af e4 3d fc 1e 57 3d
       0.12262036 0.13098188 0.11166333 0.052519783
0000d0 a5 c7 b6 bd 3e d5 3e 3e a8 d8 10 3e 77 9c 24 bc
       -0.08924798 0.18636033 0.14145148 -0.01004707
0000e0 89 4a e0 bc e7 37 7d 3e cb e4 72 3d a7 cf 14 be
       -0.027379291 0.24728356 0.059300225 -0.14532338
0000f0 d9 b9 16 3e bb 24 7a 3d f2 5f 05 be 84 9c f7 bd
       0.14719333 0.061070185 -0.13024881 -0.120904
000100 f0 08 0f bc c0 1e 8f 3c a7 4f 17 be 23 30 32 be
       -0.008730158 0.017470717 -0.14776479 -0.17401175
000110 0a f0 14 bd c0 e6 3f 3e 92 c9 0d 3c 0e 00 a0 3c
       -0.03636173 0.18740368 0.008654015 0.019531276
000120 3c b4 29 be 9d 40 98 3b 45 c5 58 be 5b 11 7d bd
       -0.1657266 0.0046463744 -0.21169002 -0.06178413
000130 13 f9 b4 bb 51 46 1e be 02 78 95 3d db 13 ee bd
       -0.005522856 -0.15456511 0.0729828 -0.11624881
000140 d1 dd e4 3d d5 b4 b7 bd af 9b 06 bb b8 39 eb bd
       0.111751206 -0.08970038 -0.0020539572 -0.11485618
000150 e0 08 2a be e2 3f 77 bc fb ae 37 bd c7 7e 2d 3e
       -0.16604948 -0.015090914 -0.04484461 0.16942893
000160 2f a6 8b 3d 51 cb 48 3d 81 77 af 3d 3d cf 3e bd
       0.068188064 0.049022023 0.085677154 -0.046584357
000170 03 99 d4 ba 0b 2e 8e bc 61 ec 4a 3d 54 76 68 be
       -0.0016219917 -0.01735594 0.049541835 -0.22701389
000180 40 08 5e 3e cb a9 92 bd c4 bd 79 3d 17 aa 24 be
       0.21682835 -0.07161292 0.06097199 -0.16080509
000190 bc e0 c9 bd 19 46 7b 3d 02 c9 85 3c f3 22 01 bd
       -0.09857318 0.061346147 0.0163312 -0.03152747
0001a0 80 ef 5f bd ff f6 54 be dc af ed bd 17 b2 ee ba
       -0.054671764 -0.20797347 -0.11605808 -0.0018211034
0001b0 e6 1a 82 3d dc 54 eb 3c c7 ba c5 bb b4 8a 2e 3d
       0.06352787 0.028726988 -0.0060342285 0.042612746
0001c0 0c 85 10 3e 1a 1f 24 3d 51 46 10 3d 48 56 44 bd
       0.14113253 0.040068723 0.03522331 -0.047933847
0001d0 40 f6 21 bd 7f 6d 48 bd 5e c3 3e bc d7 7f 6e 3e
       -0.039541483 -0.04893255 -0.011643259 0.23290955
0001e0 9f 67 22 3e 4c d3 c5 bc 11 3c ad 3d e8 34 fa 3d
       0.15859841 -0.024148606 0.084587224 0.12217122
0001f0 49 b4 6e bd 46 1b d9 bd e5 da 20 bd 25 f2 a3 bb
       -0.058277402 -0.10600905 -0.039271254 -0.005003231
000200 13 af 46 bd fc fb a5 3d 39 99 8b 3d 91 00 a0 bd
       -0.048506808 0.08104703 0.06816334 -0.07812608
000210 dc b5 94 3d 0b 79 7d 3e 53 8d 2c be 4d 93 12 be
       0.072612494 0.24753205 -0.16850786 -0.14314003
000220 71 7b cf 3d 42 e0 cb bd 97 41 27 3d 5b e5 9d 3d
       0.101309665 -0.09954883 0.040834036 0.07709762
000230 31 c6 90 bd 26 2a 74 3c cd 09 db 3d e2 e0 01 3d
       -0.07069052 0.014902627 0.10695229 0.031708606
000240 eb 32 0b 3e 14 b1 0d 3c 07 06 9d bc 65 2b dd bc
       0.13593642 0.008648176 -0.019167913 -0.026998231
000250 90 9e 7b 3e 51 4e 0b 3c cd ac 2d be 92 14 6b ba
       0.24572206 0.008502559 -0.1696045 -0.0008967604
000260 11 16 6f 3d 81 c5 0b 3e fe fc 5a 3d c7 3c 84 bd
       0.058370654 0.1364956 0.05346393 -0.06456905
000270 dc 2a 65 bd 19 bd c9 bd c1 6a 64 bd 96 fa 64 3d
       -0.055949077 -0.09850521 -0.05576587 0.05590304
000280 3c 75 f3 3b f6 a6 34 be 7b 4c 02 3e a1 88 7e bd
       0.007429747 -0.17641816 0.12724487 -0.06214202
000290 81 5a 4a be d4 b5 06 be 2a 8d bb 3c 97 e0 45 bb
       -0.19761087 -0.131553 0.02289446 -0.003019368
0002a0 7e 72 8b 3d ac 2f bf bd b8 64 53 3d 7c d6 d8 bd
       0.06808947 -0.093352646 0.051609725 -0.10587785
0002b0 80 ec a2 3d 58 bb 26 be 1b 28 29 bd fc 8d 4d bd
       0.07955265 -0.16282403 -0.041298013 -0.050184235
0002c0 e4 c6 b8 bd 1a 89 04 be 48 4d 18 ba c9 2d 8e bd
       -0.090223104 -0.12942925 -0.00058098556 -0.069423266
0002d0 b0 4b 7c 3d 61 87 71 bd d0 21 b4 3d cc e7 5c bc
       0.06159562 -0.058966998 0.08795512 -0.013482999
0002e0 21 30 e5 bd cc 20 83 3d 6a 1b a7 bd c6 16 a5 3d
       -0.111908205 0.0640274 -0.08159526 0.08060984
0002f0 18 5e 85 3d 62 ce 11 3e 45 88 17 be 67 f4 06 3e
       0.065120876 0.14238885 -0.14798076 0.1317917
000300 fc cb 08 3e e4 00 b8 3d 80 16 97 bd aa a3 8a bc
       0.13359064 0.08984545 -0.073773384 -0.016923744
000310 20 0b be 3d 34 41 1a 3e c2 5c a1 bc 34 7a 04 3e
       0.09279466 0.15063936 -0.01969755 0.12937242
000320 d2 3d ac 3c 32 49 26 3e a6 40 5d bd a3 4f a0 3c
       0.021025572 0.1623886 -0.05401673 0.019569224
000330 21 ed f0 bc 7a 5d 15 3e bf 38 12 be 62 8f cc bc
       -0.029409947 0.1458644 -0.1427946 -0.024970714
000340 d0 04 83 3b 7c ea 9c bd d6 18 2e be fe 15 4f 3d
       0.0039983764 -0.07661912 -0.17001662 0.050558083
000350 5d 75 b0 3d 46 25 19 be 02 95 07 be ad 18 b8 3d
       0.08616135 -0.14955625 -0.13240436 0.089890815
000360 12 cb a9 3d 1a f2 93 bc bf 58 bf bc 74 af 62 3c
       0.08290686 -0.018059779 -0.023357747 0.013835777
000370 d4 0d bd bd 1f 7d bd 3b fd 5c fa bc 96 20 00 3e
       -0.09231153 0.005782738 -0.030561918 0.1251243
000380 01 97 54 3e 10 6f 9a 3d 91 99 eb 3d eb 93 b6 bd
       0.20760728 0.07540715 0.115039 -0.08914932
000390 14 8d 88 bd ea 8e 0b 3d c9 80 10 3d 73 66 4d 3c
       -0.066675335 0.03407184 0.03527907 0.012536633
0003a0 70 f6 d5 bd a4 c3 61 3d ff 9a 89 bd 18 93 f8 bd
       -0.10447395 0.055118218 -0.06719016 -0.12137431
0003b0 04 b2 8c bd b2 3e 44 be 0f 10 ba bc 9e 20 69 bd
       -0.06869891 -0.19164541 -0.022712735 -0.05691587
0003c0 fa ee 62 3d 50 5f 97 bd 7c 2a 1f 3e 63 7b f8 3d
       0.055403687 -0.07391226 0.1554355 0.12132909
0003d0 71 af 61 3d b3 c2 3c 3d 24 6e 78 bd 0e 33 fc bd
       0.055098955 0.046084117 -0.060651913 -0.123144254
0003e0 35 19 0a 3d 9b 53 83 3c 21 5b 42 be 2f ac 93 bd
       0.033715446 0.016031077 -0.18980075 -0.07210576
0003f0 2d fe 79 3d 42 63 07 be 1f 79 0d be 94 89 b3 bd
       0.061033417 -0.13221458 -0.13815735 -0.08766475

Conv2.bias f4 [36]
000000 bd 5f a9 bc 43 08 4e bd 0f ad 95 bc a1 6e 9e 3c
       -0.020675534 -0.050300848 -0.018270997 0.019339861
000010 aa ab 01 bd 07 1c 38 bc be 0e 90 bb 62 65 9c bd
       -0.031657852 -0.011237151 -0.0043962887 -0.07636525
000020 12 80 a8 3c 19 42 90 3b 75 d2 8a 3c 4a a8 d0 bc
       0.020568881 0.0044024107 0.016946057 -0.025470871
000030 b2 35 53 3b 72 a8 d3 3c 49 0a d5 bb c9 13 1a bd
       0.003222805 0.025837157 -0.00650147 -0.037616525
000040 18 c9 48 3d 7f 81 4d 3d 1c a0 8c bc b7 e0 46 bc
       0.049019903 0.050172325 -0.01716619 -0.012138537
000050 39 1f 07 bd 55 ef 52 bb 13 10 d5 3c 60 d7 fd bb
       -0.03298876 -0.003218611 0.026008641 -0.007746622
000060 73 0d 0c 3d 28 5d 1d 3d f7 fc 01 bd b6 d4 20 3b
       0.034192514 0.03841892 -0.031735387 0.0024540848
000070 4b 97 a8 bc 6a 96 ae bb 0f 5f 69 bc e9 73 10 bd
       -0.020579955 -0.0053279893 -0.014243855 -0.03526679
000080 b7 1c d8 bc 9e 5e 32 bc bf 8b 3a bc 13 82 17 bd
       -0.02638088 -0.010886816 -0.011385857 -0.036989283

Conv5.kern f4 [3, 3, 64, 128]
000000 3e b8 4f bd 23 2d f7 3a 8f 42 64 bd fc 33 98 bd
       -0.050712816 0.0018858056 -0.055727538 -0.0743179
000010 22 5f 62 3d c5 00 ca bc b4 98 35 3d ca 06 ce bc
       0.055266507 -0.02465857 0.044335082 -0.025149722
000020 82 09 cf b9 86 18 11 3e 14 3f a3 bd ba a4 4f 3d
       -0.000394892 0.14169511 -0.079710156 0.050694205
000030 6c bf 27 be 34 17 18 3d f2 a7 18 bb 44 41 85 bb
       -0.16381615 0.037131503 -0.0023293463 -0.004066618
000040 9e 7d 08 3c 50 8c be 3a c9 54 28 be aa 97 f7 bd
       0.008330731 0.0014537666 -0.16438593 -0.120894745
000050 ce d6 44 3d d8 7c f9 3d 39 c5 4a 3b 44 9c 2c 3d
       0.048056416 0.12182015 0.0030940308 0.042141214
000060 eb 57 e3 bd 75 8f b2 3d 5d e2 3a be af b6 26 bd
       -0.111007534 0.087187685 -0.18250413 -0.040701564
000070 7a 57 72 3d df 0e 99 3d 5b eb ea bd 3b 59 3a be
       0.059165455 0.074735396 -0.11470672 -0.18198101
000080 c7 25 ec bd 9b 4f 71 bd e1 56 8a bd f5 73 09 3e
       -0.11530643 -0.05891381 -0.06754852 0.1342314
000090 b0 94 46 be 90 8c f0 3c 07 04 cc 3c c1 42 27 be
       -0.19392657 0.0293639 0.024904264 -0.16334058
0000a0 34 83 5a 3c 29 63 26 ba 0f 98 09 bd 75 0a 83 bd
       0.013336945 -0.00063471735 -0.03359228 -0.06398479
0000b0 07 0f 37 3d 5d aa 3f bb 07 fb 0c bd 87 20 eb 3c
       0.044692066 -0.0029245832 -0.034419086 0.028702034
0000c0 41 54 a1 3d 20 92 a5 3d 42 a1 2f bc 16 e1 b2 3d
       0.07877398 0.08084512 -0.010719599 0.08734338
0000d0 1a 27 27 bd 91 b9 af bd 93 76 f6 3c 50 51 aa 3d
       -0.040808775 -0.08580316 0.030085837 0.083162904
0000e0 a4 6c 22 bd 5f 55 1a be 78 3d db bb b7 de 33 3d
       -0.03965439 -0.15071629 -0.0066906773 0.04391357
0000f0 88 0a 9d bd d8 5b 72 3c a9 eb 51 3d fd a2 ec 3d
       -0.07668024 0.014792405 0.051250134 0.11554525
000100 0e d7 4a 3e 8c fc b1 3d 41 06 74 3d 51 74 73 3c
       0.198086 0.086907476 0.059576277 0.014859275
000110 71 fc df bc 22 aa ea 3c 92 6d 0a bd 1b 01 8c 3d
       -0.027342053 0.028645579 -0.0337959 0.06836148
000120 68 f4 c5 3c 66 fa 81 bd fe be c7 bd 13 ba e7 3c
       0.024164394 -0.06346588 -0.09753226 0.02828697
000130 79 e1 6d bd d0 b5 56 bd 2f d9 5f bd 1f ed 66 bd
       -0.058076356 -0.052419484 -0.05465048 -0.05637848
000140 48 a9 e5 3d 5e 04 c9 bc 95 ad f7 bd 41 7f d8 3d
       0.112139285 -0.024538215 -0.12093655 0.10571147
000150 4d 6b 14 3e c5 36 32 be 4a 62 66 3c 09 f5 07 bd
       0.14494057 -0.17403705 0.01406152 -0.033192668
000160 e2 1a 89 bd f7 69 dd bd a1 f4 25 be 96 dd 0c 3e
       -0.066945806 -0.10811227 -0.162066 0.13756403
000170 36 9b bb 3c d9 0d 14 be 4c bd c8 bb 63 26 1c be
       0.022901159 -0.14458407 -0.0061260816 -0.15249018
000180 bc f3 25 3c 61 d1 cf bc 7e 99 98 bc 97 90 28 3d
       0.010128912 -0.025368394 -0.018627878 0.041153517
000190 4b 00 ea 3c 9b 31 35 be e0 92 04 3c c2 65 8b 3d
       0.028564593 -0.17694704 0.008091658 0.06806518
0001a0 d0 46 75 3d fd ad 3f 3d 5d bd 31 3e 10 1f 66 3c
       0.059881985 0.046796788 0.17357393 0.014045492
0001b0 0f 4b b7 bd f9 74 16 3e 82 b1 c5 bd 61 6a 6a bd
       -0.08949863 0.14693059 -0.096529976 -0.057230357
0001c0 2d 22 a7 3d a3 22 15 be 65 56 11 be 2d b4 69 3d
       0.081608154 -0.14563994 -0.14193113 0.057056595
0001d0 92 6f 2e 3d 66 df d6 ba d1 6d a6 3d 14 b8 90 3d
       0.04258687 -0.0016393482 0.081264146 0.0706636
0001e0 7e fa 34 bd af 64 f8 3b a8 d6 3d be ef e1 ea bd
       -0.0441842 0.007580362 -0.18538916 -0.11468875
0001f0 a5 7e b4 bc 87 1a fb 3d 01 fd c3 bb 6c 99 9c 3c
       -0.022033045 0.12260919 -0.005981088 0.019116126
000200 3c c9 30 be 7f e5 3f 3c 27 82 d3 bc a8 cd 52 3c
       -0.17264265 0.011712431 -0.025818897 0.012866415
000210 a8 70 0a be 14 d9 c4 3c 30 22 7f 3c 26 6e dc bd
       -0.13519537 0.024029292 0.015572116 -0.10763197
000220 43 db 11 bd 3e 19 ad 3d b1 ec 27 be 5c 70 4f bd
       -0.035609495 0.0845208 -0.16398884 -0.050644264
000230 34 c1 bc 3d 41 f1 ba 3d 67 72 7b 3c 20 f5 7d bd
       0.09216538 0.09128047 0.0153471 -0.062001348
000240 dd 4a 47 be 29 b4 c9 bc ad 8c 99 bd c8 a1 a2 3d
       -0.19462152 -0.02462204 -0.07497535 0.079410136
000250 5a 40 6a 3d 17 37 8d bd b6 d2 bc 3d 65 5a ac 3c
       0.057190277 -0.06895273 0.092198774 0.021039197
000260 0d 37 2f bd 4f 0a fc 3d e8 e3 d6 3d 23 b9 5a bd
       -0.04277711 0.12306654 0.104926884 -0.053399216
000270 46 56 ca bc 1f 04 f7 3d 35 97 5b 3c 5c eb 28 bd
       -0.024699342 0.12061333 0.01340275 -0.04124008
000280 26 3e 4c 3e 04 e8 be bd e0 b9 a7 3a 4d c2 7d 3d
       0.19945583 -0.09321597 0.0012796484 0.061952878
000290 3a e1 e8 bc d4 c2 50 bd 0b c1 50 be c8 14 71 3d
       -0.028427709 -0.050967053 -0.2038614 0.05885771
0002a0 7b 22 43 bc 40 20 a7 3c 9b 73 27 3c 74 0d f2 3d
       -0.011910076 0.02040112 0.010220434 0.11818972
0002b0 66 7c 51 bc 07 65 25 bd 52 e9 e3 38 f2 20 8b bd
       -0.012786007 -0.04037955 0.00010867663 -0.06793393
0002c0 32 ce 23 be 79 10 2f 3d ae c7 a9 3d 7b 34 bd 3c
       -0.15996626 0.04274032 0.08290039 0.023096314
0002d0 1c e7 11 3e 3a c8 0c be 89 ea 33 be 87 ef ea 3d
       0.14248317 -0.13748255 -0.17569937 0.114714675
0002e0 33 75 ac bb 85 4b 71 3c ef d4 7b bd 37 81 80 3d
       -0.0052629947 0.014727478 -0.061482366 0.06274646
0002f0 77 23 85 3d 80 ca 12 bc 46 39 66 be 6e 76 b7 3d
       0.06500905 -0.008959413 -0.22482786 0.089581355
000300 f3 57 6b 3d 8d 16 be bd 89 45 d6 3c e7 d0 43 3d
       0.05745692 -0.09281645 0.026156204 0.047806647
000310 7f 6e 3e 3e 59 37 71 be cd 47 5d bd 65 32 21 be
       0.18596838 -0.2355627 -0.054023553 -0.1574188
000320 2b 9b 91 bb b4 02 d7 bc e8 78 da 3d a2 23 b5 bd
       -0.0044435463 -0.026246406 0.10667592 -0.08844687
000330 bb 22 bb 3d a5 86 10 3d d4 0d fd 3c 2a bc b0 3d
       0.09137484 0.035284657 0.030890383 0.086296394
000340 8b e1 91 bc 6e ef d9 3d ff 9f 0c 3e c6 82 ab bd
       -0.017807743 0.10641371 0.13732909 -0.083745524
000350 24 1c cb bd 6a 8c 77 3d 7b 1d 80 bd 4d 80 13 bc
       -0.09917477 0.060436644 -0.06255623 -0.009002757
000360 33 c3 0e bd 8c 05 57 bc 30 5f 02 3e c5 26 57 be
       -0.034854125 -0.013123881 0.12731624 -0.21010883
000370 7d cd 93 3d d5 08 80 3d 05 cf 9b bd 92 8b eb bd
       0.07216928 0.062516846 -0.07607845 -0.1150123
000380 1f f4 18 be 18 a7 b1 bc c8 5e ac 3c 3f 20 1f bb
       -0.14936875 -0.021686122 0.021041289 -0.0024280695
000390 af e3 78 bd fb 68 3b 3e af 84 b8 bc 85 3f 0a 3e
       -0.06076401 0.18301766 -0.022524206 0.13500793
0003a0 9e e5 3c bd 37 f4 70 bb 6c 55 f2 bd 1e f0 a7 bc
       -0.046117418 -0.0036766657 -0.11832699 -0.020500239
0003b0 87 bb 19 3d d9 89 9f bc 4c 19 f0 bc 1a bb 09 be
       0.037532356 -0.01947491 -0.029308937 -0.1345028
0003c0 b0 dd 67 bb 49 90 90 3d d1 7d ba 3b fb 30 27 3d
       -0.0035379939 0.0705877 0.005691268 0.040818196
0003d0 dd 40 17 be 8c ab 40 3e 4d ff 72 3c 0e c9 a3 3d
       -0.14770837 0.1881544 0.014831376 0.079973325
0003e0 83 4b 67 3d c0 59 fe bd 3b dc 20 be e7 5e 06 bd
       0.056468498 -0.12419462 -0.15709011 -0.03280535
0003f0 8b fb a0 bd d9 40 c4 bd b7 87 ba 3d f2 01 a8 3d
       -0.07860478 -0.09582681 0.09107917 0.08203496

Conv1.bias f4 [24]
000000 69 c7 56 bd f9 39 d9 bc e3 f5 9e b8 37 c7 87 3c
       -0.052436266 -0.026516901 -7.579827e-05 0.016574485
000010 36 aa 69 bc 75 c3 a5 bc 06 3e bb bd 33 d1 67 3c
       -0.014261773 -0.020234803 -0.091426894 0.014148998
000020 b1 13 6c bd 98 fa 27 bd 12 b0 12 bd cd 04 22 bd
       -0.057635967 -0.04101047 -0.035812445 -0.03955536
000030 e8 2d 4b 3c cc 9c 5b 3c 42 04 0d 3c e5 ab 50 3c
       0.012401082 0.0134040825 0.008606972 0.012736295
000040 4c 87 a5 ba 98 bc ab 3b 2c d0 38 bd 42 1d 49 3c
       -0.0012628823 0.005240988 -0.045120403 0.012275042
000050 0f 5a 2b 3c 97 44 bc 3c 71 73 9e bd 45 01 82 3d
       0.010458483 0.022981925 -0.077368625 0.063478984
